ES100_Test_Data/policy_final.pth (torch, 599919 bytes, 12 tensors)

log_std f4 [12]
0	0xbf9d085f	-1.226818
1	0xbfdbf05c	-1.7182727
2	0xbff34385	-1.900498
3	0xbfe54dc4	-1.7914357
4	0xbfd8e5be	-1.6945112
5	0xbfc43c16	-1.5330837
6	0xbfc2ea94	-1.5227838
7	0xbfbf3142	-1.4936907
8	0xbfbc2462	-1.4698603
9	0xbfcf5c93	-1.6200126
10	0xbfb5ab6e	-1.4192941
11	0xbfc45fc7	-1.5341729

mlp_extractor.policy_net.0.weight f4 [256, 26]
0	0x3d55c815	0.052192766
1	0x3e1cdd0e	0.153187
2	0xbd208b3a	-0.039195277
3	0xbe0bf2d4	-0.1366685
4	0x3d818639	0.06324429
5	0x3d88142f	0.06644475
6	0xbdacdeab	-0.08440908
7	0xbc267777	-0.010160319
8	0x3cd17c37	0.025571926
9	0xbd09563c	-0.033529505
10	0x3e4219e0	0.18955183
11	0xbdc988a1	-0.09840513
12	0x3e4901c6	0.19629583
13	0x3c1ec84c	0.009691309
14	0xbe0345b7	-0.12819563
15	0x3d85dfa1	0.065367945
16	0xbc8b3ba5	-0.016996214
17	0x3d796fc9	0.060897622
18	0x3ec34740	0.38140297
19	0x3d0fe415	0.035129625
20	0x3ed75302	0.42055517
21	0xbe6e8aa1	-0.2329507
22	0xbe535628	-0.20638335
23	0x3effb0d1	0.49939588
24	0xbe73292e	-0.23746178
25	0x3e2a17f3	0.16610698
26	0xbe365251	-0.17804839
27	0xbceac18b	-0.028656742
28	0xbc12c4dd	-0.008958069
29	0x3dfadbec	0.12248978
30	0x3d0c9d3b	0.034329634
31	0xbe3feb3c	-0.18742079
32	0xbe0f4e37	-0.1399468
33	0x3b36164e	0.002778429
34	0x3bfb712d	0.0076734037
35	0x3e79dbad	0.24400206
36	0x3deb484c	0.11488399
37	0x3d8747c6	0.066054866
38	0xbe074bda	-0.13212529
39	0xbe05c6a5	-0.13064058
40	0xbe1d4ace	-0.15360567
41	0xbbe9184d	-0.0071134926
42	0x3c43c9d9	0.01194998
43	0xbceae320	-0.028672755
44	0xbeb47460	-0.35245037
45	0xbe3dfb45	-0.18552883
46	0xbc47fdef	-0.012206539
47	0xbc9247d3	-0.017856514
48	0x3e61cab4	0.22049981
49	0x3d2c8652	0.042120285
50	0xbe41fae8	-0.1894337
51	0xbdadb81c	-0.08482382
52	0x3db48900	0.08815193
53	0xbeae4554	-0.34037268
54	0x3eef575b	0.46746334
55	0x3c5f1711	0.013616339
56	0x3bd5c7ce	0.0065240627
57	0xbe0dc7dd	-0.13845773
58	0x3dd5016b	0.10400661
59	0xbd8aaebc	-0.06771609
60	0xbdc46532	-0.09589614
61	0xbd9d4959	-0.076800056
62	0xb9a291c9	-0.00031007666
63	0x3e05d07f	0.13067816
64	0xbde97e1d	-0.11401007
65	0x3cac7399	0.021051215
66	0x3efe6b29	0.49691132
67	0x3d0086ea	0.031378664
68	0xba85c157	-0.0010204714
69	0xbc952193	-0.018204486
70	0x3e68ed32	0.22746733
71	0x3dcd542a	0.10025819
72	0xbd7a6e1f	-0.061140176
73	0xbe10fb79	-0.14158429
74	0x3e04fc79	0.12986936
75	0xbd396111	-0.045258585
76	0xbb1abfdc	-0.0023612892
77	0x3cf32d09	0.02968456
78	0xbef9dc24	-0.48800766
79	0xbe148c6f	-0.14506696
80	0xbe754ba0	-0.2395463
81	0x3cbe150c	0.023203395
82	0xbb9775f9	-0.0046222177
83	0x3e2f9f2b	0.17150562
84	0x3c2f1b19	0.010687613
85	0x3da4906e	0.0803536
86	0xbe4189dd	-0.18900247
87	0x3df23871	0.118271716
88	0xbb8056e2	-0.0039166072
89	0xbdba29de	-0.09090017
90	0xbe24b4b8	-0.16084564
91	0xbdbe3f9a	-0.09289475
92	0x3e443c03	0.19163518
93	0x3c3ef915	0.0116560655
94	0x3d5b3c76	0.053524457
95	0xbceb949c	-0.028757386
96	0x3e219d49	0.15782656
97	0xbdc4ff97	-0.096190624
98	0x3aa2e073	0.001242651
99	0x3d2163f0	0.03940195
100	0x3e5e5b1d	0.21714444
101	0xbd884bed	-0.06655107
102	0xbd881ed2	-0.066465035
103	0x3df4788d	0.11937056
104	0x3d38c21b	0.04510699
105	0xbe0bd1b3	-0.13654213
106	0xbda4aceb	-0.08040794
107	0x3da17276	0.0788316
108	0x3d9e51d0	0.07730448
109	0xbc7332f5	-0.014843692
110	0x3bcf8611	0.0063331206
111	0x3c472e42	0.012157025
112	0x3df77468	0.120827496
113	0x3e8a19ea	0.26972896
114	0xbe1321e5	-0.14368398
115	0x3e0460ce	0.12927553
116	0xbc7f1379	-0.0155686075
117	0x3d403afe	0.04693126
118	0x3db2ef2f	0.08737027
119	0xbdc473d8	-0.09592408
120	0x3c8cf276	0.017205458
121	0xbd56c7aa	-0.05243651
122	0xbcfb600b	-0.030685445
123	0x3d5297b0	0.05141419
124	0x3e91974b	0.2843574
125	0xbd9cd6da	-0.07658167
126	0xbe02909c	-0.12750477
127	0x3c91eb7b	0.017812481
128	0xbcb47d87	-0.022032512
129	0xbca4a891	-0.02009991
130	0xbcb017c7	-0.021495713
131	0x3e1fe065	0.15612943
132	0xbc693a31	-0.014235065
133	0x3e7ac552	0.24489334
134	0xbdee5bfd	-0.11638639
135	0xbd21c576	-0.039494954
136	0x3d2376b8	0.03990814
137	0xbdea53cb	-0.114417635
138	0xbe5f9f3c	-0.21838087
139	0x3c2fb5e5	0.010724519
140	0x3e405040	0.18780613
141	0xbdf0df1e	-0.11761306
142	0x3e159b43	0.14610009
143	0x3d889926	0.06669836
144	0xbd907265	-0.07053069
145	0xbd42ff43	-0.047606718
146	0x3d21ec3a	0.039531924
147	0xbcb3825e	-0.02191275
148	0xbeb9d750	-0.36297083
149	0xbe913ecc	-0.28368223
150	0x3e8f7bec	0.28024232
151	0x3e06aa1a	0.13150826
152	0x3e739ac5	0.23789509
153	0xbe19cac8	-0.15018761
154	0x3adf2871	0.0017025602
155	0x3e8df2dd	0.27724352
156	0x3e803f93	0.25048503
157	0x3e198d66	0.14995345
158	0x3dd5934e	0.10428487
159	0x3d3daca6	0.04630723
160	0x3df23e0d	0.118282415
161	0x3dda8c98	0.106713474
162	0xbce80396	-0.028322022
163	0x3e2a3a51	0.16623808
164	0x3dbed441	0.09317828
165	0x3e4abe37	0.19799124
166	0x3d81b3f6	0.06333153
167	0x3d91c539	0.07117695
168	0x3d92abe9	0.071616955
169	0x3ccb2470	0.024797648
170	0xbd62878b	-0.055305045
171	0xbc8e8583	-0.017397648
172	0x3da324f4	0.079660326
173	0x3d7ba050	0.061432183
174	0x3ce005cf	0.02734652
175	0xbed459eb	-0.41474852
176	0x3e22592f	0.15854333
177	0xbeb3d206	-0.35121173
178	0x3eb6dd6b	0.35715804
179	0xbdadb75f	-0.08482241
180	0x3cf54159	0.029938387
181	0x3caed237	0.021340473
182	0xbeb81ddc	-0.3596028
183	0xbdf6027b	-0.12012192
184	0xbe43a1f2	-0.19104746
185	0x3db39596	0.08768766
186	0x3deeda7d	0.11662767
187	0xbde4ec70	-0.111779094
188	0xbc9c4b4f	-0.019078879
189	0x3d98dcca	0.07463987
190	0xbd4a4595	-0.049382765
191	0x3e5ff76c	0.21871728
192	0x3b6d10b4	0.0036173286
193	0xbd5686e3	-0.05237473
194	0xbba61a1d	-0.005069031
195	0x3cc430f4	0.023949124
196	0x3cf8fdd8	0.03039448
197	0x3d7df76f	0.06200355
198	0x3cbe1e41	0.023207786
199	0xbdd36e45	-0.103237666
200	0x3d802fdd	0.06259129
201	0xbe60bde3	-0.21947436
202	0xbeb2e2e8	-0.3493874
203	0xbe0eb581	-0.13936426
204	0x3d7c4314	0.06158741
205	0x3e7db04d	0.24774285
206	0x3d8a69b7	0.06758445
207	0xbebdd624	-0.3707744
208	0x3e2b9eb2	0.16759756
209	0x3cff589d	0.031170184
210	0xbedbd04b	-0.42932352
211	0x3d57f326	0.05272212
212	0xbc31fb52	-0.010863142
213	0xbd8e863b	-0.06959196
214	0xbdc07bc5	-0.09398607
215	0xbb0d5adc	-0.002156905
216	0x3e6b3c8a	0.22972313
217	0x3cd87304	0.026422031
218	0x3e2df2a0	0.16987085
219	0x3e0fe7f5	0.14053328
220	0x3dfdf2b8	0.123998106
221	0x3dc508f0	0.09620845
222	0xbd29deb3	-0.04147215
223	0x3dc2a8a1	0.0950482
224	0xbae467ea	-0.0017425988
225	0xbd000a11	-0.0312596
226	0x3cda37bf	0.02663791
227	0xbc896da8	-0.016775921
228	0x3dac4e81	0.08413411
229	0x3e352518	0.17689931
230	0xbdd6716f	-0.104708545
231	0x3e567b6a	0.20945516
232	0x3e82ef38	0.25573134
233	0x3e890e51	0.26768735
234	0xbdef26d1	-0.116773255
235	0xbd2d8cb3	-0.04237051
236	0x3dafecf8	0.0859012
237	0xbd3c7cd9	-0.0460175
238	0xbe019527	-0.12654553
239	0x3dd282de	0.10278867
240	0xbbdeb2df	-0.0067962254
241	0x3e0f16c3	0.13973527
242	0x3dd7f61a	0.10544987
243	0xbe1ecccc	-0.15507811
244	0x3d1aee6a	0.037825026
245	0x3e1d6078	0.15368831
246	0x3e1e730c	0.15473574
247	0x3d934375	0.07190601
248	0xbe267186	-0.16254243
249	0x3bd6bbc2	0.006553144
250	0x3c40f45e	0.011777012
251	0xbc91f6bb	-0.017817846
252	0x3f0754ec	0.52863955
253	0xbe883438	-0.2660234
254	0x3e348c10	0.17631555
255	0x3dd8ce65	0.10586242

mlp_extractor.policy_net.0.bias f4 [256]
0	0x3d948aad	0.07253013
1	0x3ce24f09	0.027625578
2	0xbd64a5b4	-0.05582209
3	0xbde34003	-0.11096194
4	0xbb929ec6	-0.0044744937
5	0xbbda74f7	-0.0066667753
6	0x3cee1933	0.02906475
7	0xbd6e30c0	-0.05815196
8	0x3dbf7266	0.09347992
9	0x3e0c0782	0.13674739
10	0xbd548734	-0.051886752
11	0xbe0a1f48	-0.13488495
12	0xbdae9fb1	-0.085265525
13	0xbcbaf627	-0.022822453
14	0xbdb105c9	-0.086436816
15	0x3c8c4285	0.017121563
16	0x3d285903	0.041100513
17	0x3dd8119f	0.10550236
18	0x3dd4098c	0.103533834
19	0x3d793069	0.060837183
20	0x3cbe7a43	0.023251658
21	0x3dc37db7	0.095454626
22	0xbdbe15cb	-0.092815004
23	0x3d854867	0.0650795
24	0x3d6f48dd	0.058419097
25	0x3ca24f8c	0.019813322
26	0x3d2ec7e9	0.042671118
27	0x3cdb3891	0.026760371
28	0xbb045b44	-0.0020196
29	0xbdd47db2	-0.10375537
30	0x3d291cd7	0.04128727
31	0xbd844884	-0.06459144
32	0x3daf28ab	0.08552679
33	0x3c98f4b3	0.01867137
34	0x3d72a1c9	0.05923632
35	0xbcb67ec7	-0.022277249
36	0xbdda017d	-0.10644815
37	0xbd5b96b0	-0.053610504
38	0xbd7f362e	-0.06230753
39	0xbcfd72db	-0.030938556
40	0xbd4056e1	-0.046957854
41	0x3d796e90	0.060896456
42	0x3ceea2c1	0.029130341
43	0x3dcb785e	0.099350676
44	0x3dd6dddc	0.10491535
45	0x3b9d5703	0.0048016324
46	0xbd842897	-0.064530544
47	0x3bce6e8e	0.0062998002
48	0xbe01b71c	-0.12667507
49	0xbd798a2e	-0.060922794
50	0x3c47cc8e	0.012194766
51	0xbc309d2e	-0.010779662
52	0xbd121ffc	-0.035675034
53	0xbca468ef	-0.020069567
54	0x3d9e7f87	0.07739168
55	0xbda4a0d0	-0.08038485
56	0x3d206a49	0.03916386
57	0xbd5bbf28	-0.053649098
58	0xbd020f8f	-0.03175312
59	0x3a57d225	0.0008232913
60	0xbe2c1ecf	-0.16808628
61	0x3bcd5f10	0.006267436
62	0xbd0678f9	-0.032830212
63	0x3d32e204	0.043672577
64	0xbca35f12	-0.019942794
65	0xbd044c62	-0.032299407
66	0x3bc2135f	0.0059227194
67	0x3c9315ca	0.017954726
68	0x3b24a5f4	0.002512333
69	0xbbdebc72	-0.006797367
70	0xbd2f1162	-0.042741187
71	0xbd73da8f	-0.059534606
72	0xbd7dd19e	-0.061967485
73	0x3d992db8	0.07479423
74	0x3d6d06c8	0.057867795
75	0x3d721a28	0.059106976
76	0x3d9deca2	0.0771115
77	0x3b0d478a	0.0021557533
78	0xbd564277	-0.05230948
79	0x3cae2bfc	0.021261208
80	0x3dbcc314	0.09216896
81	0xbd25e293	-0.04049928
82	0xbd093ef7	-0.033507314
83	0xbc326e28	-0.010890521
84	0xbcba7f29	-0.022765713
85	0x3d5f1116	0.054459654
86	0x3d1fe130	0.039033115
87	0x3ab981c6	0.0014153055
88	0xbb039e00	-0.002008319
89	0x3c16e4eb	0.009209852
90	0xbccd8bf3	-0.025091147
91	0xbe2dadc0	-0.16960812
92	0xbd3dfd8b	-0.046384376
93	0x3d937325	0.071996965
94	0x3d069a33	0.0328619
95	0xbbe2f56f	-0.0069262306
96	0xbda167ae	-0.078811035
97	0x3e2b339d	0.16718908
98	0x3a090d7b	0.0005228144
99	0x3caf8466	0.021425437
100	0xbce37e29	-0.027770119
101	0xbc45d8ca	-0.012075612
102	0x3d323b83	0.043513786
103	0x3b1f02e5	0.00242632
104	0x3dc11133	0.094271086
105	0xbb9d33dc	-0.004797442
106	0x3ca37e3c	0.019957654
107	0xbd51cdd4	-0.051221684
108	0x3dbf94ab	0.09354528
109	0x3da6a96d	0.08137784
110	0x3dc07234	0.093967825
111	0xbd4851dd	-0.048906196
112	0x3d238ef0	0.039931238
113	0xbdb3bf2d	-0.08776698
114	0xbc99e16a	-0.018784244
115	0x3df8f167	0.12155419
116	0xbd988a57	-0.07448261
117	0x3e0c7174	0.13715154
118	0x3d7306fa	0.059332825
119	0x3d17fe1f	0.037107583
120	0xbb9570d0	-0.0045605674
121	0xbce5fc94	-0.02807454
122	0x3c175691	0.009236948
123	0x3d431bc0	0.047633886
124	0xbe0f01f1	-0.13965584
125	0x3ce7d609	0.028300302
126	0xbd851169	-0.06497461
127	0xbc2f48ce	-0.01069851
128	0xbbd5a094	-0.0065193865
129	0x3d2f7995	0.04284056
130	0x3ddbfae4	0.10741213
131	0xbd05cc47	-0.032665517
132	0xba4f3938	-0.00079049496
133	0x3d3d023a	0.0461447
134	0xbd16eeb1	-0.036848728
135	0xbbe0155e	-0.0068384847
136	0x3dc49512	0.095987454
137	0x3d5ca407	0.053867366
138	0x3a4cc378	0.00078111095
139	0x3d7a4c43	0.061107885
140	0xbc0dcd40	-0.008654892
141	0xbda971e9	-0.0827368
142	0xbcd1baf8	-0.025601849
143	0x3d998332	0.07495727
144	0x3d2297ba	0.03969548
145	0x3d928675	0.07154552
146	0xbd783e0e	-0.060606055
147	0x3daee656	0.08540027
148	0x3d9781cc	0.07397804
149	0x3d3b4e9f	0.045729276
150	0x3cfcbfc1	0.030853154
151	0x3d99b31f	0.07504868
152	0x3b0acc8f	0.0021179055
153	0x3d15928d	0.036516715
154	0x3dd701d8	0.104983985
155	0xbe5c869b	-0.21535723
156	0x3dc41dcc	0.09575996
157	0x3df9fa28	0.12205917
158	0x3d55128a	0.052019633
159	0x3d147244	0.036241785
160	0x3d4abb37	0.04949495
161	0x3d110e11	0.035413805
162	0x3d4fcb3a	0.05073092
163	0xbd834028	-0.06408721
164	0xbc851f24	-0.0162502
165	0x3ce916c4	0.028453238
166	0xbc2f9adf	-0.0107180765
167	0x3d5b04e4	0.05347146
168	0x3d762260	0.060091376
169	0x3d55b1a6	0.052171372
170	0x3d6df957	0.058099117
171	0x3d097730	0.03356093
172	0x3bc4348f	0.005987711
173	0x3d34e35c	0.04416214
174	0x3a4520a5	0.0007519818
175	0xba2c8ea3	-0.0006582534
176	0x3d89cdad	0.06728683
177	0x3d012896	0.031532846
178	0x3df07cda	0.117425635
179	0x3e09252e	0.13393089
180	0x3d9424ba	0.072335675
181	0xbc77598e	-0.015097035
182	0x3d9bbf30	0.076048255
183	0x3d136723	0.03598703
184	0xbd512db3	-0.051068973
185	0xbcbc96ec	-0.023021184
186	0x3d578fdc	0.05262743
187	0x3d83c21c	0.06433508
188	0x3d6ba1af	0.05752724
189	0x3d03fc4b	0.032223027
190	0xbd003b42	-0.031306513
191	0x3d65d179	0.05610797
192	0x3b235f45	0.0024928611
193	0x3ceb8c77	0.028753502
194	0x3d996838	0.07490581
195	0xbe0c9f29	-0.1373259
196	0x3dd2af5a	0.10287352
197	0x3c243536	0.010022452
198	0x3d810682	0.063000694
199	0xbb9e64fd	-0.004833816
200	0x3df374d0	0.118875146
201	0x3c08ccf1	0.008349643
202	0xbd797a35	-0.06090756
203	0x3b20d26a	0.002453948
204	0xbcfff7bd	-0.03124606
205	0x3d8295da	0.06376238
206	0x39feb8cf	0.00048584348
207	0x3deebf47	0.11657577
208	0x3b5e48a5	0.0033917811
209	0x3d8db204	0.069187194
210	0x3d91ea50	0.0712477
211	0x3e0d7c4e	0.1381695
212	0xbd3a31c5	-0.04545762
213	0x3d83c340	0.06433725
214	0x3ceb4667	0.028720094
215	0x3cc44a88	0.02396132
216	0x3d2486c0	0.04016757
217	0xbd5de641	-0.054174665
218	0x3cf8d288	0.030373827
219	0xbd0ad363	-0.033893
220	0x3ba796cc	0.005114412
221	0x3d99ae43	0.07503941
222	0x3d5b7f8e	0.053588443
223	0xbd9d003c	-0.0766606
224	0x3d4b1fb8	0.049590796
225	0xbd6b2548	-0.0574086
226	0xbde83236	-0.11337702
227	0x3cc004fb	0.023439875
228	0xbbacd5f4	-0.0052745286
229	0xbcb19d9a	-0.021681596
230	0xbcaefc56	-0.021360558
231	0xbcea5a01	-0.02860737
232	0xbcf288cc	-0.029606245
233	0x3d3e4958	0.046456665
234	0xb69711bb	-4.502215e-06
235	0x3d9e6f3f	0.07736062
236	0x3db68b16	0.08913247
237	0x3d8f67db	0.07002231
238	0xbd0e3da9	-0.034726772
239	0x3d4f02d6	0.050539814
240	0x3d2e56f3	0.04256339
241	0x3d1cbb17	0.03826436
242	0x3dc6ea76	0.097126886
243	0x3cb7dc48	0.022443905
244	0xbcea3050	-0.02858749
245	0xbcd8ae1c	-0.02645021
246	0x3d1827aa	0.0371472
247	0x3d48aebf	0.048994776
248	0xbd3c79c2	-0.046014555
249	0xbc9f9a43	-0.019482737
250	0x3d00aa24	0.03141226
251	0xbd12e54d	-0.03586321
252	0xbcf85d80	-0.030318022
253	0x3d92428e	0.071416005
254	0xbc664bd7	-0.014056168
255	0x3da0b112	0.078462735

mlp_extractor.policy_net.2.weight f4 [256, 256]
0	0xbdf47e82	-0.11938192
1	0x3dab3416	0.08359544
2	0xbc539dea	-0.012916068
3	0xbbde4811	-0.0067834933
4	0xbdcd0e11	-0.100124486
5	0x3e01b1e2	0.12665513
6	0xbb22528c	-0.002476844
7	0xbe16ab9a	-0.14713898
8	0x3e071bf9	0.13194264
9	0xbe326b3e	-0.17423722
10	0x3e1512d2	0.1455796
11	0xbd38039d	-0.04492532
12	0x3e2dfb0a	0.16990295
13	0xbce142cf	-0.027497677
14	0x3c913252	0.01772419
15	0xbe4b5639	-0.1985711
16	0xbd61927d	-0.055071343
17	0xbc99b1e6	-0.018761586
18	0x3e1d9db5	0.15392192
19	0xbd863e78	-0.06554884
20	0x3ce87bef	0.028379409
21	0x3c9c3702	0.019069199
22	0xbe272156	-0.1632131
23	0x3a421115	0.0007403058
24	0xbcc24217	-0.023713155
25	0xbe02dc40	-0.12779331
26	0xbcf17fcc	-0.029479884
27	0x3dadc3e1	0.084846266
28	0xbcd71b89	-0.026258247
29	0xbc96b9c7	-0.018399132
30	0x3e0c8a1e	0.13724563
31	0x3dff841f	0.12476372
32	0xbe0099e7	-0.12558709
33	0xbd37784c	-0.04479246
34	0x3e1566e6	0.14590034
35	0xbbbb5006	-0.0057163266
36	0xbcef24f4	-0.029192425
37	0xbc431124	-0.011905942
38	0xbe1d747c	-0.15376467
39	0xbdcacdf8	-0.09902567
40	0xbdb57e82	-0.0886202
41	0x3d6be09a	0.057587244
42	0x3e006f7d	0.1254253
43	0xbdceb96f	-0.100939624
44	0xbe2ad7ee	-0.16683933
45	0x3e562798	0.20913541
46	0xbd967551	-0.07346595
47	0x3defb0bb	0.117036305
48	0xbcd8fe5b	-0.026488474
49	0x3e41367f	0.18868445
50	0x3c00c023	0.007858309
51	0xbb299a65	-0.002587938
52	0x3de1042d	0.109871246
53	0xbda627d3	-0.081130646
54	0xbd9e2cf9	-0.077234216
55	0x3c868118	0.016418979
56	0x3e223608	0.15840924
57	0x3ce082a9	0.027406054
58	0xbe200811	-0.15628077
59	0xbdce2e4b	-0.100674234
60	0xbda63d19	-0.08117122
61	0xbdb33df7	-0.08752053
62	0xbd432e04	-0.047651306
63	0x3de5de32	0.11224021
64	0xbd798788	-0.06092027
65	0x3dc6ada3	0.09701087
66	0xbe308ebd	-0.1724195
67	0xbd5def41	-0.05418325
68	0xbe0a44a9	-0.13502754
69	0xbd1739be	-0.0369203
70	0xbe21b73a	-0.15792552
71	0x3dd420c6	0.103578135
72	0xbdae9fd5	-0.08526579
73	0xbe495e63	-0.19664912
74	0x3d608118	0.054810613
75	0x3bf82c2d	0.0075736255
76	0xbe27beab	-0.16381328
77	0xbd1750f5	-0.03694244
78	0x3e15a522	0.14613774
79	0xbdbb29e4	-0.091388494
80	0xbe05b41a	-0.13056985
81	0x3c9ab5d3	0.018885529
82	0xbc5485e5	-0.012971376
83	0x3e47853d	0.1948442
84	0xbd3caa36	-0.046060763
85	0xbdd80048	-0.10546929
86	0x3d858c32	0.06520881
87	0xbe38c7e9	-0.1804501
88	0x3e570dcf	0.21001361
89	0x3daf60d7	0.085633926
90	0xbdfe77fe	-0.124252304
91	0xbccedc38	-0.025251493
92	0xbce18f11	-0.02753404
93	0xbd812edc	-0.06307766
94	0x3d3cc430	0.046085536
95	0x3ddfb31f	0.109228365
96	0xbe169e42	-0.14708808
97	0x3e921e5f	0.28538796
98	0xbdb807a8	-0.08985835
99	0x3d3510be	0.04420542
100	0x3b6be987	0.0035997347
101	0xbde1f0fc	-0.11032292
102	0x3dc42ba7	0.095786385
103	0x3e1d9bf7	0.15391527
104	0x3dc41d94	0.09575954
105	0x3e14adf6	0.14519486
106	0xbe28051f	-0.16408204
107	0x3e0a2550	0.13490796
108	0xbe5d1f8e	-0.21594068
109	0xbb8e4ed0	-0.0043428913
110	0xbda18cc7	-0.07888179
111	0x3e059c65	0.13047941
112	0x3c3f2173	0.01166569
113	0xbcb86bd6	-0.022512358
114	0xbe00b23d	-0.12567993
115	0xbdec1b50	-0.11528647
116	0x3e5d0b09	0.21586241
117	0x3de36739	0.111036725
118	0xbe14ac44	-0.14518839
119	0x3d739796	0.059470735
120	0x3e040604	0.1289292
121	0xbace7e60	-0.0015754215
122	0xbe35830b	-0.1772577
123	0x3dcdb6bb	0.10044619
124	0xbde56f52	-0.11202873
125	0xbd5c1c0c	-0.053737685
126	0x3da1cc8e	0.07900344
127	0xbd819f29	-0.063291855
128	0xbe125a23	-0.14292197
129	0x3d2ae8e1	0.041725997
130	0xbd0d1103	-0.03444005
131	0x3cf3696c	0.029713355
132	0x3dc9e76a	0.09858592
133	0x3e087334	0.13325197
134	0xbe1af611	-0.1513293
135	0xbd0ae029	-0.033905182
136	0x3d192ae1	0.037394408
137	0x3ba0d5dc	0.0049083065
138	0xbdda9dd5	-0.10674635
139	0xbdd0bf11	-0.10192693
140	0xbe5a477a	-0.21316329
141	0x3c7b6bed	0.015345556
142	0xbcd90051	-0.026489409
143	0x3ca75b7e	0.020429369
144	0xbc8ef2aa	-0.017449696
145	0xbe05009a	-0.1298851
146	0x3dd59b69	0.10430033
147	0x3c87f2bb	0.016595235
148	0x3e239913	0.15976362
149	0x3e0a9b8c	0.13535899
150	0x3d1fec08	0.039043456
151	0xbd34b750	-0.044120133
152	0xbcbfc8eb	-0.023411235
153	0x3dc56f11	0.09640325
154	0x3c0b1594	0.008489031
155	0x3d7d6b2c	0.061869785
156	0xbe4d1964	-0.20029217
157	0x3cd8301c	0.026390128
158	0xbd7ab468	-0.061207205
159	0xbde74dc0	-0.112941265
160	0xbc169bc8	-0.009192415
161	0x3d0361e3	0.032075774
162	0x3bc8b77c	0.0061253887
163	0xbc0a5f41	-0.008445562
164	0x3db75461	0.08951641
165	0xbc848bd9	-0.016179966
166	0x3e0283aa	0.12745538
167	0x3c884dbc	0.01663863
168	0x3d370b4d	0.04468851
169	0x3dbcd3eb	0.09220108
170	0xbd56908e	-0.05238395
171	0x3d097aba	0.033564307
172	0xbdf8cf46	-0.12148909
173	0xbd174b38	-0.03693697
174	0x3dadc17b	0.08484169
175	0xbda3c7d7	-0.07997101
176	0xbd159a2c	-0.036523983
177	0xbcf39d73	-0.029738164
178	0xbde1d1b9	-0.110263295
179	0x3c0fb80f	0.00877191
180	0xbdb2e469	-0.08734972
181	0xbddd0ba0	-0.10793233
182	0x3e15eff0	0.1464231
183	0xbcf55b4c	-0.02995076
184	0xbdd535a3	-0.10410621
185	0x3d652783	0.055945884
186	0x3c2004d1	0.009766773
187	0xbd4c6b7b	-0.04990719
188	0x3df3e492	0.11908831
189	0x3d9e5b0f	0.07732212
190	0x3e4566a0	0.1927743
191	0xbe38103c	-0.17974943
192	0xbd7608a3	-0.06006683
193	0x3de15fc6	0.110045955
194	0xbd46ba18	-0.048517317
195	0xbdf24011	-0.11828626
196	0x3dd4a8ee	0.10383783
197	0x3d154055	0.036438305
198	0xbd6d1f2e	-0.057891063
199	0xbd90f308	-0.070776045
200	0x3da8b945	0.08238462
201	0x3d808db1	0.062770255
202	0xbc0e428b	-0.008682857
203	0xbd7416e2	-0.059592135
204	0xbd9f23ff	-0.077705376
205	0xbe54ea02	-0.20792392
206	0x3bebc701	0.007195354
207	0xbcf8f7f8	-0.030391678
208	0xbd850fc7	-0.0649715
209	0xbd981f7d	-0.07427881
210	0x3d854dbd	0.06508968
211	0x3d95caae	0.07314049
212	0x3dc85bda	0.09783144
213	0x3df93ae0	0.12169433
214	0xbd82d633	-0.063885115
215	0xbe2db9f3	-0.16965465
216	0xbe4c47ff	-0.1994934
217	0x3e059a9c	0.1304726
218	0x3e3f203f	0.18664645
219	0x3e1bbd16	0.1520885
220	0xbd6e4d01	-0.058178905
221	0xbc9deb0a	-0.019277114
222	0x3cc979c8	0.024594203
223	0x3df33946	0.118761584
224	0xbc885658	-0.016642734
225	0xbd9684e2	-0.07349564
226	0xbbf39987	-0.0074340734
227	0xbd72f2fc	-0.05931376
228	0xbd77d209	-0.06050304
229	0xbb8e9ac5	-0.004351946
230	0xbc7e49c0	-0.015520513
231	0x3c80eb49	0.015737193
232	0x3dd04f9c	0.10171434
233	0x3c4c5512	0.012471454
234	0xbd1cc124	-0.03827013
235	0xbc221927	-0.009893692
236	0xbdbb3760	-0.09141421
237	0xbd522f21	-0.051314477
238	0xbdea7f14	-0.114500195
239	0x3e471dbc	0.19444937
240	0xbd3e7704	-0.04650022
241	0xbdbc32d3	-0.091893815
242	0xbd102e78	-0.035200566
243	0xbdaeab52	-0.085287705
244	0xbda5daa7	-0.08098345
245	0xbd8688f9	-0.06569094
246	0x3dbd94f6	0.09256928
247	0xbd87ca15	-0.06630341
248	0xbcfb0fa5	-0.030647108
249	0xbdfcc910	-0.12343037
250	0x3da7d1a0	0.0819428
251	0x3d7dd657	0.06197199
252	0x3dc7c71b	0.09754773
253	0x3e178f7b	0.14800827
254	0x3c7ee3c2	0.015557231
255	0xbcb4109d	-0.021980578

mlp_extractor.policy_net.2.bias f4 [256]
0	0x3c65016b	0.013977389
1	0xbaf708cb	-0.0018847225
2	0x3ca59435	0.020212272
3	0xbca7100b	-0.020393392
4	0xbc48928a	-0.012241969
5	0xbb082bef	-0.002077814
6	0xbb7854d2	-0.0037892354
7	0x3d2fea70	0.042948186
8	0xbcf309b3	-0.02966771
9	0x3d9ce0be	0.07660054
10	0x3b8437c2	0.004034967
11	0x3d0275e5	0.031850714
12	0x3d074879	0.0330281
13	0x3ca69199	0.020333098
14	0xbc9ff5b0	-0.019526333
15	0x3bf4a850	0.0074663535
16	0xbbdd113c	-0.0067464393
17	0x3d30c6f2	0.04315848
18	0xbc39f902	-0.011350872
19	0xbbfbd8c8	-0.0076857544
20	0x3dade637	0.084911756
21	0x3da7ab51	0.08186973
22	0x3d7d92aa	0.061907448
23	0xbd1d2b87	-0.03837159
24	0xbc1f9fc5	-0.009742682
25	0xbc6afac5	-0.014342015
26	0xbc04a3ce	-0.008095695
27	0xbd013c58	-0.03155169
28	0xbbccde01	-0.006252051
29	0xbd715b75	-0.05892511
30	0x3d4b7055	0.049667675
31	0xbc934592	-0.01797751
32	0x3cc29b4e	0.023755696
33	0x3d14ac94	0.036297396
34	0xbc2b86af	-0.010469123
35	0xbcb4cc5a	-0.022070099
36	0x3d1b0aa9	0.037851963
37	0xbcec66f7	-0.028857691
38	0x3c75bbde	0.014998404
39	0x3bb105b1	0.00540229
40	0xbcb32d72	-0.021872256
41	0x3d8c041d	0.06836722
42	0x3c8430f7	0.01613663
43	0xbca66ff6	-0.020317059
44	0x3cc057bd	0.023479337
45	0x3d91e0b9	0.071229406
46	0x3cc700b1	0.024292322
47	0x3dd8ccad	0.10585914
48	0x3d9380f6	0.07202332
49	0x3c62fa3e	0.013853608
50	0x3ca96ead	0.020682657
51	0x3c17a9a2	0.009256752
52	0x3d1a3cdd	0.0376557
53	0xbb560194	-0.003265475
54	0x3dbc1d21	0.091852434
55	0x3c3bd5ad	0.0114645185
56	0x3c4e3bfb	0.012587543
57	0x3b63189d	0.0034652122
58	0xbd31ae84	-0.04337932
59	0x3dad3fbf	0.08459424
60	0x3d49eff0	0.049301088
61	0xbc2b9fa4	-0.010475073
62	0x3cad3314	0.02114252
63	0xbc74162f	-0.014897867
64	0xbd07d818	-0.033165067
65	0x3d08ebb1	0.033427898
66	0x3d0588b1	0.032601062
67	0x3d405b1d	0.046961892
68	0xbd4d383b	-0.050102454
69	0xbc48d9bd	-0.012258944
70	0x3d35136b	0.04420797
71	0x3c93a160	0.018021286
72	0xbb95562d	-0.004557392
73	0xbcd94671	-0.026522847
74	0xbcfd8b36	-0.03095017
75	0xbc91d565	-0.01780195
76	0xbbc10569	-0.0058905375
77	0xbcbde280	-0.023179293
78	0x3cd21267	0.02564354
79	0x3b69a037	0.0035648474
80	0x3d5b5a3a	0.053552844
81	0x3c5fef46	0.013667887
82	0xbbbad0b2	-0.005701148
83	0xbce9e238	-0.028550252
84	0x3c9173b8	0.017755374
85	0x3d58c68b	0.05292372
86	0x3af358ea	0.0018565927
87	0x3d3a57bb	0.045493823
88	0xbd1f3b1a	-0.038874723
89	0xbd09d9d6	-0.03365501
90	0x3caf85ab	0.021426043
91	0x3d2026a9	0.03909937
92	0xbcf76933	-0.03020153
93	0x3d7d27be	0.06180548
94	0x3ccfe1e9	0.025376277
95	0xbc957fbb	-0.018249383
96	0x3da639b6	0.08116476
97	0x3b4003a5	0.0029299047
98	0x3d10b334	0.03532715
99	0xbc1fdd80	-0.0097574
100	0x3be7b099	0.0070706126
101	0x3c58c538	0.013230614
102	0xbc48d038	-0.0122566745
103	0x3dacba50	0.08433974
104	0xbdb00aff	-0.08595847
105	0x3c4438be	0.011976419
106	0xbbb4f0d6	-0.005521874
107	0x3c30a9cb	0.010782669
108	0x3d07660b	0.0330563
109	0xbcf42225	-0.029801438
110	0x3cab52ed	0.020913566
111	0xbb3d6ffb	-0.0028905857
112	0x3d8ea743	0.069654964
113	0xbd0fc06a	-0.03509561
114	0x3d369d35	0.044583518
115	0x3d48f2d7	0.049059715
116	0xbc49b99c	-0.012312319
117	0x3b253762	0.0025210013
118	0x3d82bbcc	0.06383476
119	0x3d0c4c0c	0.03425221
120	0x3c9f24ed	0.019426787
121	0xbca7be41	-0.020476462
122	0x3cd31408	0.025766388
123	0xbcf7d3d7	-0.03025238
124	0x3b9dd294	0.0048163626
125	0x3c845c23	0.016157215
126	0xbd054861	-0.03253973
127	0xbb1c3ef8	-0.0023841243
128	0x3d855fa2	0.06512381
129	0xbd38824d	-0.04504614
130	0x3c9dd30f	0.01926568
131	0x3d362901	0.044472698
132	0xbd6f15b1	-0.058370296
133	0xbc855500	-0.016275883
134	0xbd119904	-0.035546318
135	0xbd810d26	-0.06301336
136	0x3c00d344	0.00786287
137	0x3c8d63ef	0.017259566
138	0x3d8b927d	0.0681505
139	0x3c91ae4c	0.017783307
140	0x3d59cdc1	0.053174738
141	0xbb59dc46	-0.0033242865
142	0xbc985510	-0.018595248
143	0x3d31fb77	0.043452706
144	0x3c89c918	0.016819522
145	0xbcd19daa	-0.025587875
146	0x3a4fa2e8	0.0007920698
147	0x3dd821ea	0.105533436
148	0xbb79df13	-0.0038127347
149	0x3c31f8fc	0.010862585
150	0x3c96f89d	0.018429095
151	0x3d2e4f56	0.04255613
152	0x3c6c3d0e	0.014418853
153	0xbc950486	-0.018190634
154	0xbd057269	-0.032579813
155	0xbc069a5f	-0.008215516
156	0x3b285709	0.0025686643
157	0xbd1b6caf	-0.037945446
158	0xbc146839	-0.009058052
159	0x3c31e2dc	0.01085731
160	0xbcdbda9c	-0.02683764
161	0xbd65b613	-0.056081843
162	0x3cbd083c	0.023075216
163	0xbb03ba4b	-0.0020100053
164	0x3d23361a	0.039846517
165	0x3d0a269d	0.03372823
166	0x3cdfb5b6	0.027308326
167	0xbd230854	-0.039802864
168	0x3ca8553c	0.020548455
169	0x3bd81436	0.006594206
170	0x3cb4580f	0.022014646
171	0xbc08e318	-0.008354925
172	0xbbc34c14	-0.005959997
173	0xbd83ab08	-0.06429106
174	0x3c48592e	0.012228293
175	0x3cb24b9b	0.021764567
176	0x3c57e484	0.013177041
177	0xbb2753d9	-0.0025532155
178	0x3d6bd728	0.057578236
179	0x3d19eae7	0.037577536
180	0x3a1f5a53	0.0006078828
181	0x3d29e728	0.041480213
182	0x3d55bc8e	0.052181773
183	0x3c1134c1	0.008862675
184	0x3d48ee1b	0.0490552
185	0x3ce69bef	0.028150527
186	0x3c80b0e1	0.015709342
187	0x3ce06736	0.027392965
188	0xbcd0e738	-0.025500879
189	0x3c2a274b	0.010385345
190	0x3c833ba5	0.016019652
191	0x3d346ad7	0.044047203
192	0xbd87e035	-0.06634561
193	0x3bdeff42	0.0068053314
194	0x3bda4205	0.006660702
195	0x3d1f3eca	0.03887824
196	0xbd56fad4	-0.052485302
197	0x3a71efe0	0.00092291646
198	0x3d2d9f6f	0.042388376
199	0xbd72ecf6	-0.059308015
200	0x3bfd5397	0.007730912
201	0xbd5faa83	-0.054605972
202	0x3bd3e5f7	0.006466623
203	0x3c7c4b50	0.015398815
204	0x3c2b995e	0.010473577
205	0xbc2dc297	-0.010605476
206	0xbd80a738	-0.062818944
207	0xba070e8b	-0.00051520084
208	0x3d2e618c	0.042573497
209	0x39f0236f	0.00045802767
210	0x3ca6b0a4	0.0203479
211	0x3cc78d1a	0.024359275
212	0x3d1aac47	0.037761953
213	0x3c8c14a4	0.017099686
214	0x3c7863d4	0.01516052
215	0x3befbaef	0.0073159854
216	0x3d28492d	0.04108541
217	0xbd38f88c	-0.045158908
218	0x3c31783f	0.010831892
219	0xbc6b8cd4	-0.014376838
220	0x3c97f133	0.01854763
221	0x3ca20241	0.019776465
222	0x3e073f7b	0.1320781
223	0xbd6c2b21	-0.05765832
224	0x3c97d087	0.01853205
225	0x3d8993c1	0.06717635
226	0x3d06ffe0	0.032958865
227	0xbcb49fc3	-0.022048837
228	0x3c686427	0.014184034
229	0x3d6ac4d5	0.05731662
230	0xbbb4b002	-0.005514146
231	0xbd13183f	-0.035911795
232	0x3cdddb92	0.027082238
233	0x3b575072	0.0032854346
234	0x3d9f4328	0.07776481
235	0x3ac3dceb	0.0014943158
236	0xbcdc57c0	-0.026897311
237	0x3d370c92	0.044689722
238	0x3c6e5076	0.014545551
239	0x3d2187c9	0.039436135
240	0x3d6f7c83	0.058468353
241	0x3d0d2cec	0.03446667
242	0xbcfbe1d0	-0.030747324
243	0x3d30563f	0.043051
244	0xbd0f4f84	-0.03498794
245	0x3c000c7e	0.007815478
246	0xbd3a623a	-0.045503832
247	0x3c18539e	0.00929728
248	0xbcfaf22e	-0.030633058
249	0x3ccd45d6	0.025057714
250	0x3c48b4f3	0.012250173
251	0xbc9da6e4	-0.019244619
252	0x3d7380c5	0.059448976
253	0x3d2b0c04	0.041759506
254	0x3da671fb	0.08127209
255	0xbc2f1a39	-0.010687404

mlp_extractor.value_net.0.weight f4 [256, 26]
0	0xbe2a7366	-0.16645584
1	0xbd819c5b	-0.063286506
2	0x3ecc4baf	0.39901492
3	0x3e0454b8	0.12922943
4	0x3e09323c	0.13398069
5	0xbe96f2eb	-0.29482207
6	0x3bdf99d0	0.006823756
7	0x3d43bb33	0.04778595
8	0x3e004c93	0.12529211
9	0x3dfcec15	0.123497166
10	0x3db453e7	0.088050656
11	0x3ebdfcc3	0.37106904
12	0xbde2ccd0	-0.11074221
13	0x3dd589cd	0.10426674
14	0x3e114fde	0.14190623
15	0xbbce0fe3	-0.006288515
16	0x3b0c3b44	0.002139763
17	0xbcc14c68	-0.023596004
18	0xbdc57127	-0.09640723
19	0x3d5e6ab5	0.054300983
20	0x3cf9f06c	0.03051015
21	0xbdc67bd4	-0.09691587
22	0x3dc9e746	0.09858565
23	0xbdb48c18	-0.08815783
24	0xbd9a20e5	-0.075258054
25	0xbd25f459	-0.04051623
26	0x3f29869a	0.6622101
27	0xbe01db00	-0.12681198
28	0xbde6a7e8	-0.11262494
29	0xbe9ccb30	-0.3062377
30	0xbd6a191c	-0.057152852
31	0x3ee61517	0.44937965
32	0xbd83b2be	-0.06430577
33	0xbdf976ab	-0.12180837
34	0xbd447553	-0.04796345
35	0xbe468b78	-0.1938914
36	0xbe0754dd	-0.13215967
37	0xbcb135ad	-0.02163204
38	0x3f25b4c5	0.6472896
39	0x3c4da82d	0.012552303
40	0x3f24aa9e	0.6432284
41	0xbdcec6bb	-0.100964986
42	0x3cce2b6e	0.025167193
43	0xbd8926d8	-0.06696862
44	0x3e09d4d9	0.13460101
45	0x3e73bf0f	0.23803352
46	0xbe15c3ca	-0.14625469
47	0x3eca56d4	0.3951937
48	0x3e9788cc	0.29596555
49	0x3e063c8d	0.13109036
50	0x3e89d64e	0.26921314
51	0xbd8c238c	-0.068427175
52	0x3d5967f8	0.053077668
53	0x3d7156f9	0.058920834
54	0x3e475326	0.19465312
55	0x3d149267	0.036272433
56	0x3d97c165	0.07409934
57	0x3e472158	0.19446313
58	0x3daee7f9	0.08540339
59	0x3d9ab95a	0.07554884
60	0x3ded94c3	0.1160064
61	0xbcb45006	-0.022010814
62	0xbe884cec	-0.26621187
63	0x3f01d281	0.5071183
64	0x3dbd8eba	0.092557386
65	0xbbb649f1	-0.0055630137
66	0x3dfc50a1	0.12320066
67	0xbcb3bb5e	-0.02193993
68	0xbaf440f4	-0.001863508
69	0xbc45df9a	-0.012077237
70	0xbdccc657	-0.09998768
71	0xbd982e7f	-0.074307434
72	0xbd089e99	-0.033354376
73	0x3e0089b9	0.12552537
74	0x3ddf42df	0.109014265
75	0xbda6bf88	-0.081420004
76	0xbcdb24a1	-0.026750864
77	0xbd825657	-0.06364124
78	0xbe3e85d1	-0.18605734
79	0x3e52592f	0.20541833
80	0x3f0442fe	0.5166472
81	0x3e4a5a0a	0.1976091
82	0x3da26b82	0.07930662
83	0x3df7842f	0.12085759
84	0xbed8ce7d	-0.42345038
85	0x3e49891e	0.19681212
86	0x3d1644d5	0.036686737
87	0x3dbc72b1	0.09201563
88	0xbf4a41d0	-0.7900667
89	0x3d649e02	0.05581475
90	0x3e8f7a38	0.28022933
91	0x3da15112	0.07876791
92	0x3e0500b7	0.12988554
93	0xbc84ead4	-0.016225256
94	0x3e32103f	0.1738901
95	0x3dfff17d	0.12497232
96	0x3ea91506	0.33023852
97	0xbd92fd4e	-0.0717722
98	0x3ea5878c	0.32329977
99	0x3d7083bc	0.05871938
100	0xbe054c60	-0.13017416
101	0x3cfa29ab	0.030537447
102	0x3c294400	0.010331154
103	0x3e33429c	0.17505878
104	0xbf38a72d	-0.7213009
105	0x3f3490ce	0.70533454
106	0xbf41a26e	-0.75638473
107	0xbd1bb2af	-0.038012203
108	0xbe7ea852	-0.24868897
109	0xbdd069dd	-0.10176442
110	0x3e80c437	0.251497
111	0xbd61634b	-0.055026334
112	0xbc5b08c4	-0.013368789
113	0x3ea03984	0.3129388
114	0xbd9b68dc	-0.0758836
115	0x3e97731b	0.29580006
116	0xbe5f4968	-0.21805346
117	0x3e027082	0.12738231
118	0xbde4c5fc	-0.11170575
119	0xbcf6db98	-0.030134007
120	0x3c40707c	0.011745568
121	0x3c8735ed	0.016505206
122	0xbdac165e	-0.08402704
123	0x3e21314e	0.15741464
124	0xbe165a51	-0.1468289
125	0xbdd7fb25	-0.10545949
126	0x3e9248d0	0.28571177
127	0xbdba9969	-0.09111292
128	0xbd5a847d	-0.053349007
129	0xbd90d139	-0.07071156
130	0x3d9d91cf	0.076938264
131	0xb9fa25c9	-0.00047711868
132	0x3ecdafe2	0.4017325
133	0xbc8b42a6	-0.016999554
134	0x3da76f12	0.08175482
135	0xbddc4305	-0.107549705
136	0xbd642f37	-0.05570909
137	0x3e5477c3	0.2074881
138	0x3ea91703	0.3302537
139	0xbe705b31	-0.23472287
140	0xbd63813a	-0.055543162
141	0x3e3ac214	0.18238097
142	0xbd486cbc	-0.048931822
143	0xbd6104ca	-0.054936208
144	0x3e28d287	0.1648656
145	0x3ce4127d	0.027840847
146	0x3d379c8f	0.04482704
147	0x3b849875	0.0040464946
148	0x3e5e06f5	0.21682341
149	0xbdb538df	-0.08848738
150	0xbe6a2e1a	-0.22869149
151	0x3bd3d1a8	0.006464202
152	0xbdf472e0	-0.11935973
153	0x3e3e4120	0.1857953
154	0x3e10b5f5	0.14131911
155	0x3c96ba40	0.018399358
156	0x3f06e3fc	0.52691627
157	0x3e42475e	0.18972537
158	0xbe5d7e50	-0.21630216
159	0xbdca7e72	-0.09887399
160	0x3e0974e4	0.13423496
161	0x3e980a06	0.29695147
162	0xbd7266d2	-0.05918009
163	0xbde02d47	-0.10946136
164	0x3e1f8034	0.1557625
165	0xbed15085	-0.40881744
166	0xbef9a41a	-0.48758012
167	0x3e07e6cd	0.13271637
168	0x3e90ba08	0.2826693
169	0x3db572cf	0.088597886
170	0x3eba0095	0.3632857
171	0x3d82d7ff	0.06388854
172	0xbdd96d3b	-0.10616537
173	0xbd961924	-0.07329014
174	0x3e393c54	0.1808942
175	0x3d473ddf	0.04864299
176	0x3db82245	0.089909114
177	0x3ce10c4b	0.027471682
178	0x3e49ed6a	0.19719473
179	0x3e17e372	0.14832857
180	0x3caf8f5c	0.021430664
181	0x3d235389	0.039874587
182	0xbe69a585	-0.22817047
183	0x3f1e17e6	0.61755216
184	0x3f0b5197	0.5442137
185	0x3c8b0cd6	0.016973894
186	0xbbeae713	-0.0071686595
187	0x3e32a9b8	0.17447555
188	0xbc60cec8	-0.0137211755
189	0x3d25c778	0.04047343
190	0xbed2d71b	-0.41179737
191	0xbe282f07	-0.1642419
192	0x3c99f6e7	0.01879449
193	0xbe4fbc53	-0.20286684
194	0xbe51c376	-0.20484719
195	0xbf4b25d1	-0.7935458
196	0xbef3a347	-0.47585508
197	0xbcbd0446	-0.023073327
198	0x3c8798af	0.016552297
199	0xbd6aa28a	-0.057283916
200	0x3df0c7ba	0.11756845
201	0x3d91583f	0.0709691
202	0x3dc8d51f	0.098062746
203	0xbd8b8817	-0.068130665
204	0x3e8ab9a6	0.27094764
205	0xbed98b58	-0.42489123
206	0xbe89af6d	-0.26891652
207	0x3d5fd649	0.054647718
208	0xbe1a6d59	-0.15080775
209	0xbb8ca7f8	-0.0042924844
210	0x3e1ddf33	0.15417175
211	0x3e4db190	0.20087266
212	0x3e0d01c9	0.13770212
213	0xbcd5941c	-0.0260716
214	0xbd73d0a3	-0.059525143
215	0x3d53a31a	0.051669218
216	0xbce78694	-0.028262414
217	0xbe14f0b5	-0.14544947
218	0x3e79034d	0.24317665
219	0x3e59a290	0.21253419
220	0xbcf44b2a	-0.029820997
221	0xbe9a3323	-0.3011714
222	0xbbc1823e	-0.0059054187
223	0x3e4c0100	0.19922256
224	0x3ac1806f	0.0014763008
225	0xbde2b69e	-0.11069988
226	0x3d7d2c4e	0.06180983
227	0xbe5a6d29	-0.21330704
228	0xbd4f3cc6	-0.050595067
229	0x3dcbac1a	0.09944935
230	0xbe6b70fb	-0.22992317
231	0xbdee1ddc	-0.11626789
232	0xbadc9e03	-0.0016831759
233	0xbcde1535	-0.027109722
234	0x3fb2ad1a	1.3959076
235	0x3e7780df	0.24170254
236	0x3de469df	0.11153006
237	0x3e46fd6d	0.19432612
238	0x3ea96ddc	0.3309163
239	0x3f371c82	0.71527874
240	0xbdffa428	-0.12482482
241	0x3dba0a3b	0.090839826
242	0x3e6c846c	0.2309739
243	0xbf4ea542	-0.80720913
244	0xbe3cdc14	-0.18443328
245	0x3e3055b0	0.17220187
246	0x3f17e8da	0.5933968
247	0x3cb07267	0.021538926
248	0xbc4b772b	-0.012418549
249	0xbd2e88b2	-0.04261083
250	0x3c99a989	0.018757598
251	0xbdc286d7	-0.09498375
252	0xbdb56a58	-0.08858174
253	0x3dfc4fcf	0.1231991
254	0xbe8fd01c	-0.28088462
255	0xbd9537bf	-0.07286023

mlp_extractor.value_net.0.bias f4 [256]
0	0x3f6dab26	0.92839277
1	0x3e0a6498	0.13514936
2	0x3f2ab17c	0.6667707
3	0x3eb24373	0.34817085
4	0x3edbf7e2	0.42962557
5	0x3f265341	0.64970785
6	0x3f17a0e6	0.59229887
7	0xbd675b9d	-0.056483854
8	0x3f1ccf35	0.6125367
9	0x3cca541c	0.02469831
10	0xbf6d4234	-0.9267914
11	0x3ea056a0	0.3131609
12	0xbf08b687	-0.53403515
13	0x3ed29e75	0.41136518
14	0x3f22a6ac	0.6353557
15	0x3cd20c93	0.025640761
16	0xbcd7475c	-0.026279144
17	0x3f43a644	0.76425576
18	0x3f27deb4	0.65574193
19	0x3f27bfa2	0.65526783
20	0xbe3bf7b7	-0.18356214
21	0x3f3a555a	0.72786486
22	0xbe62ac0f	-0.22135948
23	0x3e8aeefa	0.2713545
24	0xbbdd3e76	-0.0067518307
25	0xbe94a589	-0.29032543
26	0xbf27f4b5	-0.6560777
27	0xbefd74b7	-0.4950311
28	0xbe6fcf6b	-0.23418967
29	0xbf1fc882	-0.62415326
30	0x3f1b8ac7	0.6075863
31	0x3dfe1a63	0.124073766
32	0xbde59af5	-0.11211196
33	0xbf358340	-0.70903397
34	0xbea0d63a	-0.31413442
35	0xbeb2bdcf	-0.34910437
36	0xbe668760	-0.22512579
37	0x3ec2d955	0.38056436
38	0xbcbf1999	-0.023327636
39	0x3da21756	0.07914607
40	0x3f39b6ff	0.72544855
41	0x3f341d16	0.7035688
42	0x3f19adab	0.6003062
43	0x3f51c557	0.8194174
44	0xbdb0c413	-0.08631148
45	0x3efe549e	0.49673933
46	0x3f53f993	0.82802695
47	0xbe706694	-0.2347663
48	0x3f34c386	0.70610845
49	0xbefc5a21	-0.49287513
50	0xbef6e6f4	-0.48223078
51	0x3f34134a	0.7034193
52	0xbf2a22fd	-0.6645964
53	0x3f245f28	0.64207697
54	0x3f045b06	0.5170139
55	0x3de527a4	0.111892015
56	0xbdf349c4	-0.11879304
57	0xbe05ac7b	-0.13054077
58	0xbef90a2e	-0.4864058
59	0xbf22a717	-0.6353621
60	0xbe12d362	-0.14338449
61	0x3deec950	0.11659491
62	0xbf983cc2	-1.1893542
63	0x3e6b3a2f	0.22971414
64	0xbf44a454	-0.76813245
65	0xbcf77420	-0.03020674
66	0x3eef1d01	0.46701816
67	0x3eb8b3ea	0.36074764
68	0xbe4a86bb	-0.19777958
69	0xbf113e63	-0.5673582
70	0x3eb7ff8d	0.35937157
71	0x3eefc5cd	0.46830598
72	0xbf0dbd6f	-0.5536718
73	0xbde9a917	-0.114092045
74	0x3f4b6547	0.7945141
75	0x3d7999b8	0.060937613
76	0x3e39229e	0.18079612
77	0xbe90c079	-0.28271845
78	0x3e69e11c	0.22839779
79	0xbe06e78a	-0.13174263
80	0x3f048755	0.51769
81	0xbef5840c	-0.47952306
82	0x3efde11a	0.495858
83	0xbf51b521	-0.81917006
84	0x3f204c47	0.6261639
85	0xbf29aedc	-0.6628244
86	0x3ee7a8c9	0.4524596
87	0x3f09b9dd	0.5379923
88	0xbdf74ad6	-0.12074821
89	0x3ee559e9	0.44795159
90	0x3f65c0d5	0.89747363
91	0x3efd884b	0.49518046
92	0xbf3f8ad8	-0.74821234
93	0x3d3be261	0.04587019
94	0xbf32199d	-0.6957033
95	0x3ead6d4f	0.33872458
96	0x3f0a6d61	0.5407315
97	0x3ef21b64	0.47286522
98	0x3f3b046e	0.73053634
99	0x3f44b9b7	0.7684588
100	0x3f39d093	0.72583884
101	0xbe454276	-0.19263634
102	0xbe8033cb	-0.25039515
103	0xbf397b82	-0.7245408
104	0x3f3ff279	0.7497936
105	0x3e34d5ac	0.17659634
106	0x3f2387b4	0.6387894
107	0x3f0e6f84	0.5563891
108	0xbf81fdc7	-1.0155572
109	0x3eff2d06	0.49839038
110	0x3eeb38a6	0.45941657
111	0x3f3da116	0.7407392
112	0xbe585105	-0.21124656
113	0x3f4e22a2	0.80521595
114	0x3e0c60cf	0.13708805
115	0xbd597dcc	-0.053098485
116	0xbe3357e1	-0.17513992
117	0x3e624d41	0.22099783
118	0x3f208ed8	0.6271796
119	0xbe586478	-0.21132076
120	0xbf1a1a58	-0.6019645
121	0x3dcededd	0.101011015
122	0x3e855495	0.26041093
123	0xbe21bb17	-0.15794025
124	0x3f1ad982	0.6048814
125	0xbeb4ebfc	-0.35336292
126	0xbc177d45	-0.009246175
127	0x3e57dbe2	0.21079972
128	0x3f2ff21b	0.687288
129	0xbda098c6	-0.07841639
130	0xbe401864	-0.18759304
131	0xbf41e4be	-0.7573966
132	0xb9fba2d5	-0.0004799577
133	0x3f9ff389	1.2496196
134	0x3f498059	0.7871147
135	0x3ef82b2d	0.4847044
136	0x3d1f3e76	0.038877927
137	0xbecfb3da	-0.40566903
138	0xbebeb93f	-0.37250707
139	0x3f2e6487	0.6812214
140	0x3f2e9d47	0.68208736
141	0x3d959724	0.073042184
142	0xbef5e693	-0.48027477
143	0xbeb66e9a	-0.35631257
144	0x3ebf5c92	0.37375313
145	0x3e9a8d60	0.30185986
146	0x3f2cf5d0	0.6756258
147	0x3e4eae1a	0.20183602
148	0xbf5da294	-0.865762
149	0xbeee4394	-0.46535933
150	0xbdd7073a	-0.10499425
151	0x3f63e533	0.89021605
152	0x3f83e275	1.0303484
153	0x3f193989	0.59853417
154	0x3f55907a	0.8342358
155	0xbe5e35e8	-0.21700251
156	0x3de1e23e	0.110294804
157	0x3f0a1a72	0.539466
158	0xbe17d181	-0.14826013
159	0x3f386a3a	0.7203709
160	0xbec950b6	-0.3931939
161	0x3e2bef29	0.16790451
162	0xbe5936b5	-0.21212275
163	0xbf52ad24	-0.8229544
164	0xbf2dcd02	-0.6789094
165	0x3f47fe1f	0.78122133
166	0xbea34508	-0.31888604
167	0x3f21968e	0.63120353
168	0xbf3a6c06	-0.7282108
169	0xbd39ccba	-0.045361258
170	0x3f1df69e	0.6170443
171	0x3f36a547	0.71345943
172	0x3f39d475	0.7258981
173	0xbe6f31d7	-0.23358856
174	0x3f5b4060	0.85645103
175	0xbf8c86d4	-1.0978646
176	0x3f0d7a31	0.55264574
177	0xbe817ebb	-0.25292
178	0x3f25e431	0.6480132
179	0x3ed21475	0.41031232
180	0x3f1f385e	0.62195385
181	0x3d2a4e54	0.041578606
182	0xbee2cd60	-0.44297314
183	0xbd3b494c	-0.0457242
184	0xbe09a726	-0.13442668
185	0x3edbd7bc	0.4293803
186	0x3f5b602d	0.8569363
187	0x3dff7739	0.12473912
188	0x3f7015d4	0.9378331
189	0x3f5bf86e	0.8592595
190	0x3e1c8219	0.15284003
191	0x3e4d11a8	0.20026267
192	0xbed5854f	-0.4170327
193	0xbf683bd9	-0.9071632
194	0x3f255f01	0.6459809
195	0x3ee65414	0.44986022
196	0x3f3790db	0.71705407
197	0xbedbc0ed	-0.42920628
198	0x3eded565	0.43522182
199	0xbf65be53	-0.89743537
200	0xbc03c23d	-0.0080419155
201	0x3f4e1714	0.80503964
202	0xbf1dff5f	-0.6171779
203	0xbec95b62	-0.39327532
204	0x3f3ede8b	0.74558324
205	0x3da9345e	0.082619414
206	0x3ea94561	0.33060744
207	0xbda544dc	-0.080697745
208	0xbeb74991	-0.35798314
209	0x3ee0effa	0.43933088
210	0x3e68a59d	0.22719426
211	0x3f80a9c8	1.0051813
212	0x3ed08420	0.40725803
213	0xbf910cf5	-1.1332079
214	0xbe35ca15	-0.1775287
215	0xbf0bc4f6	-0.54597414
216	0xbf1381e0	-0.5762005
217	0xbedf77ba	-0.43646032
218	0x3e1852ed	0.14875384
219	0xbe9bd9ab	-0.30439505
220	0x3e55b192	0.20868519
221	0xbea2c0b7	-0.31787655
222	0xbedaa2eb	-0.42702422
223	0x3e4fb70b	0.20284669
224	0x3f18c4f9	0.59675556
225	0x3f310e53	0.6916248
226	0x3ef8def6	0.48607606
227	0xbee3b4dd	-0.44473925
228	0xbf88ee4f	-1.0697726
229	0x3f2e8579	0.68172413
230	0x3d8369e8	0.064166844
231	0x3f0e88f2	0.5567771
232	0x3d4ef40f	0.05052572
233	0x3ed7783f	0.42083928
234	0x3f69bcdc	0.913038
235	0xbef89caf	-0.4855704
236	0xbf2ded42	-0.6794015
237	0x3df485ec	0.11939606
238	0xbede757e	-0.43449014
239	0xbf577455	-0.84161884
240	0x3f2e5c97	0.6811003
241	0x3f074644	0.5284159
242	0xbc03de24	-0.008048568
243	0xbe09fcca	-0.13475338
244	0xbe972ba5	-0.29525486
245	0x3e0526b3	0.13003044
246	0xbe075e61	-0.13219596
247	0xbbfd6845	-0.007733377
248	0x3eaf3e19	0.34227064
249	0x3f064f32	0.5246459
250	0x3f0d1d12	0.5512248
251	0xbece1a2c	-0.40254343
252	0x3f4a5289	0.7903219
253	0xbed4505f	-0.41467568
254	0x3f24aa9c	0.6432283
255	0x3e80ba30	0.2514205

mlp_extractor.value_net.2.weight f4 [256, 256]
0	0x3e4bcc51	0.1990216
1	0xbee6be84	-0.45067227
2	0x3e4ca3d9	0.19984378
3	0x3e35b6c2	0.17745498
4	0x3eb40dbb	0.35166726
5	0x3e285def	0.16442083
6	0x3e9ddcdd	0.30832568
7	0xbe9aafc7	-0.30212232
8	0x3d9426d7	0.072339706
9	0x3e3db4a6	0.18525943
10	0xbfb456e3	-1.4089016
11	0x3e387e64	0.18016964
12	0x3f5aa30f	0.8540506
13	0x3e13c6b3	0.14431266
14	0x3e90d29b	0.2828568
15	0xbec52375	-0.38503614
16	0xbf75441c	-0.9580705
17	0x3e8a67aa	0.27032214
18	0x3e98ddf3	0.29856834
19	0x3ec140ea	0.37744838
20	0xbe5d760f	-0.21627067
21	0x3ee66c01	0.45004275
22	0xbf2a31ed	-0.6648243
23	0xbf1767b3	-0.5914261
24	0xbf02e825	-0.51135474
25	0xbfa63fdf	-1.2988242
26	0xbe9abadb	-0.30220684
27	0xbf76c5a6	-0.9639534
28	0xbe9dd43c	-0.30825984
29	0xbf81c6f0	-1.0138836
30	0x3e1b5d5b	0.15172331
31	0x3e9687ac	0.29400384
32	0xbe113f36	-0.1418427
33	0xbf972f9c	-1.1811404
34	0xbf7655e2	-0.96224797
35	0xbf37e324	-0.71830964
36	0x3f4e5cfe	0.80610645
37	0xbf02c881	-0.51087195
38	0x3f755061	0.95825773
39	0xbf32ae5d	-0.6979731
40	0x3e352a0e	0.17691824
41	0x3eeeee82	0.46666342
42	0x3e92ad0c	0.2864765
43	0x3dc86138	0.09784168
44	0xbdeea5ee	-0.11652742
45	0x3e40793e	0.1879625
46	0x3e5cb2ba	0.21552554
47	0xbf8e4cce	-1.1117189
48	0x3e7aac35	0.24479754
49	0xbf73a388	-0.95171404
50	0x3ec93098	0.39294887
51	0x3e7c783a	0.24655238
52	0xbff528a6	-1.915303
53	0x3c9d616b	0.019211492
54	0xbf1cbc92	-0.61225235
55	0xbefe3ecf	-0.49657294
56	0xbe17fd36	-0.14842686
57	0x3eb561c5	0.35426155
58	0xbf82a956	-1.0207927
59	0xbf75810c	-0.95900035
60	0xbf480f9f	-0.78148836
61	0xbf08a622	-0.533785
62	0xbf758c07	-0.9591679
63	0x3dfac22a	0.12244065
64	0xbfc432da	-1.5328019
65	0x3ec46645	0.38359275
66	0x3da1fbb2	0.07909335
67	0x3c044505	0.008073096
68	0xbf71276f	-0.94200796
69	0xc0098982	-2.1490178
70	0xbf784f4b	-0.9699599
71	0x3eab8f08	0.33507562
72	0xbfad1b9b	-1.352405
73	0xbf83802d	-1.0273491
74	0x3ea3cb93	0.31991252
75	0x3e9a699d	0.30158702
76	0xbe2a4d39	-0.1663102
77	0xbfa3b94f	-1.2790927
78	0x3e01f9fb	0.12693016
79	0xbe9669b3	-0.29377517
80	0x3e730634	0.23732835
81	0xbd23c9e9	-0.03998748
82	0x3e4d5070	0.20050216
83	0xbf62fb03	-0.88664263
84	0x3eb440ef	0.3520579
85	0xbf5b252c	-0.85603595
86	0x3e269e67	0.16271363
87	0x3eb4f62d	0.35344067
88	0xbeca1a9f	-0.39473435
89	0x3dc2d063	0.09512403
90	0x3e1ee9fa	0.15518942
91	0x3e374060	0.17895651
92	0xbfc3cf2f	-1.5297602
93	0x3e54eb82	0.20792964
94	0xbfb9f619	-1.4528228
95	0xbceb4ff7	-0.028724654
96	0x3da2eb25	0.079550065
97	0x3efbe2cc	0.4919647
98	0x3ea28e7e	0.31749338
99	0x3ea4c6a0	0.3218279
100	0x3edf9a97	0.4367263
101	0xbe8f22c6	-0.27956218
102	0x3f411a7b	0.7543103
103	0xbfc9f97d	-1.5779263
104	0x3e6b9a59	0.23008098
105	0x3e1db3b8	0.15400589
106	0x3e85ced0	0.26134348
107	0x3e4ce3e7	0.20008813
108	0xbfaf497b	-1.36943
109	0x3e63fe52	0.22264984
110	0x3e37b766	0.17941055
111	0x3d422ce8	0.047406107
112	0xbe87b3ad	-0.2650427
113	0x3e63a1b5	0.22229655
114	0x3db05bf8	0.08611292
115	0xbd3d3e53	-0.046202015
116	0x3eec808c	0.46191823
117	0x3ca459b6	0.020062309
118	0x3e9ebef8	0.31005073
119	0xbeeea7ac	-0.46612298
120	0xbf2f3534	-0.68440557
121	0xbecdec41	-0.4021931
122	0x3f509313	0.8147442
123	0xbfd599af	-1.6687526
124	0x3deb8159	0.114992805
125	0xbd429cda	-0.047512867
126	0x3e7777d1	0.241668
127	0xbd1f57be	-0.038902037
128	0x3e1a5925	0.15073068
129	0xbf0c86a7	-0.54892963
130	0x3d765b3e	0.06014561
131	0xbfa936a7	-1.3219804
132	0xbf028bc5	-0.5099452
133	0x3e5c5626	0.21517238
134	0x3e8f8ce7	0.28037187
135	0x3f3f9969	0.7484346
136	0x3b06516f	0.0020495316
137	0xbf8b2a9e	-1.0872381
138	0xbeaeed4d	-0.3416542
139	0x3eb63b46	0.35592097
140	0x3eb66543	0.35624132
141	0xbe8ccafc	-0.27498615
142	0xbe8c2a59	-0.2737606
143	0xbfa51895	-1.2898127
144	0x3ca5ae2d	0.020224655
145	0xbe94483d	-0.28961363
146	0x3da474da	0.080301
147	0xbe86429f	-0.26222703
148	0xbf64ff6a	-0.8945223
149	0xbf3e6ac6	-0.74381673
150	0xbe6c8c07	-0.23100291
151	0x3e1693a6	0.14704761
152	0x3e11b66e	0.14229748
153	0x3e9fad3f	0.31186864
154	0x3e737015	0.23773225
155	0xbf923d33	-1.1424927
156	0xbf7196ff	-0.94371027
157	0x3f11918c	0.5686271
158	0xbf5035b5	-0.8133195
159	0x3e0cf0a6	0.13763675
160	0xbf8a12bd	-1.0786968
161	0x3dc40d6d	0.09572873
162	0xbeccf17d	-0.4002799
163	0xbf0d43c6	-0.5518154
164	0xbfa258b7	-1.2683324
165	0x3e2c9a76	0.16855797
166	0xbf91349e	-1.1344182
167	0x3ebff836	0.37494057
168	0xbfb4942e	-1.4107721
169	0xbe0b0ebe	-0.13579842
170	0x3da758b3	0.08171215
171	0x3bdee46f	0.0068021338
172	0x3e15d7f7	0.14633165
173	0xbfaff91b	-1.3747896
174	0xbe207c57	-0.15672432
175	0xc002615f	-2.037193
176	0x3e8a0fdf	0.26965234
177	0xbf0d348c	-0.55158305
178	0x3e513eda	0.20434132
179	0xbf1005f2	-0.5625907
180	0xbcdc4b9e	-0.026891526
181	0xbf3cf082	-0.73804486
182	0xbe159526	-0.14607677
183	0xbf358a5c	-0.70914245
184	0xbf6e1bbf	-0.9301109
185	0x3dcdbbec	0.10045609
186	0x3e5e58ff	0.21713637
187	0x3d37a54c	0.044835374
188	0x3e63d64b	0.22249715
189	0x3e5fdf88	0.21862614
190	0xbee546ca	-0.4478057
191	0xbea729ef	-0.3264918
192	0x3f87e922	1.0618021
193	0xbfc2c3f7	-1.5216054
194	0x3e3cdfcb	0.18444745
195	0xbe0ef5ea	-0.13960996
196	0x3e9fd639	0.31218126
197	0xbfdd3115	-1.7280604
198	0x3e3b3725	0.18282755
199	0xbf91d2fa	-1.139251
200	0xbea6a0e3	-0.32544622
201	0x3e809133	0.25110778
202	0xbf43ab8c	-0.76433635
203	0xbf484ace	-0.7823914
204	0x3e088ef0	0.13335776
205	0xbf8a785e	-1.0817983
206	0xbf66ec82	-0.9020463
207	0xbe1f6111	-0.15564372
208	0xbf31a718	-0.6939559
209	0xbdabc691	-0.08387483
210	0xbe0dea65	-0.13858946
211	0x3e82d9af	0.25556704
212	0x3e1b431a	0.15162316
213	0xbfe2ae77	-1.7709492
214	0xbf82f545	-1.02311
215	0xbf449dd0	-0.768033
216	0xbf5a9e00	-0.8539734
217	0xbfdd4284	-1.7285924
218	0xbfb19e94	-1.3876519
219	0xbff797ed	-1.9343239
220	0x3db6d2f3	0.08926954
221	0xbf2d719a	-0.6775147
222	0xbe8e8383	-0.2783471
223	0xbe8e47a9	-0.27789047
224	0x3e0d3e7b	0.13793366
225	0x3db44542	0.088022724
226	0x3c65b419	0.014019989
227	0xbff69e1e	-1.9267004
228	0xbfc0ecfb	-1.5072321
229	0x3e45b8c0	0.19308758
230	0x3d80c3e9	0.06287367
231	0x3bf4f984	0.0074760336
232	0xbf37d9ad	-0.7181652
233	0x3e5c16b3	0.21493034
234	0x3e15269f	0.14565514
235	0xbf0ec3ce	-0.55767524
236	0xbf12e23a	-0.57376444
237	0xbc38aa98	-0.0112711415
238	0xbf84c2c4	-1.0371938
239	0xbfe16ca1	-1.7611276
240	0x3e9ed06a	0.31018382
241	0xbe321d95	-0.17394097
242	0xbf9d01b5	-1.2266146
243	0x3f29b6ec	0.6629474
244	0xbf36612b	-0.71242017
245	0xbe695874	-0.22787648
246	0xbe982a91	-0.29719976
247	0xbf16abcc	-0.5885589
248	0xbf3e0dde	-0.7423991
249	0x3ea40ea4	0.3204242
250	0x3d0aa27c	0.033846363
251	0xbf3f32b5	-0.7468675
252	0x3e650b2b	0.22367541
253	0xbe18db6b	-0.14927451
254	0x3e8c23f8	0.27371192
255	0xbfd20b5e	-1.6409719
