ES100_Test_Data/policy.pth (torch, 599919 bytes, 12 tensors)

log_std f4 [12]
000000 b6 8e a6 bf 63 ce c5 bf 2f b6 99 bf 56 60 8e bf
       -1.3012302 -1.5453609 -1.2008723 -1.1123149
000010 7b 80 bd bf 20 30 de bf e5 0e c2 bf ce 32 ba bf
       -1.4804834 -1.7358437 -1.5160795 -1.4546754
000020 ba 60 ba bf 36 3f b6 bf ef 5a c6 bf 67 77 b0 bf
       -1.4560769 -1.423804 -1.5496501 -1.3786439

mlp_extractor.policy_net.0.weight f4 [256, 26]
000000 30 02 3c 3d de 1a ab 3d 93 37 f2 bc 3f b3 57 be
       0.045900524 0.08354734 -0.029567515 -0.2106447
000010 84 c5 36 3d a4 28 c0 3d 33 7b c2 bd 97 99 f4 bc
       0.04462196 0.093827516 -0.09496155 -0.029858394
000020 35 de c6 3d ee b6 1c 3d 14 c2 5e 3d c0 95 4f be
       0.097103514 0.038260393 0.054384306 -0.20271969
000030 de c8 70 3e 3e 50 50 3d 87 03 2c be 4d 06 a6 bc
       0.23514125 0.050857775 -0.1679822 -0.020266676
000040 9b 9d 8c bd 10 14 0b 3e 51 a4 37 3e 85 44 bc bd
       -0.06865998 0.13581872 0.17933775 -0.091927566
000050 93 a1 54 3e 88 7e b5 be 03 a4 65 be 5f 95 59 3e
       0.2076476 -0.35448098 -0.22425847 0.21248387
000060 8d b6 b5 bd 6c 03 29 3e 20 03 89 be 74 39 8d bd
       -0.088727094 0.16505212 -0.26760197 -0.06895724
000070 fb 7f 4f bd 21 36 2b 3e dd 39 29 3c 4a 21 e9 bd
       -0.05065916 0.16719867 0.010328737 -0.113833025
000080 e1 ac 83 bd 9e 4d 3a 3d 16 5d 59 3d f5 22 15 3e
       -0.064294584 0.045484178 0.05306729 0.14564116
000090 5a 48 fc 3d 62 20 14 3e 79 57 dc bd c9 04 02 be
       0.123184875 0.14465478 -0.107588716 -0.12697138
0000a0 db 85 aa bd 89 ac bc 3b 3c 20 fb 3c f4 34 2d bd
       -0.08326312 0.0057578725 0.030655019 -0.04228683
0000b0 75 6e 63 be 5f 24 46 be 21 08 ef bd 90 4a e6 bd
       -0.22210105 -0.19349812 -0.11671472 -0.112446904
0000c0 73 95 f0 3c 0d 2f 08 3e 6b 89 3b be 39 dd 5f be
       0.029368138 0.13299198 -0.1831414 -0.21861733
0000d0 1e 7f f3 3d 7e 30 83 be eb 52 c4 3e ca a3 2a 3c
       0.1188948 -0.25622934 0.3834451 0.010415027
0000e0 40 72 4a 3e 5d 9a 02 be bf e7 00 bc 17 65 4e bd
       0.19770145 -0.12754197 -0.007867753 -0.050389376
0000f0 29 8c 4d bd c3 40 c4 bd 2c 2a 1b bd 58 7b b7 3d
       -0.050182495 -0.09582665 -0.037882015 0.08959073
000100 e6 99 0a bc 83 89 e5 3d b9 e6 1a 3e de 25 99 bd
       -0.008459544 0.11207869 0.15127076 -0.07477926
000110 a8 24 13 3d 13 7b f8 bc 0f e9 13 3e 13 b2 5d 3d
       0.03592363 -0.030332124 0.14444374 0.054124903
000120 5d 24 6a 3d 97 f8 8b be e4 9e 49 3e db 42 9b be
       0.057163585 -0.27338096 0.19689518 -0.30324444
000130 12 a9 12 3d f9 4b 00 bd ca c7 5b be e7 f8 ad bd
       0.03580577 -0.031322453 -0.21462932 -0.0849474
000140 62 b0 8c bd de 8c 37 3e a1 86 16 be f3 4c 73 3e
       -0.0686958 0.1792483 -0.14699794 0.23759823
000150 a9 56 ae 3c c4 24 56 3e 7f a0 b8 bd 7d 1e 3f 3d
       0.021281557 0.20912462 -0.09014987 0.046659935
000160 d8 33 82 bd 55 98 dd 3d 39 f3 a7 bd 1f f5 83 bd
       -0.06357545 0.10820071 -0.08200688 -0.064432375
000170 4d 45 53 3e 85 ba 2a bd 4f a4 1d 3d b9 12 fb 3c
       0.20631905 -0.041681785 0.038486775 0.030648576
000180 58 9a 37 3d 6f 3b b0 bd b2 22 98 3d d4 69 b9 bc
       0.044824928 -0.08605086 0.074284926 -0.02263347
000190 64 18 df 3e 7f 0b ca bd 9e d1 af 3d 6b 68 3a 3d
       0.43573296 -0.09865474 0.08584903 0.045509737
0001a0 06 d1 7e 3d dd 20 47 be 50 c0 88 3c 75 8d ff 3d
       0.06221106 -0.1944613 0.016693264 0.12478153
0001b0 1a cb f2 bb 2a 65 17 3b 98 85 38 3e ae 7e dd 3c
       -0.0074094655 0.002310107 0.18019712 0.027037945
0001c0 82 e3 54 3d 24 e0 93 3e 0c a1 37 3d 8b df 0c 3e
       0.05197478 0.28881943 0.04483132 0.1375715
0001d0 23 49 20 bd 96 89 d8 bc 84 62 e4 3d dc 49 82 bd
       -0.03913225 -0.026432794 0.11151603 -0.06361744
0001e0 fd 44 2b 3d 91 48 96 bd a1 d7 35 bc cd cf f6 3d
       0.04181384 -0.0733806 -0.011098773 0.120513536
0001f0 63 74 be 3e a2 50 ee bd 7f d6 d6 be 79 79 66 3c
       0.3719817 -0.11636473 -0.41960523 0.014067047
000200 d3 a8 6e bd 80 37 21 be d3 d0 2a bd 84 62 ad 3d
       -0.058266472 -0.15743828 -0.041703057 0.08466056
000210 5f c0 a1 3d 90 5c ff 3d d2 2c 6d be b5 f1 7e 3d
       0.0789802 0.12468827 -0.23161629 0.06224223
000220 15 5b 8b 3d 2d 7e 2d be df 91 ed bd 06 c7 c9 bc
       0.06804482 -0.16942663 -0.11600088 -0.024631035
000230 09 d4 80 3d 5a e4 00 be 25 f0 25 3e d0 d1 0d 3e
       0.062904425 -0.12587109 0.16204889 0.13849568
000240 b6 29 06 be 2e cd 8c bc 24 cf 54 3d 9a ba 6f 3c
       -0.13101849 -0.017187681 0.051955357 0.014631892
000250 a4 f1 90 be bb b0 ca be ec 41 7d 3e cd 7b 6c be
       -0.28309357 -0.3958796 0.24732178 -0.23094101
000260 aa a6 8f 3e 07 94 0c be 28 f1 86 bd d7 44 5b 3e
       0.28056842 -0.13728343 -0.06588966 0.21412979
000270 8c b7 44 3e ea 5a 3a 3e 9d b3 40 3e 30 fd b7 3c
       0.19210643 0.18198743 0.18818517 0.022459596
000280 d9 6a 3e 3e 86 9e 3a 3e 5c 5a 29 3d 1d 9f 05 3e
       0.18595447 0.18224534 0.04134594 0.13048978
000290 95 05 de 3b 0c eb 52 3d 46 7a 0a 3e ab f0 9a 3c
       0.006775568 0.05149369 0.13523206 0.018913588
0002a0 f4 29 87 3d 43 7a 45 bc b4 46 a3 bd 07 e1 19 3d
       0.06599799 -0.012053075 -0.0797247 0.03756812
0002b0 f5 f3 9f 3d 9e f3 a0 3d c5 b2 b8 3d 63 7f c5 be
       0.07810203 0.07858966 0.090184726 -0.3857375
0002c0 ef d0 2d 3d 0c bc cc be b1 e6 bf 3e 06 6f e3 3c
       0.042435583 -0.39987218 0.3748069 0.027762901
0002d0 ae ab 76 bd 47 83 25 be 95 2e ec bd 06 17 14 be
       -0.06022232 -0.1616336 -0.11532322 -0.14461908
0002e0 bc 24 2b be f5 dc f5 3d 31 b6 27 bd 9f 25 32 be
       -0.16713232 0.12005035 -0.040945236 -0.17397164
0002f0 08 36 f3 bc b5 ca b4 3d 64 09 61 3d d5 52 ef 3d
       -0.02968885 0.08827726 0.054940596 0.11685721
000300 ef 86 84 bd b7 fc 00 bd fa f9 de bb 73 c6 47 3d
       -0.06471049 -0.031491008 -0.006804702 0.04877324
000310 6f 01 54 bd 96 ad c8 3c 57 d6 9e 3d 06 45 13 bd
       -0.05175918 0.024496835 0.07755726 -0.035954498
000320 29 85 df 3d b1 3f 39 be 30 84 c8 be 43 00 c6 bc
       0.1091407 -0.18090703 -0.3916335 -0.024170047
000330 08 6c 65 3e ba 06 ce 3e ef 61 9b 3d 30 0f f0 be
       0.22404492 0.40239507 0.07587039 -0.46886587
000340 68 45 88 3e 4a cc 56 3e 32 05 64 be f5 ec f8 bc
       0.26615453 0.20976368 -0.22267607 -0.030386427
000350 72 42 17 3d 12 89 03 be f3 01 23 be aa 2b f6 bd
       0.0369286 -0.12845257 -0.15918712 -0.12020047
000360 0c a8 cb 3d b7 4b b7 3c 53 c7 88 3d ed fb 35 3d
       0.09944162 0.02237497 0.06678643 0.04442971
000370 2b 12 04 3d 01 d6 4e 3d dc 9f 08 3d d2 78 c2 3d
       0.03224389 0.05049706 0.03335558 0.09495701
000380 df 82 bb bc f7 75 96 3c 40 a3 0a be 55 95 03 bd
       -0.022889553 0.018366797 -0.13538837 -0.032124836
000390 4d 4b 14 bd 85 c7 73 3e 56 77 0c 3d 47 49 84 3e
       -0.036204625 0.2380658 0.034293495 0.25837156
0003a0 af 0f 17 3c cd f1 93 3e 09 9c 23 bd 61 bb d7 bd
       0.009220048 0.28895417 -0.03994373 -0.105337866
0003b0 84 56 ef 3d e7 30 a4 bd 50 00 96 bd 0a cf ae 3d
       0.116864234 -0.0801714 -0.07324278 0.08535583
0003c0 ab 2e 82 bb 5b 43 d7 3d 73 ef 96 3d a4 95 86 be
       -0.0039728484 0.10510894 0.0736989 -0.26286042
0003d0 12 bf 64 bd 34 02 84 3d 48 c4 54 3e 65 38 8a 3d
       -0.05584628 0.06445733 0.20778 0.06749038
0003e0 68 50 7e be 6d fe 9d 3b 13 33 0b 3b ef 6a 0e bc
       -0.2483536 0.0048215897 0.002124016 -0.008692487
0003f0 20 09 fb 3e 9d 9c 4f be 00 02 a6 3e 10 6c e2 3d
       0.490304 -0.20274587 0.324234 0.110557675

mlp_extractor.policy_net.0.bias f4 [256]
000000 6a b9 24 3c 91 7c 9f 3d 43 93 b4 bd d8 49 9f 3d
       0.010053972 0.07787431 -0.088171504 0.077777565
000010 6b 5b b7 3d fd f8 53 bd 57 b8 b9 3c a5 a8 ac 3d
       0.089529835 -0.051751126 0.022670908 0.08430604
000020 44 d3 66 bd be 86 77 3d c1 ee 80 bd 46 b3 bb bd
       -0.056353822 0.060431235 -0.06295539 -0.09165053
000030 a4 1d 7f bd 32 ec 1b 3d 68 9f a9 bc 63 bb b6 bc
       -0.062284127 0.03806705 -0.020705894 -0.02230615
000040 91 38 2d 3d fe 3e 31 bd 31 41 0b 3e 94 5c 2e 3c
       0.042290274 -0.043272965 0.13599087 0.0106421895
000050 18 ab 23 bd 5a 24 d8 3d 76 da fe bd 6c 86 9d 3d
       -0.03995809 0.105538085 -0.12444012 0.076916546
000060 46 fc 57 3d b9 5e 25 3d 5c b6 ce 3b e9 46 99 3c
       0.05273082 0.040373538 0.00630836 0.01871057
000070 6a 31 03 3d 79 2c a8 bd 7c c5 05 3b c1 17 50 3d
       0.032029547 -0.082116075 0.00204119 0.050803903
000080 b8 60 b6 3d 3c 2b 3f 3d ba a9 0e 3d ef 88 59 bb
       0.089051664 0.04667209 0.034829833 -0.003319319
000090 41 55 86 bc f3 49 e4 bc 28 c6 f8 3a b2 79 94 bc
       -0.016398074 -0.027867293 0.0018979954 -0.018124435
0000a0 fe f4 35 3d a9 f4 04 bb 9a 92 c2 3b 92 ee 80 3d
       0.044423096 -0.002028743 0.0059378864 0.06295504
0000b0 a0 d8 cd 3d 38 13 af bd 37 d3 8e bc 5c 94 a6 bc
       0.100510836 -0.085485876 -0.0174347 -0.020334415
0000c0 1c ee 05 be 4c c0 70 3c e7 08 05 bd 40 ea 24 3d
       -0.13079113 0.014694285 -0.032479193 0.04026246
0000d0 c9 64 b1 3d 9c f2 53 3d 0b ad 8d bb 6a b0 77 3d
       0.08661801 0.051745042 -0.004323607 0.060470976
0000e0 bb 0f 37 3d 27 50 71 bb d6 0d 0b bb 9b 9d 54 bd
       0.044692736 -0.0036821456 -0.0021217964 -0.051908117
0000f0 24 d0 27 bd a7 2a 0e 3c 2d 54 95 3c af b2 09 3d
       -0.040969983 0.008677161 0.018228615 0.03361767
000100 0c 25 60 3d ac b6 96 bd 67 cf 1c bc be 9d 72 3d
       0.05472283 -0.07359061 -0.009570933 0.059232466
000110 43 32 d9 3d cf a2 c9 3b 86 59 c5 3b b0 45 31 bb
       0.1060529 0.0061534415 0.006022635 -0.0027049594
000120 95 52 35 bd 36 be aa 3d b5 ec 2d 3d 35 24 bf 3d
       -0.04426821 0.08337061 0.04246207 0.09333078
000130 6b e5 e4 3d 28 7e d0 3c 73 9f 78 bc b0 ca ce bd
       0.111765705 0.025450781 -0.015174734 -0.10097253
000140 78 57 e5 bc 97 37 e6 bd e5 69 27 3d 62 aa d5 3b
       -0.02799581 -0.11241072 0.040872473 0.0065205554
000150 43 bb 1b bd 82 ba a0 3d 3d c6 4f 3d 34 ba b7 bd
       -0.038020384 0.078480735 0.050726164 -0.08971062
000160 c6 fd 53 bc bd 24 94 bd 08 1a ba bc 08 7e 01 3b
       -0.012938922 -0.0723357 -0.02271749 0.0019758958
000170 4d b0 00 bd 3c ae 85 bc 7f 1c cc bd 15 1e fa 3c
       -0.031418134 -0.016318433 -0.09966373 0.030531922
000180 d7 de b8 bd 34 ad 05 3e 73 11 ab bc 3f 79 dd bc
       -0.09026878 0.13054353 -0.020882344 -0.027035354
000190 d9 28 01 be 9c 99 7d bc 8f a5 a2 3d db 60 bb bc
       -0.12613238 -0.015478518 0.07941734 -0.022873333
0001a0 76 10 95 3d a8 be 4e 3d 8a e9 37 bd 86 1c 46 bc
       0.0727853 0.050474793 -0.044900455 -0.012091761
0001b0 2f 68 90 3d f7 e7 49 3d d2 73 47 3d ea 20 81 3d
       0.070511214 0.049293485 0.04869444 0.06305106
0001c0 8b c3 a1 bd 47 7e 6a 3d f5 df f0 3d 06 18 60 3d
       -0.07898625 0.057249334 0.117614664 0.05471041
0001d0 46 9b c0 ba b5 13 ae 3d 42 a0 ea bb 00 e7 18 3c
       -0.0014694713 0.084998526 -0.0071602175 0.009332418
0001e0 2a ec 5c bd 80 26 c1 3c ba 23 b2 3d 5e 6e a9 3c
       -0.05393616 0.023577929 0.086982206 0.02068251
0001f0 78 e2 8e 3c ae e0 0b 3d 3e f9 58 bd 46 2c 2f bd
       0.017441973 0.034149818 -0.05297207 -0.04276683
000200 8e 40 74 bb 35 b8 98 3c 75 84 39 3d e2 da b5 3d
       -0.0037269923 0.018642524 0.045292336 0.08879639
000210 1d 93 22 3c 67 ae 37 3c 0e 82 fe bd b6 3b 24 3d
       0.00992277 0.011211014 -0.1242715 0.040096007
000220 b0 81 24 3e 72 c0 31 3d 4d af 3a bd de 4e 39 bb
       0.16065097 0.04339642 -0.045577336 -0.0028275768
000230 c0 3c 3e bd 25 c1 5d 3c 7d 52 3d 3d 48 69 55 3d
       -0.046444654 0.013534819 0.046221245 0.052102357
000240 42 ed 8c 3d 90 8e e9 bc 90 49 b5 3c 19 5a 5d 3d
       0.06881191 -0.028510362 0.022129804 0.054041002
000250 83 38 c6 3d 99 c5 65 bd 60 dc 06 3d 67 c6 86 3d
       0.096787475 -0.056096647 0.03292501 0.06580811
000260 1f 74 06 bd 84 30 90 3d 30 be 4a bd 25 b2 e9 bd
       -0.032825585 0.070405036 -0.049497783 -0.114109315
000270 17 8e 87 3d ea 8c f7 3d a9 da aa bd e7 27 09 bd
       0.06618898 0.12087424 -0.08342487 -0.03348532
000280 2d 1a c1 bc 5f a7 89 3d c2 08 a3 3d a4 92 bf bc
       -0.023572052 0.06721377 0.07960655 -0.023385353
000290 ef 11 7c bc 13 b6 bc bc c9 b4 89 3c be 71 60 3c
       -0.015385135 -0.023036039 0.016809838 0.013698993
0002a0 91 e8 30 3c ad 16 97 bc 43 a0 28 bc 17 00 4c bd
       0.010797636 -0.01844343 -0.010292116 -0.049804773
0002b0 2f 7a 64 3c 53 d7 a2 3c d8 d6 04 bc 49 a3 50 bd
       0.013945146 0.019878065 -0.008107863 -0.05093697
0002c0 4f 00 1e 3d 1e b3 ca bc 0a 96 b8 3d c1 bf 2a 3d
       0.038574513 -0.024743613 0.09012993 0.041686777
0002d0 51 24 c5 3c 6b 90 2f 3d e6 6b ea 3d aa 42 ef bc
       0.024065169 0.042862337 0.11446361 -0.029206593
0002e0 ff 6f bd 3b 02 39 5f 3a 21 d1 6f bc e2 aa 6c 3b
       0.0057811732 0.000851527 -0.014637263 0.0036112596
0002f0 62 6f 9e bd 31 48 91 3d f7 74 ef bc c6 d4 7c 3d
       -0.07736088 0.070938475 -0.029230578 0.061726354
000300 50 39 05 bd 1e 79 2a 3d 4d d8 83 bd d1 91 99 bd
       -0.03252536 0.041619413 -0.064377405 -0.074985154
000310 80 af a9 3d a8 2f 56 bd 17 94 d3 3d 73 74 c1 bc
       0.08285427 -0.052291542 0.1033098 -0.023615098
000320 4a e0 b7 3c 0e 35 20 bd 96 69 8a ba d1 0c bd bd
       0.022445817 -0.039113097 -0.0010560032 -0.0923096
000330 a7 47 5c 3d 93 c8 9c 3d 11 96 72 bd c5 2f 0b bc
       0.05377927 0.07655444 -0.059225146 -0.008495276
000340 fc 8c e5 bc b3 ab 01 3d d8 83 84 bc 07 f1 99 3d
       -0.028021328 0.031657886 -0.01617615 0.075166754
000350 1c 07 69 bd 3b 68 9d 3d 78 aa 7c bc b8 43 00 3e
       -0.056891546 0.07685896 -0.015421502 0.12525833
000360 fe 71 85 3d ad ff a1 ba 36 c7 09 3d 0b b9 0d bd
       0.06515883 -0.0012359523 0.033637248 -0.0346003
000370 14 34 fc 3c ba 1e 2f 3d c3 77 15 3d 76 06 00 be
       0.030786552 0.042753913 0.036491167 -0.12502465
000380 88 6f 37 3d d0 f2 86 bd a5 07 d6 3d 71 1c 05 3d
       0.0447841 -0.065892816 0.10450677 0.032497827
000390 44 51 e5 3d 86 26 ad bd 05 02 c0 bc 93 fb 93 3d
       0.11197141 -0.084546134 -0.023438463 0.07225718
0003a0 a3 4d a4 3a c0 72 38 3c 11 60 8b bc 0d ec 85 3d
       0.0012535345 0.011257827 -0.017013581 0.06539164
0003b0 d5 87 88 3d 4a 63 af 3d da 77 d3 bc 25 5c c1 3c
       0.06666533 0.0856386 -0.025813986 0.023603508
0003c0 56 a2 57 3d 45 b2 06 3d 4f f8 14 3d d6 4f c1 3d
       0.05264505 0.032884855 0.036369618 0.094390556
0003d0 14 40 13 3d 0b c2 5d 3b 5b f2 fa 3c b1 ea 9b 3d
       0.03594978 0.0033837582 0.030633142 0.07613123
0003e0 2f 62 15 bc 20 1a 0f 3d 82 a8 5a 3d 7c c4 6f bd
       -0.009117647 0.034937024 0.053383358 -0.05853699
0003f0 36 18 60 3d db 32 e1 3d 8f 19 8d 3d e9 d6 04 3d
       0.05471059 0.10996028 0.068896405 0.032431517

mlp_extractor.policy_net.2.weight f4 [256, 256]
000000 98 db 22 be e0 da d6 3b 81 80 91 bd 2e 96 ea 3c
       -0.15904081 0.0065568537 -0.07104588 0.028636064
000010 c0 07 2c be b6 0f 72 3d c5 3f 01 3c 4c fa 25 be
       -0.16799831 0.059097014 0.007888739 -0.16208762
000020 3b b5 d5 3d 86 03 28 be 27 fb 1f 3e de 47 5d bd
       0.104349576 -0.16407594 0.15623151 -0.054023616
000030 7a d7 05 3e 15 69 d1 3b 54 81 28 3c 54 f1 7e be
       0.13070479 0.0063907006 0.0102847405 -0.24896747
000040 80 81 ba bc 0a 28 46 3d 11 e6 3f 3e 86 14 01 be
       -0.022766829 0.048378028 0.18740107 -0.12605485
000050 be 01 10 3c c1 8b 07 3d 6b d2 c2 bd 61 48 11 3d
       0.008789478 0.033092264 -0.0951279 0.035469417
000060 5e 7a 0c 3d 5f f5 c1 bd da f3 08 3d e7 74 da 3c
       0.034296386 -0.09470629 0.03343568 0.026667072
000070 6e 22 54 bc be d3 cb bb d9 95 12 3e 63 a9 14 3d
       -0.012947662 -0.00622031 0.14314975 0.036294352
000080 cf 5e df bd ef 85 0b bb 09 4d 1c 3e eb aa a6 3c
       -0.10906755 -0.0021289547 0.15263762 0.020345172
000090 ef 43 0f bd a7 9d 3e bd 34 62 22 be a9 76 47 bd
       -0.034976896 -0.046537068 -0.15857774 -0.048697148
0000a0 97 d0 5b bd ae 03 bc 3d 8f 3e bd 3d b4 0a d9 bd
       -0.053665724 0.09180389 0.09240448 -0.105977446
0000b0 e7 d8 32 be c6 a4 6a 3e b1 55 c4 bd b7 76 aa 3d
       -0.17465554 0.22914419 -0.09586657 0.08323424
0000c0 ed 73 e2 bc 6d 1e 1d 3e 19 5c 12 3b cc 56 08 3d
       -0.027643168 0.15343638 0.0022332727 0.0332859
0000d0 10 9f 24 3e 88 af 96 bd 1d a9 4d 3c 7c a3 df 3c
       0.16076303 -0.07357699 0.012552527 0.027299635
0000e0 57 7c 4a 3e 18 55 6f 3d ba 9f e7 bd 70 a0 42 bd
       0.19773994 0.05843076 -0.11309762 -0.047516286
0000f0 10 b8 b6 bd d2 3f 07 be d9 c4 6f bd 18 e1 d3 3d
       -0.08921826 -0.1320794 -0.058537338 0.103456676
000100 22 34 bd bd b8 a5 e4 3d 8f 7f 26 be 1e af 57 bd
       -0.09238459 0.11164421 -0.16259597 -0.05265724
000110 9f 7d 8e bb 3f ab 6b bd d7 31 3a be 1c 72 dc 3b
       -0.0043484713 -0.05753636 -0.18183075 0.00672747
000120 7f a9 e2 bd db 37 ee bd 19 fe d7 bb 22 18 dd 3c
       -0.11067485 -0.11631747 -0.00659157 0.026989046
000130 ea 1f d0 bd 0d cc 0c bc 3e 0e 37 3e 1d 0f 7e bd
       -0.10162337 -0.008593571 0.17876527 -0.062026132
000140 83 65 13 be 46 f4 0c 3d 69 03 82 3c 18 c9 77 3e
       -0.14394192 0.034412645 0.015870767 0.24197805
000150 6f 8c 97 bd 90 c1 66 be 97 bd 15 3d 4a c1 0b be
       -0.073998325 -0.22534776 0.03655776 -0.13647953
000160 26 3b 52 3e 33 07 49 3d f7 2b 32 be 1b e5 22 b9
       0.20530376 0.04907913 -0.17399584 -0.00015534872
000170 e7 31 70 bd b2 7f 26 bd c6 2b 3f 3d 97 81 32 3d
       -0.05864134 -0.040649123 0.046672605 0.043580618
000180 d2 7f 16 be eb 9d 53 3e 9d cb c5 bd 43 23 de 3c
       -0.14697197 0.2066571 -0.09657977 0.027116423
000190 74 d4 8b 3d 08 61 69 b9 5f 11 17 3e ca 24 3a 3e
       0.068276316 -0.00022256759 0.1475272 0.18178096
0001a0 4a 69 06 3e 54 64 4c 3e 77 ac ab bd 3c 34 3f 3e
       0.13126102 0.19960147 -0.083825044 0.1867227
0001b0 20 b1 f3 bd 48 50 16 bd c4 43 1d be d7 fa 44 3e
       -0.11899018 -0.036697656 -0.15357882 0.19236313
0001c0 be 76 04 3b 7c ba 63 bd f0 c9 3e be 1d d2 68 bb
       0.0020212377 -0.055597767 -0.1863172 -0.0035525628
0001d0 a8 cd 78 3e 5b 7e e4 3d c0 4c 54 be 94 46 41 3d
       0.24297202 0.11156913 -0.20732403 0.04718645
0001e0 eb 8f b4 3d aa 8b 8d 3c ca 1e 50 be 09 8d a7 3d
       0.08816513 0.017278511 -0.20324245 0.08181197
0001f0 ad ed 2f bd 6c fe 5f bd c8 fd a9 3d a4 d3 e8 bb
       -0.042951275 -0.054685995 0.08300358 -0.0071053077
000200 eb 36 e1 bd 14 2f 90 3d 68 db 92 bd bf 7b ac bc
       -0.10996803 0.070402294 -0.07170755 -0.0210551
000210 f2 c4 0f 3e 37 94 31 3e 41 b6 32 bd d3 aa b5 bd
       0.14039972 0.17341696 -0.043630842 -0.08870473
000220 5e 33 cb 3d 07 e8 dc 3c e3 c3 1a be be 7d dd bd
       0.09921907 0.026966108 -0.15113787 -0.10814999
000230 76 1d 31 be 90 6e 34 3d 4f 53 05 bc ae 17 71 3d
       -0.17296395 0.044050753 -0.008137538 0.058860473
000240 84 9e 07 3d 1b 99 02 be b2 7c 18 3e 7c 9a e1 3c
       0.033110157 -0.12753718 0.14891317 0.027539484
000250 11 84 5e 3e 9d 10 f4 3d 15 c0 45 3d c8 34 5d bd
       0.21730067 0.11917231 0.048278887 -0.054005414
000260 ad c5 6f bd 37 99 09 3e 20 dc 96 3b 3a ec d8 3d
       -0.058538128 0.13437353 0.0046038777 0.10591932
000270 1b 68 02 be 71 0c 71 bb 5b b2 b2 bd a7 a1 fe bd
       -0.12735026 -0.0036781097 -0.08725425 -0.124331765
000280 af 7a e1 3c cc d0 68 bc f5 64 c5 bb a1 df b2 3b
       0.02752432 -0.014209937 -0.006023998 0.0054587875
000290 17 cc 8f 3d 8c 39 5b bd 88 60 af 3d a6 40 e1 bb
       0.07021349 -0.053521678 0.08563334 -0.006874162
0002a0 d8 7a bb 3d ea 6b bd 3d 07 4f e1 bd a9 0e 17 3c
       0.0915429 0.092490986 -0.110014014 0.009219804
0002b0 c0 ea 0b be ad 72 34 bd 79 17 d5 3d a8 b2 f1 bd
       -0.13663769 -0.044054676 0.10404868 -0.11801654
0002c0 41 0a 31 bd 87 53 7e bc 6a 2a 03 be 9c cd 49 3d
       -0.04322267 -0.015522844 -0.12809148 0.04926835
0002d0 00 e1 81 bd 64 52 82 bc 52 b2 fe 3d 21 dc 76 3d
       -0.063417435 -0.015908428 0.12436356 0.060268525
0002e0 1f 3b ca bd 89 a1 2e 3d 50 99 de bc f3 5e ba 3b
       -0.09874558 0.04263452 -0.027172714 0.0056875884
0002f0 b5 80 00 3e 50 2c a1 3d 51 b9 bf 3d 79 0d 24 be
       0.12549098 0.0786978 0.09361518 -0.16020764
000300 ee cd 44 bb 1c a5 fd 3d f7 11 41 bc 5c dc 17 be
       -0.003002997 0.12385008 -0.011784068 -0.14830154
000310 b8 44 96 3d 8a 9d 65 3d a8 51 b0 bd 87 2b d0 bc
       0.07337326 0.056058444 -0.08609325 -0.02541138
000320 30 57 24 3d 6e 7b be 3d 6e 06 79 3c 2a 74 60 bd
       0.04012221 0.09300886 0.015199287 -0.054798283
000330 36 8a 19 be cb 89 35 be 79 eb cf bc 08 87 92 bb
       -0.1499413 -0.17728345 -0.025380837 -0.0044716634
000340 b8 28 91 bd 3f 49 c9 bd b1 f8 93 3d dc 4e b7 3d
       -0.070878446 -0.09828424 0.072251685 0.08950588
000350 3d 79 ed 3d 73 fc 09 3e ce f7 0c bd 2a db 2e be
       0.1159539 0.13475208 -0.034416012 -0.17075792
000360 bd 90 00 be 91 a8 86 3d b9 54 29 3e d4 f1 cf 3d
       -0.12555213 0.0657512 0.16536225 0.10153547
000370 2a 70 99 bd 67 d9 1e bd ce 98 d0 3c 22 4f 15 3e
       -0.07492097 -0.03878155 0.025463488 0.14580968
000380 84 c5 30 3a 56 42 7b bd 4f c6 d5 3c f1 19 40 bd
       0.00067432993 -0.06134256 0.026095537 -0.04689974
000390 10 42 a8 bd 09 8e 71 3c 49 a8 a3 bc b3 31 5d 3d
       -0.082157254 0.0147433365 -0.019977706 0.054002475
0003a0 f7 58 06 3e e3 39 8c 3d 1e a2 3d bd c5 64 94 3c
       0.13119875 0.068469785 -0.046297185 0.018114457
0003b0 b5 7f 78 bd 04 1e a6 bd 3a c0 b5 bd 34 85 73 3e
       -0.060668666 -0.08111194 -0.08874555 0.23781282
0003c0 c3 4a ee bd 1b a8 85 3d fb 0c 15 bd 99 87 37 3d
       -0.116353534 0.06526204 -0.036389332 0.04480705
0003d0 8c 56 88 bd e8 8b 94 bc 3f 18 9f 3d a1 a1 9e bc
       -0.066571325 -0.018133119 0.077682965 -0.01936418
0003e0 80 e2 b7 bc 1f f4 f9 bd 35 4b ae 3c d1 83 95 3d
       -0.02244687 -0.122047655 0.021276096 0.073005326
0003f0 4c 4c 2e 3e 72 d4 ef 3d 06 c8 5e bd ff 6e 0c 3d
       0.17021292 0.117104426 -0.054389976 0.03428554

mlp_extractor.policy_net.2.bias f4 [256]
000000 72 7b da 3c ab 87 d7 3c 95 d4 ce 3a 79 95 03 bc
       0.026670191 0.026309809 0.0015779907 -0.0080312425
000010 e9 0c 30 bd fa d6 90 3d 62 88 e4 bc 43 98 98 3d
       -0.042981062 0.070722535 -0.027897064 0.074509166
000020 22 1c 7a bd 6b f8 32 3d 16 70 86 3d 60 9e 1f 3d
       -0.061061986 0.04369394 0.065643474 0.038969398
000030 64 f3 99 3d d3 32 d7 3c ff fe 50 bb 72 7e e2 3c
       0.07517126 0.026269352 -0.003189027 0.027648184
000040 5c 62 04 3b e6 6f 37 3c 7b 56 39 3c 0a 9b 02 3b
       0.0020200228 0.011196112 0.011312122 0.0019928836
000050 24 9a bf 3d 85 08 4b 3d f3 3a 63 3d be 8e 20 3c
       0.09355572 0.04956867 0.05547614 0.009799657
000060 0f 21 8c ba 25 8e 08 bc c5 93 b9 3c 84 57 54 3c
       -0.0010691005 -0.008334671 0.02265347 0.0129603185
000070 d4 cd 31 3d 6c 4e 19 b8 9c 35 82 3d 48 a6 00 bb
       0.043409184 -3.655108e-05 0.063578814 -0.0019630361
000080 e8 76 af bb 65 3e 39 3d cd ca d8 bc d5 a6 27 3d
       -0.005354751 0.04522552 -0.02646389 0.040930588
000090 0d f6 10 3d 10 6f 2e bc 9c ea 14 3d d9 da 50 bc
       0.035390902 -0.010646597 0.036356553 -0.01274749
0000a0 90 1b 95 bc d1 27 65 3d 81 be d5 3c 4d b6 60 3c
       -0.01820162 0.055946175 0.026091816 0.013715339
0000b0 32 6e c4 3c 3d 28 00 3d a4 b1 53 3c 2d 1d db 3c
       0.023978326 0.031288374 0.012920771 0.02674731
0000c0 2b 5f 4f 3d 98 6d 76 3c c9 f1 9c 3c ff f4 50 bc
       0.05062787 0.015040778 0.01915826 -0.012753724
0000d0 f5 f0 ff bc 09 51 0a 3d d0 d5 13 bd 3b aa 73 3d
       -0.031242827 0.033768687 -0.03609258 0.059488516
0000e0 0d fc 0b bc f4 b5 24 3b e3 6a 4d 3d 99 3a 72 3d
       -0.00854398 0.0025132867 0.050150763 0.059137914
0000f0 e0 5f 0a bd 68 68 ee ba e1 18 69 bb 52 02 75 bc
       -0.03378284 -0.0018189074 -0.0035567807 -0.0149541665
000100 ff 7b dc 3b 6e ee 17 bb 68 c7 85 3c b3 b1 76 3d
       0.0067286487 -0.0023182887 0.016330436 0.06022806
000110 72 f5 04 bd 25 fc ed 3b 7d 1a 27 3c 7b 53 42 3c
       -0.032460637 0.007262724 0.010199186 0.011860724
000120 20 ed 10 3d e9 c5 30 3d 0e 82 d5 bc 01 c5 b7 bc
       0.03538239 0.04315749 -0.026062991 -0.022432806
000130 ad c9 64 3d fd 84 10 3d 76 0a 35 3d 1f a5 8b 3d
       0.055856396 0.035283078 0.04419943 0.06818604
000140 6e d8 a3 3c 63 3f 6a 3c ae bd 81 3a 73 a5 eb 3b
       0.020000663 0.014297339 0.0009898448 0.007191354
000150 54 91 63 3c bf 5c 81 3d 5f ce 34 bc 35 e3 cc 3c
       0.013889629 0.06316518 -0.011035531 0.025010685
000160 bc 5e 0e 3d 49 ff e5 3b 50 54 dc bc 3d 5d 02 3d
       0.034758314 0.0070189578 -0.026895672 0.0318272
000170 8c e7 c5 bc 5a 03 5b bb 27 9a fb 3c b7 06 51 3c
       -0.024158262 -0.0033418746 0.030713154 0.012757949
000180 3f 5d 84 3d 5b c1 aa 3b 86 29 17 3d 42 81 31 3d
       0.06463098 0.005211038 0.036904834 0.04333616
000190 68 49 c8 3b 47 72 cd 3c 33 e5 db 3a 60 41 60 3b
       0.0061122663 0.025078906 0.0016776681 0.0034218654
0001a0 8f 67 0a 3d 10 f3 80 bc 2d 68 a9 3a 00 f0 f9 bb
       0.033790167 -0.015740901 0.0012924724 -0.007627487
0001b0 cd 4f 20 bd f6 f2 e0 bc 8c c8 cc bc ba c9 c7 bc
       -0.039138604 -0.027459603 -0.024997972 -0.024388183
0001c0 e1 20 a8 3b 8a 69 1a 3b c4 72 83 3d b5 d7 8a 3d
       0.0051308726 0.0023561441 0.06418374 0.06779424
0001d0 61 68 80 3c 8b 17 33 3d 4b 22 89 3d 43 13 f7 3c
       0.015674772 0.043723624 0.06695994 0.030160552
0001e0 27 5b 1e ba 75 22 7e bc c2 77 6b 3b 21 63 d5 bb
       -0.00060408044 -0.015511145 0.0035929536 -0.006512061
0001f0 a0 ae f1 ba 82 17 5a 3c 44 a9 e6 3c a3 80 87 bd
       -0.0018438883 0.013311269 0.028156884 -0.066163324
000200 d4 8f fe 3c bf 76 e2 bb 24 d9 ab 3c f9 39 12 3c
       0.031074442 -0.0069111283 0.020977564 0.008924955
000210 f1 c8 0c bd 63 dc 53 39 bb d6 e6 bc ec db 46 bc
       -0.03437132 0.00020204629 -0.028178563 -0.012137394
000220 c2 28 e1 3c 40 f1 c8 bc c0 76 f7 3c da 51 37 3d
       0.027485255 -0.0245291 0.030207992 0.044755794
000230 78 40 51 bb 2e bf 68 3c e3 db ec bc 63 48 5f bc
       -0.0031929296 0.014205737 -0.028913444 -0.013628098
000240 d1 fe 14 3b 2b 29 33 3c ae c3 55 3c be 4b 0c bc
       0.002273489 0.010935108 0.013047142 -0.00856298
000250 75 9a 72 bc 26 eb 47 3d a4 92 be bc b5 d7 55 3b
       -0.014807333 0.04880824 -0.023263283 0.0032629792
000260 4c ea 6c 3d ef df b3 3c 1f ab 6f bc 42 e1 61 3c
       0.05784063 0.021957366 -0.014628201 0.013786616
000270 c7 24 e4 3c 76 a5 8b 3c 50 8c ef 3c a0 de 0d bc
       0.027849568 0.017046671 0.02924171 -0.008659035
000280 db d4 ee bb 46 15 33 bd 7f f3 3a 3d eb 3d fb 3b
       -0.007288558 -0.04372146 0.045642372 0.0076672933
000290 ca b9 26 3d c8 74 0b 3d e3 02 5c 3c a3 7e 6e 3b
       0.040704526 0.03404692 0.013428423 0.00363914
0002a0 22 fc 8b 3c 22 a3 cf 3d d5 66 cf 3c 76 d1 0b 3d
       0.017088 0.10138537 0.025317589 0.034135304
0002b0 b1 39 c5 3b 32 37 15 bd 28 b9 a6 3c 76 a1 06 3d
       0.0060188402 -0.03642959 0.020351961 0.032868825
0002c0 cf 34 a0 3b 72 c5 ea 3c cc 3d 23 3d 83 bb 9e 3a
       0.004889108 0.028658602 0.039853856 0.0012110326
0002d0 4a e6 e4 bb da e3 0b bc 66 8b 23 3c 65 a0 d2 3c
       -0.0069854604 -0.008538211 0.009981966 0.025711248
0002e0 9c 8b 3a 3d 6d 71 56 3c 99 7a b7 3c db 16 00 3d
       0.045543298 0.013088566 0.022397326 0.031271797
0002f0 02 cb 39 3b 76 11 b1 3c 00 1d 20 3d 54 9b cc 3c
       0.0028349762 0.021614771 0.039090157 0.02497641
000300 d1 5f 29 bd 56 3c d9 3a 6d da 3c bc 3f 93 3c 3c
       -0.041351143 0.0016573768 -0.011526686 0.011509716
000310 70 f8 00 3d 9b 55 b3 3d ed 01 12 3d a4 bb 3f 3d
       0.03148693 0.08756562 0.035646368 0.046809807
000320 c6 9e a1 bc 63 1e 0b bc a9 79 a1 bc e9 4f c4 bc
       -0.01972903 -0.0084911315 -0.019711332 -0.023963885
000330 06 93 2e 3d 65 0a a5 ba 40 36 34 3c 45 5a 45 3d
       0.04262068 -0.0012591599 0.010999262 0.04818179
000340 9b 82 86 3c 04 42 1e bb 29 2c 71 3d e5 ec 90 bb
       0.0164197 -0.0024148235 0.058880005 -0.0044227713
000350 b7 be cb 3d 54 f6 d6 3c 31 1b 29 bc 67 55 fd 3b
       0.09948485 0.026240505 -0.010321424 0.007731128
000360 a8 27 80 bb 39 56 41 bd 55 79 7c bb 49 63 a4 bb
       -0.0039109774 -0.04720137 -0.0038524468 -0.0050167185
000370 1c 15 ec 3c 95 0a 53 bd 20 35 ae 3d cb c7 3b 3c
       0.02881866 -0.051523764 0.085062265 0.011461209
000380 63 75 7f 3c af 21 76 3d 44 eb 2f 3d 1a ea c1 bc
       0.015591952 0.060090717 0.042948976 -0.023671199
000390 eb 63 a2 3c ce 29 8a ba a4 19 10 3c e7 68 65 bc
       0.019823035 -0.0010541023 0.008795176 -0.014002061
0003a0 76 2e 88 3c 77 92 18 3d 97 de 0f bc 4c d6 b3 bb
       0.016623717 0.037249055 -0.008781097 -0.0054881927
0003b0 79 13 a9 3b b5 68 64 3d 24 2f 9d ba 0c 69 ff 3c
       0.005159792 0.05576392 -0.0011992198 0.03117802
0003c0 9f 84 58 3d 7e eb f2 b9 cd a9 4d bd 72 00 83 b9
       0.052860852 -0.00046333292 -0.050210763 -0.000249866
0003d0 cd fb 8c bb 48 55 3a 3d 70 fc 6d bc 62 ae 7d bb
       -0.004302478 0.045491487 -0.014525518 -0.0038708677
0003e0 2b 8b 27 3c e2 cf 28 bb b1 ca a5 bc 74 53 48 3c
       0.010226051 -0.0025758673 -0.020238252 0.012226928
0003f0 63 c1 3e 3d 6e 0d f4 3c 6f 1b 08 3d e1 cb ec 3b
       0.046571147 0.02979156 0.033229288 0.0072264527

mlp_extractor.value_net.0.weight f4 [256, 26]
000000 ff c7 30 3d c0 53 ba bc 95 29 9e 3e 42 3c 7b 3e
       0.04315948 -0.022745013 0.308911 0.24534705
000010 88 7a 0c bd 68 a3 4b be 7a b7 f4 3c 70 09 22 3e
       -0.034296542 -0.19886553 0.029872645 0.15823913
000020 3c ef 4e 3e 77 7a 17 3e 26 5c b4 bd d1 e8 b6 3e
       0.20208448 0.1479281 -0.088066384 0.357245
000030 4a c5 4a bd 12 82 3d 3e b7 63 e0 3a 69 3f b8 bb
       -0.049504556 0.18506649 0.0017119561 -0.0056227935
000040 c1 2f d1 3b e0 02 42 3d 14 9c 01 be fb 45 88 3c
       0.0063838665 0.047366023 -0.12657195 0.016634932
000050 47 93 90 bd 10 7a 07 3d 55 72 e1 3d cb 1b 28 bd
       -0.07059341 0.033075392 0.11008135 -0.04104213
000060 c5 5a 8a bd c7 63 06 bc d2 0b 67 3e ba de 45 3e
       -0.06755594 -0.0082025 0.22563103 0.19323245
000070 9e d0 0d bd c3 35 3a bf bd 4c a0 3e a2 a0 a7 be
       -0.03462278 -0.72738284 0.31308547 -0.3273974
000080 4d fd de be 82 71 a7 be 06 4f 1d bf be 07 87 3d
       -0.43552628 -0.32703787 -0.61448705 0.065932736
000090 7a cb c1 3e 67 d1 36 bf b6 8f a2 bd 14 d6 3b be
       0.37850553 -0.7141327 -0.07937567 -0.18343383
0000a0 b3 c0 7a bd b4 6e b1 3d 53 dd 99 bd 52 79 ec bd
       -0.06121893 0.08663693 -0.07512917 -0.115465775
0000b0 6b 03 9f 3e b3 4e bf be 1e c9 67 be a2 25 fa be
       0.31057295 -0.3736473 -0.22635314 -0.48856837
0000c0 01 26 f3 3e de 42 b6 3d 4b ed 08 3f bd 28 e7 bc
       0.47489932 0.08899473 0.5348708 -0.028217668
0000d0 4c 6e b8 3d 55 70 28 bd 63 72 07 bd aa a3 4c 3e
       0.090054125 -0.041122753 -0.033068072 0.19984308
0000e0 84 ff b7 bd 4d e9 6c bb f4 9b e5 3d 9d 2b 65 3e
       -0.089842826 -0.00361498 0.11211386 0.22379918
0000f0 5c 63 09 3c 58 ac 0e 3d ed fb ba be d0 47 00 3f
       0.0083855055 0.03483233 -0.3652033 0.5010958
000100 34 79 f8 bb d0 3e 67 bd 22 89 94 bd 8e f0 d4 bb
       -0.007582808 -0.056456387 -0.072527185 -0.006498403
000110 37 f2 6e 3a 52 f2 fb bb 2c 74 86 be a8 45 21 be
       0.00091150723 -0.007688799 -0.26260507 -0.15749228
000120 00 1a 3d 3c 34 0e 7b 3e 74 6d 1c bd db 7e 53 bd
       0.011541843 0.24517137 -0.03819032 -0.05163465
000130 8a 33 3d bd 16 ab 39 bd 5d a3 22 bf 89 7c ed be
       -0.04619173 -0.045329176 -0.6353052 -0.46384075
000140 92 ef 8b 3f b5 7e 7e bd 22 60 e5 3d 49 2a a5 3e
       1.0932486 -0.062132556 0.111999765 0.32258824
000150 29 49 85 be f5 bd 00 be 78 2c 32 bd ec 90 22 bd
       -0.2603238 -0.12572463 -0.04349944 -0.03968899
000160 dd f0 bf 3d b0 ee 8f bc 55 03 41 bc 70 36 eb bd
       0.09372113 -0.01756987 -0.01178058 -0.114849925
000170 60 5f 3d 3f d5 a8 bc 38 d8 73 19 bc c3 f6 94 bc
       0.73973656 8.995986e-05 -0.009365998 -0.018184071
000180 5c 42 9a 3d dc c6 e6 3b 78 6d cc bb 79 69 f5 bd
       0.07532188 0.007042749 -0.0062386356 -0.11983008
000190 8d 2d 22 3e ce a6 6a bb 75 7d 07 be b7 fd 2b 3d
       0.15837689 -0.003580499 -0.13231452 0.04199001
0001a0 1c 1c 19 be bd 06 6c 3c 76 f8 d2 be 09 67 56 3e
       -0.14952129 0.014405903 -0.41205186 0.20937742
0001b0 3d 43 41 be 36 d6 15 3e bb 27 43 3e 45 48 45 3e
       -0.18873306 0.14632496 0.19058125 0.1926585
0001c0 52 6f 7b 3d 2d 50 c5 3d e9 74 35 be cf 9e cf 3e
       0.06138546 0.09634433 -0.17720379 0.4055085
0001d0 06 f0 9d bc 78 14 08 be e5 ec c2 bc 04 5c c6 bc
       -0.019279491 -0.13289058 -0.0237946 -0.024213798
0001e0 e7 d0 f4 3c ba 0e 38 3d c6 04 a0 bd cd c8 9d 3d
       0.029884769 0.04493592 -0.078134105 0.07704315
0001f0 14 1e 55 3e a7 37 b7 bd 14 b1 76 be 6b ff f9 bd
       0.20812255 -0.08946162 -0.24090987 -0.1220692
000200 43 4e 35 3e 52 e3 f8 bc 86 74 c8 3d 1f 6c b8 bc
       0.17705636 -0.030381832 0.0978785 -0.022512494
000210 f6 b2 67 3e c9 78 8d 3e d0 0f 85 3d 30 ef be bd
       0.22626862 0.27631214 0.064971566 -0.09322965
000220 63 31 47 3d b3 c1 9c 3e 17 e9 54 3e f7 ea 1d be
       0.048631083 0.3061653 0.20792042 -0.15421663
000230 93 e8 98 bd 62 66 45 3e b0 b0 0a 3d 80 5d d4 3c
       -0.07466235 0.19277337 0.03385991 0.02592349
000240 c1 94 c3 bc b5 1c 09 3d 56 d2 13 bb 9d 33 75 3b
       -0.023874642 0.033474643 -0.002255579 0.0037414797
000250 87 4d 72 3d c0 95 13 bc a4 2c 19 be 71 81 8d 3c
       0.059155967 -0.009007871 -0.14958435 0.017273637
000260 dd d9 09 be e7 82 17 3e 68 28 ba bd 34 66 20 3e
       -0.13462014 0.14796029 -0.09089738 0.15663987
000270 1a 2b 8e 3e 6f b3 a3 3d 19 c9 e6 be 23 c1 33 3e
       0.2776726 0.079932086 -0.450753 0.17554145
000280 0d a3 98 bd 6e 51 23 3e 7e 3f ab 3d ea 79 30 3e
       -0.074529745 0.15949032 0.083617195 0.17234007
000290 e4 06 4c 3e 18 ca 14 be 8c ac ba be 1b f3 54 3e
       0.19924504 -0.14530218 -0.36459768 0.20795862
0002a0 1d 5d f6 3d 55 b6 d9 bc 14 5d fc 3b c9 a6 64 bd
       0.12029479 -0.0265762 0.0077015255 -0.05582312
0002b0 82 58 69 ba 7c d6 15 3d 34 b2 c6 3d 67 5d f1 3d
       -0.00089014333 0.0365815 0.09701958 0.11785393
0002c0 b9 b8 57 3c 00 4c 03 3e 50 47 3f be 94 e1 50 be
       0.0131666 0.1282196 -0.18679547 -0.20398551
0002d0 f3 68 00 3d b9 7e 49 be 17 96 81 bd 7b d4 1a bf
       0.031350087 -0.19677247 -0.063274555 -0.6048047
0002e0 51 a0 25 3e b8 28 62 bd 24 cb 00 bb 0e 7d 0a 3a
       0.16174437 -0.055214614 -0.0019652331 0.0005282917
0002f0 af b0 1a be 21 56 c0 bc c0 6c a6 be db 28 b8 3e
       -0.15106462 -0.02347857 -0.32504845 0.3596867
000300 d1 91 c9 3d d4 61 6d be da 5e db be fb 69 6c be
       0.098422654 -0.2318185 -0.42845803 -0.23087303
000310 26 da 3f be 28 bd a5 bb fb 2e 79 bd 9f 6f e3 3c
       -0.18735561 -0.0050579496 -0.06083582 0.027763186
000320 56 96 b9 3e 4d 67 6f be 67 6a 88 be f0 ec 90 bd
       0.3624751 -0.2337925 -0.2664368 -0.07076442
000330 58 05 9a be 3d 5e 69 bd d1 52 0c bf ae 85 42 3d
       -0.30082202 -0.05697464 -0.5481387 0.047490768
000340 ad fc 06 3e 7f 15 a3 be 77 da 3e 3e d5 46 8a 3e
       0.13182326 -0.31852338 0.18638025 0.27007166
000350 d5 a1 11 3e d6 21 df bd e7 6f 3c be 6e 3c 9f 3d
       0.1422189 -0.108951256 -0.18402062 0.07775198
000360 a9 ff 19 be 23 9f 16 be 28 18 24 3e 94 89 62 3e
       -0.15038933 -0.14709143 0.1602484 0.22122794
000370 6f e9 b0 bd 9c ef c1 be 45 97 03 bc a2 47 ea 3d
       -0.08638274 -0.3787812 -0.008031671 0.11439444
000380 73 34 56 bd 47 ba a9 3d 43 26 46 3e f7 b1 b1 3b
       -0.052296113 0.08287483 0.19350533 0.0054228264
000390 ff b6 99 bd 59 e2 b4 bc db 29 2a 3d 05 89 a6 3c
       -0.07505607 -0.022080587 0.041543823 0.020329008
0003a0 88 9c 09 bd 4b 66 d6 3c d7 0c b9 be af 80 af 3e
       -0.033596545 0.026171824 -0.3614261 0.34277865
0003b0 1c f2 b8 be 63 7d 3c bf 60 5a 1a 3e 53 bd 2c bd
       -0.36122215 -0.73628825 0.15073538 -0.04217274
0003c0 e5 16 7c bd 6c 11 d1 be 0d d5 6b 3f f1 b0 45 bf
       -0.06154527 -0.40833604 0.92121965 -0.77223116
0003d0 71 7f 05 bd 76 c3 29 bf f9 5a 88 be 83 dc 9e 3e
       -0.03259224 -0.66313875 -0.26631907 0.31027612
0003e0 d9 1d bb be f7 70 06 3d 22 30 96 3d 2e 73 48 3e
       -0.3654621 0.032822575 0.07333399 0.19575188
0003f0 c3 b2 a0 3e cd b9 6f 3e 5d e0 2f 3f 50 a9 aa 3e
       0.31386384 0.23410721 0.68701726 0.333323

mlp_extractor.value_net.0.bias f4 [256]
000000 e3 cb 6c 3f f5 bb 24 3e eb 7a 25 3f 36 b2 c4 3e
       0.92498606 0.16087325 0.6464068 0.38417214
000010 01 55 16 3f 1f b0 3c 3f f5 58 21 3f cc 3c 71 bd
       0.58723456 0.7370624 0.6302636 -0.05889587
000020 da b2 2d 3f d5 dd de be 2b c9 e2 be 68 5d b5 3e
       0.6785103 -0.4352862 -0.44294104 0.35422826
000030 e3 92 87 3e ad 79 4b 3f 18 90 37 3f e0 40 21 3f
       0.26479253 0.7948254 0.71704245 0.62989616
000040 b1 28 45 3f 36 ff 45 3f a1 26 30 3f 04 fd da 3e
       0.77015215 0.77342546 0.68808943 0.4277116
000050 d7 9e d0 3d 8c 7d 55 3e 81 df d2 be a2 06 55 3f
       0.10186546 0.20848674 -0.41186145 0.83213246
000060 ff 0a d0 3d 47 9f 36 3d d2 cf 97 bf 97 bb 4a be
       0.10158347 0.044585492 -1.1860297 -0.19798122
000070 9e ab 54 bf 9c 86 81 bf 57 f9 26 3f ee 4d 14 bf
       -0.8307437 -1.0119205 0.6522421 -0.5793141
000080 09 92 b8 be 80 62 5a bf e9 53 41 be 06 58 a5 3e
       -0.36048916 -0.8530655 -0.18879665 0.3229372
000090 a2 65 2a bf cc be f6 3e be ba 0c bf e3 39 85 3c
       -0.6656133 0.4819244 -0.54972446 0.016262954
0000a0 e1 26 30 3f 52 78 49 3f f1 08 09 3f 1e 93 3c 3f
       0.68809325 0.7869922 0.5352927 0.73661983
0000b0 86 39 75 3e f4 00 02 3f 7c 3e 52 3f 86 9c 9a be
       0.23947725 0.50782704 0.82126594 -0.30197543
0000c0 48 00 35 3f 88 0a ee bd f4 a0 3e bf 95 15 23 3f
       0.70703554 -0.116231024 -0.74464345 0.63704807
0000d0 0e bc 30 bf 6f 0c 34 3f d1 6e 00 bd 01 af f1 3e
       -0.6903695 0.7033147 -0.031355683 0.4720383
0000e0 4c c8 b2 3e e6 a4 15 3f b8 1d 4f bf d6 b2 f8 be
       0.3491844 0.5845474 -0.8090472 -0.4857394
0000f0 d7 6d 44 be e9 39 70 bc c7 b8 0d bf 21 90 c5 3e
       -0.19182526 -0.014662244 -0.5536007 0.38586524
000100 cd 88 81 bd d0 79 df bd e6 d2 02 3f 3e 47 39 3e
       -0.06324921 -0.10911906 0.51103055 0.18093583
000110 5f 14 3a bd 05 01 ab be 41 91 93 3e 34 d6 40 3f
       -0.045429584 -0.33399215 0.28821757 0.7532685
000120 08 bf 89 be 28 64 62 be a2 3c 5d 3f 51 04 47 3f
       -0.26903558 -0.22108519 0.86420643 0.7774096
000130 9e fd cc bd c2 21 5a 3f 08 5d 51 3e 32 1d 4e bf
       -0.10009311 0.8520776 0.20445645 -0.805133
000140 c8 1b b8 bd a0 f9 25 bf 88 cc 14 3f b9 9f 1d 3e
       -0.08989674 -0.6483402 0.5812459 0.1539296
000150 76 1f 55 3f fe 45 6d bf 19 c0 0f 3f e6 4c 2e 3f
       0.8325113 -0.92684925 0.5615249 0.6808609
000160 52 20 1d be 7b ae 12 be b1 c4 40 3f 12 a1 ab bc
       -0.1534436 -0.14324372 0.7530013 -0.020950828
000170 5c 8d 23 be be 2f 1f bf 40 6b 7b bf be ef fb 3e
       -0.15971893 -0.62182224 -0.98210526 0.49206346
000180 6f 45 1a 3f cd 8d 40 3d 4b c1 1e 3f c6 6e 3b 3f
       0.602622 0.04701023 0.6201369 0.732159
000190 1b 71 4f 3f 15 51 25 bf 92 1b 2a 3c 5d d5 b0 bd
       0.8103196 -0.64576846 0.01038255 -0.08634446
0001a0 cb aa 1f 3f eb 4f 0e 3f ae df 07 3f 23 20 fc 3e
       0.62369984 0.55590695 0.53075683 0.49243268
0001b0 2d a4 ca be 61 6a d0 3e ff 92 21 3f 89 a7 0a 3f
       -0.3957838 0.4070616 0.63114923 0.5416189
0001c0 f0 3f 0f bf eb 3d 43 3f 74 50 23 bf 22 53 e2 be
       -0.55956936 0.76266354 -0.63794637 -0.4420405
0001d0 43 71 9d 3e 66 3d b7 3b 13 b3 22 3f 0c 9b 9d be
       0.30750474 0.005592036 0.63554496 -0.30782354
0001e0 3f f6 99 be 1c 28 0f be a3 26 ca 3e 50 b6 33 be
       -0.30070683 -0.13980144 0.39482602 -0.17550015
0001f0 ef 3d e1 3e cb 75 ec be d4 de 86 bf a2 00 84 be
       0.43992564 -0.4618362 -1.0536752 -0.25781733
000200 0f c4 27 be c2 bd bd be 0d fa a2 bf cf 30 01 bf
       -0.16383384 -0.37058836 -1.273256 -0.504651
000210 d1 7b 14 bd d5 fc b2 3f 1e ea 15 3f 37 7e d6 3d
       -0.036250893 1.3983408 0.5856036 0.10473292
000220 7f 07 9e 3e be 6f 95 be e5 81 11 bf 6e fb 0f 3f
       0.30865094 -0.29186815 -0.5683883 0.56243026
000230 6f ae 2d 3f dd 0e 6e be 8d 3e b4 be 1e 39 14 bf
       0.6784429 -0.23247857 -0.35203972 -0.57899654
000240 4b 13 ff 3e 1f d7 41 3f 7c aa 6e 3f 23 6b 21 3e
       0.49819407 0.75718874 0.9322889 0.15763526
000250 ad 38 4e bf aa d7 15 3e cb 38 c0 be 93 12 4e 3f
       -0.8055523 0.1463305 -0.3754333 0.8049709
000260 5e ac 23 3f ab 61 52 3f a8 42 4e 3f b2 4a af 3e
       0.63934886 0.8218028 0.8057046 0.34236676
000270 6c 2b 98 bd 83 7d 0c 3d d8 8b f0 bd dc 0c 3f 3f
       -0.07430157 0.034299385 -0.11745423 0.74628997
000280 dc e8 0e be d8 d3 ac bd 70 52 4b 3f 5a 95 89 be
       -0.13956016 -0.084388435 0.79422665 -0.2687176
000290 50 87 79 be e5 a0 37 3f 7e 15 27 3e 09 e3 c6 3e
       -0.24368024 0.7172988 0.16316792 0.3884509
0002a0 7c a1 44 be f8 bd 07 be 1f 34 95 bd b9 71 4f 3f
       -0.19202226 -0.13256061 -0.07285332 0.810329
0002b0 60 ef 5c 3f f4 15 00 bf 40 5b 32 3e 5a 18 4f bf
       0.8630276 -0.500335 0.17417622 -0.8089653
0002c0 20 bb 34 3f 62 d2 e1 be ca c4 34 3f 29 79 60 3f
       0.7059803 -0.44105822 0.70612776 0.87684876
0002d0 60 37 19 3f e5 6d 2f bf fb cc 67 be 7f ae 90 bd
       0.5985012 -0.6852706 -0.22636788 -0.070645325
0002e0 8b a5 3d 3b 61 31 f3 3e 01 56 80 3e 2e e9 2e 3f
       0.0028937783 0.4749861 0.25065616 0.68324554
0002f0 74 fb ab be 6d 50 5c 3f 1e 61 fa 3e 7c f3 85 be
       -0.3359028 0.8606022 0.4890222 -0.26162326
000300 58 d3 9e be 82 44 ff be 11 66 2f 3f c4 8f 0f bd
       -0.31020617 -0.49856955 0.68515116 -0.035049215
000310 7c 15 45 3f 13 19 0f be 9d b5 11 3f 4e 18 9b bf
       0.7698591 -0.13974409 0.56917745 -1.2116792
000320 e9 d4 84 be 81 c2 df 3d b7 d0 6a bf 19 2a 71 be
       -0.25943688 0.109257706 -0.91724724 -0.23551215
000330 7a 1c 2d 3f 92 6d ce 3e 00 9b 4b 3f e4 34 dc bd
       0.67621577 0.4031797 0.79533386 -0.107522756
000340 7d 0b f7 bd 55 5c d3 bd a3 dd da 3e 6f 22 64 3f
       -0.12062738 -0.10320345 0.4274722 0.8911504
000350 05 7e 00 3f 9f 27 1c bf a8 13 c8 be 17 c3 54 bd
       0.5019229 -0.60997957 -0.39077497 -0.051943865
000360 20 04 e0 3d 2e 14 0f 3f ef f7 a3 3e a0 f2 11 bf
       0.10938287 0.55890167 0.32025096 -0.5701084
000370 80 f4 f5 3e 44 fd ba bb e0 7d d7 be 12 38 51 be
       0.480381 -0.005706461 -0.42088223 -0.20431545
000380 bd 60 10 3e 49 5c 35 3f 1d f4 2b 3d 9a b1 ce be
       0.14099403 0.7084394 0.04198085 -0.40369874
000390 93 ef 8b bf f4 91 46 3f 63 07 32 be 8e a7 0e 3f
       -1.0932487 0.77566457 -0.1738563 0.5572442
0003a0 c8 0c 20 3d 5c 28 6d 3e ad 4a 74 3f d5 05 67 bf
       0.03907469 0.23159927 0.95426446 -0.90243274
0003b0 71 5f 82 bf 07 1c 2a bf 58 a5 7e be 8d 71 61 be
       -1.0185376 -0.66449016 -0.24867761 -0.22015972
0003c0 b7 f8 23 3f 3d ed d9 3b d5 fd d2 3e bc f7 55 bd
       0.64051384 0.0066505955 0.41209283 -0.05223821
0003d0 c7 f5 d8 bc b1 c9 42 3f 8f d9 83 bd 60 64 19 be
       -0.026484383 0.76089007 -0.064379804 -0.14979696
0003e0 c3 81 44 3f 68 06 9d bd 30 24 4b 3f 97 7c 33 be
       0.767605 -0.076672375 0.7935209 -0.17527996
0003f0 07 7e 6c be 31 48 db be 76 15 58 3f b4 1a a9 bd
       -0.2309495 -0.42828515 0.84407747 -0.08257046

mlp_extractor.value_net.2.weight f4 [256, 256]
000000 ac ee 8b be 93 92 cd 3d 7a c1 83 be 96 fd 83 3e
       -0.2733053 0.100377224 -0.25733548 0.25779408
000010 a9 33 01 be d2 0a 51 be f6 a0 d4 3d 17 bb c4 3e
       -0.12617363 -0.20414284 0.10382263 0.38423988
000020 35 f9 4e 3e 53 51 07 be 15 07 c1 3e 16 ba 48 bd
       0.20212252 -0.13214616 0.37700716 -0.04900559
000030 ad 8f da bd 52 d3 6c be 18 0c 4f be 45 81 cc 3e
       -0.10671935 -0.23127487 -0.20219457 0.39942375
000040 17 f8 69 be dd 83 ed ba c5 ab 8c 3e e3 ae 27 be
       -0.22848545 -0.0018120963 0.274748 -0.16375308
000050 f6 89 2d 3f e7 77 f8 3e 64 ae 17 3e f5 2c 9f 3e
       0.67788637 0.48528978 0.14812618 0.31088987
000060 81 4c 9b ba a0 1c 60 3f c8 eb 3c bf 83 86 75 be
       -0.0011848361 0.8754368 -0.73797274 -0.23977093
000070 f4 f1 4c be 29 8a fd 3e 67 98 68 be de a6 04 be
       -0.20014173 0.4951947 -0.22714387 -0.1295428
000080 19 36 d1 be da e3 0f bf 53 73 1d 3f 44 dd 43 3d
       -0.40861586 -0.5620705 0.61504096 0.047818437
000090 9b 71 f7 bd 9e 3b c2 be ca 58 8a 3d 00 a5 bc 3e
       -0.120822154 -0.3793611 0.067552164 0.36844635
0000a0 88 6b 3a bb e2 51 0b 3e b3 32 e5 3c f1 34 81 be
       -0.0028445441 0.13605455 0.027978277 -0.25235704
0000b0 8c b2 73 bd 86 5b b6 bd 47 32 6e bd 2e af 27 bd
       -0.059496447 -0.089041755 -0.058153417 -0.04093855
0000c0 c5 a9 e1 3d 8c ee 2e 3f 78 69 93 3d d3 43 63 bd
       0.11018709 0.68332744 0.07197851 -0.055484604
0000d0 04 38 f3 3c 7a 45 b5 be 94 8f b1 bd 3e 0f 0c 3f
       0.029689796 -0.3540457 -0.086699635 0.5471076
0000e0 0a 85 be bd e1 9e 4c 3e b0 f4 8a 3c 39 cf 48 bd
       -0.09302719 0.19982482 0.01696238 -0.049025748
0000f0 8e 4c a8 3e 7b e6 d4 bc e3 8e 87 be ac ab c8 3d
       0.32870907 -0.025988808 -0.264762 0.09798369
000100 91 97 bf 3e f6 25 ed be 2d cf 3c bd 2a 58 f1 3d
       0.37420323 -0.46318024 -0.046096016 0.11784394
000110 47 69 a2 3f 7e 46 59 be 6b 14 46 3f f3 75 a6 3e
       1.2688378 -0.21218297 0.77374905 0.32511863
000120 98 07 8f be a2 05 0f 3e a6 66 b7 3d 0c 5a 00 bf
       -0.2793548 0.13966992 0.089551255 -0.501374
000130 23 1e 23 3f 55 a2 16 3c 50 89 8d be 58 75 11 be
       0.6371786 0.009193976 -0.27643824 -0.1420492
000140 e5 0c 48 3c de d9 9e be 1b f0 06 be f7 89 62 3e
       0.012210106 -0.31025594 -0.1317753 0.22122942
000150 80 c0 24 bb 7a dd 2b 3e e6 03 6f 3c aa b7 85 bd
       -0.0025139153 0.16783705 0.014588332 -0.06529172
000160 ed 9f c7 3e dc 84 fd bd 7a b4 05 be 3a 67 1b be
       0.389892 -0.123788565 -0.13057128 -0.15176097
000170 83 58 8a 3f 89 d1 35 3c 0b 73 0a bf e5 70 f5 3c
       1.0808262 0.01109732 -0.5408179 0.029961059
000180 77 87 47 be 22 36 9c 3d c3 75 da 3d 8b 57 bd bc
       -0.1948527 0.076275125 0.106669925 -0.023113033
000190 f9 02 34 bd 96 fa fd be 9e cd a0 be ef 11 2a be
       -0.043948147 -0.49605244 -0.31406873 -0.16608404
0001a0 d1 9a 4e be 95 e8 7d 3d d8 de d4 be 51 1a a1 be
       -0.20176245 0.061989386 -0.41576266 -0.3146539
0001b0 da dc a1 bc 24 c1 b5 3d c8 dc 1d 3e fe 8f 15 3f
       -0.01975863 0.08874729 0.15416253 0.5842284
0001c0 15 be d8 be 6a db e0 3d 8b 34 86 be db bc 96 3d
       -0.4233252 0.1097935 -0.26211962 0.0736024
0001d0 bb 35 81 3e 32 d2 d8 3b 5c 6f 6d be 5a 31 9d 3f
       0.25236306 0.006616854 -0.23187011 1.2280686
0001e0 f6 75 41 3e df 89 a0 bd 2c 3a 2c 3f b8 76 80 be
       0.18892655 -0.07838797 0.67276263 -0.25090575
0001f0 d4 33 f5 3e 9b a4 56 be 27 e6 6c be 06 3c 43 3f
       0.47891104 -0.2096123 -0.23134671 0.76263463
000200 1d 20 85 3e bc b6 11 3f 65 d8 1a bf a2 dc fa bd
       0.26001063 0.56919456 -0.6048644 -0.122491136
000210 c7 72 50 3f 0c ae ad 3d 50 19 cf be 6f b0 65 3f
       0.81425136 0.084804624 -0.40449 0.8972234
000220 bd 9e 08 3f e2 8f 04 be e5 d1 8e be 9d d1 2b be
       0.53367215 -0.12945512 -0.27894512 -0.1677918
000230 f0 c6 ff 3d 40 77 49 be 07 99 d9 3d f2 8b b1 be
       0.12489116 -0.19674397 0.10624891 -0.34677082
000240 0c f3 e3 3d 92 b1 6e 3e e0 e4 d4 bc 14 7d 17 3f
       0.11130342 0.23309925 -0.025988042 0.5917523
000250 be fd 5c 3d 1d a0 78 bc 0b e9 b1 3e a0 86 f6 3d
       0.053952925 -0.015174893 0.3474811 0.120373964
000260 46 2d 85 bd 80 3f ff bd 15 a8 a9 bd 27 c0 b4 3e
       -0.06502776 -0.124632835 -0.08284012 0.3530285
000270 01 d5 ba be 2e b2 15 3f 34 e2 03 3f 88 c0 ff bd
       -0.36490634 0.58475006 0.51517034 -0.12487894
000280 de ea 69 3f 88 93 55 3e 45 62 95 be e1 39 f6 3e
       0.91374004 0.2085706 -0.29176536 0.48091033
000290 4f f9 d5 3e 13 92 a9 3d 84 b6 26 bf 26 34 f6 3d
       0.4179177 0.082798146 -0.65122247 0.12021665
0002a0 5d cf 9b 3f 46 30 73 3f 82 55 64 3d d9 f5 3b be
       1.2172657 0.94995534 0.05574561 -0.18355502
0002b0 86 f6 42 be 2b e1 89 be dc ed 59 3f 37 9f 80 be
       -0.19039354 -0.26929602 0.8512857 -0.2512147
0002c0 13 5b 40 be b7 95 c9 3e d9 d8 8a be 2d 16 91 bd
       -0.18784742 0.39372036 -0.27118567 -0.07084308
0002d0 47 04 8a 3e 70 e3 28 be 72 e1 26 3f d6 ce 0e 3d
       0.26956388 -0.1649301 0.6518775 0.034865223
0002e0 4a 27 05 3d 08 63 fc 3e b6 a7 80 bd fd d3 81 bc
       0.032508172 0.49294305 -0.06281988 -0.015848154
0002f0 57 31 51 3e 6b 6a a8 3c 16 24 d2 3e 73 51 9c 3d
       0.20428978 0.020558557 0.41043156 0.07632723
000300 07 c8 b4 3e 53 8e d2 3d b8 ef 00 bd 51 a2 a6 3e
       0.3530886 0.102810524 -0.031478614 0.32545713
000310 66 72 77 bd ca 86 54 3f b3 75 24 be 80 96 6c bf
       -0.060411833 0.8301817 -0.16060524 -0.92417145
000320 df 16 e5 be 09 ed 28 bd bf b1 be be f6 60 b0 3e
       -0.44744012 -0.04124168 -0.37244985 0.34448975
000330 38 76 0a be c5 7f f9 bd d6 26 9d be 93 5c 67 3f
       -0.1352166 -0.12182573 -0.30693692 0.9037563
000340 dd 2b a2 3e 89 6b 6e be e2 ba 3d 3f e6 c2 0b be
       0.3167409 -0.23283209 0.74113286 -0.13648567
000350 6d 97 74 bd 1e 05 b8 3d 71 32 77 3e 84 6d 7b be
       -0.059714723 0.08985351 0.24140336 -0.24553496
000360 d9 96 20 be 25 e7 d4 be e9 e8 06 bd 6e cc 8a be
       -0.15682544 -0.415826 -0.032936964 -0.27109092
000370 ec 42 a1 3d ce 0a fc bc 44 94 4b be ca a5 3a 3e
       0.078740925 -0.03076687 -0.19880778 0.18227306
000380 0d e1 0c bd 0e a5 97 be e4 1d 43 3c 9a 57 a6 bd
       -0.034394313 -0.29618114 0.011908982 -0.081221774
000390 05 aa e8 be 34 50 f7 3d a1 a7 90 3f 81 ec 91 bd
       -0.45442215 0.120758444 1.1301156 -0.07125188
0003a0 00 0a c4 3f 4b 3d cb 3e b8 76 05 be 5f eb a8 3e
       1.5315552 0.396952 -0.13033569 0.32992074
0003b0 a6 0f e2 be d9 f2 e0 bd 37 d9 7b bf b0 fd 49 3f
       -0.44152564 -0.109838195 -0.9837832 0.7890272
0003c0 f3 41 b3 bd a4 c9 15 be 30 39 93 3d 95 96 42 be
       -0.08752813 -0.14627701 0.07188642 -0.19002755
0003d0 07 46 ba 3e 33 a4 8c bc c1 7d 5b bc 2b f0 5d 3e
       0.36381552 -0.01716814 -0.013396681 0.21673648
0003e0 16 37 c7 be c7 91 da 3c 3e 29 9b bd 12 ea 15 3f
       -0.38909215 0.02668084 -0.07576226 0.5856029
0003f0 6b c2 db bc de 4c 28 3e 9f d1 e2 bc c0 73 76 3e
       -0.026826104 0.16435573 -0.027687846 0.24067593
