ES100_Test_Data/policy_new.pth (torch, 599919 bytes, 12 tensors)

log_std f4 [12]
00000000: 505f acbf a086 c3bf 917a 9bbf c584 9bbf
00000010: 6aaf bbbf dff3 dcbf 092a c2bf 2b94 babf
00000020: 735a bcbf d883 b6bf d380 c6bf 403e b6bf
-1.3466587 -1.5275459 -1.2146779 -1.2149893 -1.4662907 -1.7261924 -1.5169078 -1.4576467
-1.4715103 -1.4258986 -1.5508064 -1.4237747

mlp_extractor.policy_net.0.weight f4 [256, 26]
00000000: 3e8a 3e3d 9754 a73d cb23 ddbc db19 55be
00000010: 84bf 333d 8a12 c23d 2d55 c1bd 274c e3bc
00000020: 77ca ce3d 083e 0e3d bc53 593d 5688 4ebe
00000030: fd7d 6e3e 51bb 523d 953b 2abe a3e3 c5bc
00000040: acd0 83bd 5f0b 0c3e 9d32 393e d6aa bebd
00000050: afc9 533e da55 b6be 6c0f 66be 5c3c 5b3e
00000060: b48b b6bd 5360 283e 70ca 87be 4acf 96bd
00000070: 282c 2ebd 4664 243e 6e90 123c 2fab e4bd
00000080: bb75 83bd 1074 1d3d 64b8 4e3d 10ba 143e
00000090: 1e41 043e f8b5 0d3e 628a debd 5271 09be
000000a0: 91e2 bfbd f820 8a3c 5c6f a03c 9382 60bd
000000b0: fb8a 64be 9389 49be d29b fabd 127b e6bd
000000c0: f63e d43c a0db 063e 5eea 3ebe c846 5dbe
000000d0: 0e48 f23d fa3d 88be 4e1c cc3e 5d81 bf3c
000000e0: 8312 403e c1d1 04be 88dd 2a3b d0d6 16bd
000000f0: 7e46 4ebd b19b bebd 3671 24bd 7906 df3d
00000100: f949 3abc 088a f93d 1316 1f3e 0679 90bd
00000110: 7adf c33c 7eef 01bd 4676 153e 19b7 5a3d
00000120: ca75 693d ef9d 8cbe 44f7 4a3e e2ea 99be
00000130: 36cb 0c3d 296f fabc 326c 6cbe a67d abbd
00000140: 631c adbd 7106 323e 1184 1fbe d5f1 733e
00000150: 7b33 023d b78e 503e e205 c3bd ccf5 463d
00000160: 623e 77bd 57f0 db3d 6b1e a4bd 39fe 84bd
00000170: f389 4e3e b2a5 1fbd e751 0f3d bb22 b63c
00000180: 41d3 343d 30e5 abbd a083 963d 97bf a0bc
00000190: 4cf1 dd3e 1085 c3bd 1b99 ad3d 39b8 493d
000001a0: 1821 853d 454a 47be b1ff 903c 7a7a 013e
000001b0: 7579 87b9 a3ec f03b 9991 303e a01e e73c
000001c0: 1b4e 5e3d c502 903e e2ab 443d 40e6 073e
000001d0: d9e9 1bbd 4b2f e7bc 39c6 e03d 67ea 4fbd
000001e0: 2b82 003d a00f 96bd 7f6e b1bb 6aa2 f13d
000001f0: b4ea be3e 43b1 f0bd 406f d8be 2962 773c
00000200: 2988 70bd e11a 1fbe 7e1b 2cbd 2c06 ac3d
00000210: bc72 a13d be2d f63d dd9c 69be ab83 763d
00000220: 7ba9 833d 50e1 31be faa9 eebd 428f bdbc
00000230: a103 7a3d f849 07be e253 273e 421b 0a3e
00000240: 7a30 01be 1992 59bc 7d31 283d e659 4cba
00000250: be7d 90be 4eef cbbe 078f 7e3e 7638 6dbe
00000260: f761 913e 0b5c 0abe 7019 7fbd 1389 5b3e
00000270: 1270 463e 7ac4 403e 4dd0 333e 8372 dd3c
00000280: 0f6e 333e 752a 3c3e 8f69 583d 4bc0 0a3e
00000290: dcd0 f23b 91a9 503d 4424 093e cdb1 e13c
000002a0: 8bb0 893d 3331 30bc 849a a5bd 7c1f 493d
000002b0: 7f96 b63d 0f9e 5d3d c02e b63d 1cde c3be
000002c0: b7ba 283d 15e5 ccbe 9c1a c03e a654 d33c
000002d0: 96d3 6bbd 3fc1 25be 70bb dfbd 9c98 0bbe
000002e0: a3c0 25be 5c24 003e c78e 30bd 1747 33be
000002f0: da57 e3bc aec4 be3d c922 5f3d c45b ee3d
00000300: 0cf3 84bd 6f69 d3bc 2553 22bc 6174 603d
00000310: 1aad 58bd c633 ca3c c43c 4c3d a95c aabc
00000320: 5904 e03d 6a21 39be 54cd c9be b93e cabc
00000330: 7578 613e 5d75 cf3e 5fbe 943d f31e efbe
00000340: ef1a 893e 19c4 583e 0617 60be f8d2 debc
00000350: 734d 113d 58dd 00be 34f5 21be a0f9 eebd
00000360: 49e8 d13d 6315 a73c ba21 8b3d 6597 463d
00000370: a234 fa3c 52e4 3f3d f54b 293d 1f5e b23d
00000380: b39e 1bbc e54c 713c d824 0bbe 6445 07bd
00000390: 68d9 17bd c59c 723e a749 0e3d 089c 833e
000003a0: c281 1e3c f9cc 933e f3ca 68bd 05d4 dcbd
000003b0: 167b f73d 17ba b6bd cf5d 8dbd 5309 b03d
000003c0: e59a ebbb 2a2b c53d a181 a03d d6bb 88be
000003d0: 3a8d 75bd 536a 663d d320 563e 684f 9d3d
000003e0: 0da5 75be 2041 aa3b ce24 59bc 7971 42bc
000003f0: d74e fd3e b393 53be 298b a93e efc1 d33d
0.046518557 0.08170431 -0.026994606 -0.20810644 0.043883815 0.09476192 -0.09440074 -0.027746273
0.10097211 0.034727126 0.05305837 -0.20169196 0.23290248 0.05144817 -0.16624291 -0.024156397
-0.064362854 0.13676213 0.18085714 -0.09309928 0.20682405 -0.35612375 -0.2246682 0.21409744
-0.08913365 0.16442995 -0.26521635 -0.07363756 -0.04252258 0.16053876 0.0089455675 -0.11165463
-0.0641894 0.038440764 0.050468817 0.14524102 0.12915465 0.13838947 -0.10866238 -0.13422135
-0.09369386 0.016861424 0.01958435 -0.054812025 -0.22318642 -0.19681387 -0.122367516 -0.112539425
0.025908928 0.13169718 -0.18644091 -0.21609032 0.118301496 -0.26609784 0.39865345 0.023377115
0.18757062 -0.1297064 0.0026071984 -0.036825955 -0.050360195 -0.093070395 -0.04014703 0.108899064
-0.0113701755 0.121845305 0.15535764 -0.070543334 0.023910273 -0.03172254 0.14595899 0.05339727
0.056997098 -0.27464244 0.19820887 -0.30062014 0.034373485 -0.030570583 -0.23088148 -0.08373575
-0.0845268 0.1738527 -0.15577723 0.2382272 0.031787377 0.20366941 -0.095226064 0.048574254
-0.060362227 0.107392006 -0.08013614 -0.064938016 0.20169811 -0.03897638 0.034990218 0.022233358
0.04414678 -0.083933234 0.07349324 -0.019622607 0.43348157 -0.09546864 0.08476468 0.049247954
0.06500453 -0.19461925 0.017700048 0.12644377 -0.000258397 0.007352428 0.17243041 0.028212845
0.054273706 0.28127113 0.048015483 0.13271427 -0.03806481 -0.028220793 0.10975308 -0.050760653
0.031374138 -0.07327199 -0.0054147835 0.11798556 0.3728844 -0.1175256 -0.42272377 0.015099087
-0.058723602 -0.15537597 -0.042018406 0.08399615 0.07883212 0.120204434 -0.22813745 0.060184162
0.0642881 -0.17371106 -0.11653514 -0.0231396 0.061038617 -0.1321181 0.16340593 0.1348696
-0.12616149 -0.013279461 0.04106282 -0.00077953783 -0.28220934 -0.39831012 0.24859248 -0.2316607
0.28395054 -0.13511674 -0.06228012 0.21439008 0.19378689 0.1882495 0.17559929 0.027032143
0.17522453 0.18375571 0.052835044 0.13549916 0.007410152 0.05094296 0.1339274 0.027550602
0.06723126 -0.0107539175 -0.08086112 0.04910229 0.089154236 0.054105815 0.088956356 -0.38255394
0.04119369 -0.40018526 0.375203 0.0257972 -0.05757483 -0.16186999 -0.10924423 -0.13632435
-0.16186766 0.1251387 -0.043104913 -0.17507587 -0.027751852 0.093148574 0.054476533 0.11638597
-0.0649167 -0.02580711 -0.0099075185 0.054798488 -0.052899458 0.02468289 0.049862638 -0.020796137
0.10938329 -0.18079153 -0.39414465 -0.024688112 0.22018607 0.4051923 0.07262873 -0.467033
0.2677836 0.21168555 -0.21883783 -0.027200207 0.035474252 -0.12584436 -0.15816194 -0.11668706
0.10249383 0.02039594 0.06793542 0.048484225 0.030542675 0.046848603 0.041332204 0.087093584
-0.009498286 0.014727806 -0.13588274 -0.03302516 -0.03707257 0.23692615 0.03473821 0.2570498
0.009674491 0.2886732 -0.056834172 -0.10782627 0.12084024 -0.089222126 -0.06902658 0.085955285
-0.0071900957 0.096273735 0.07837225 -0.26705807 -0.059949137 0.056253742 0.20910959 0.07681161
-0.23988743 0.005195752 -0.013253404 -0.011867874 0.49474213 -0.20661812 0.33113983 0.10339724

mlp_extractor.policy_net.0.bias f4 [256]
00000000: e026 333c 094a 953d a0f5 8cbd f343 9f3d
00000010: dba6 ad3d f5bc 6ebd 2efc fe3c fd59 b93d
00000020: 1676 5cbd d01b 503d c7d5 8abd e871 a7bd
00000030: 4ad5 86bd 8852 043d 265c a1bc f6ce 5fbc
00000040: 6530 363d 09c9 22bd 5129 113e 500c ab3b
00000050: 5901 28bd 39ee d83d 3e26 e3bd 242e 9c3d
00000060: 9e3d 673d 66f6 343d bdd5 ad3b b2c2 b23c
00000070: 694f 0d3d 6db5 a8bd fab4 8b3b 9209 1a3d
00000080: a4e9 b73d 714e 413d 557e 1a3d 3c03 9c3a
00000090: bcae eebc 19a5 9cbc 8682 29bc 3fa7 98bc
000000a0: faa2 233d d184 693b 7208 123b dad0 733d
000000b0: 4c75 c13d 566e a3bd e4ba 54bc 49ac b9bc
000000c0: 5471 e3bd 8f8d e5b8 e7f0 14bd 5c3d 3e3d
000000d0: 6b5d bd3d 48fa 4d3d f2fa 1bbb 8c4d 4e3d
000000e0: 76bb 583d 67bc e5bb 859a 3bbc eac8 27bd
000000f0: 472a 36bd d1bb b83b 3417 873c 3214 5b3c
00000100: 0dc0 4d3d 4fc2 a2bd becc 33bc 1fda 583d
00000110: 1ced d03d c2ce 593a 8493 443c 2317 37bb
00000120: 0c1f 1ebd a2a7 a43d 68ab 233d f90b d23d
00000130: c24d c73d d0ec 8a3c 17a5 b9bc 1931 b5bd
00000140: e04a ddbc ce18 d2bd 2542 e33c cdc0 ad3b
00000150: 5e3f 2fbd 91c0 a93d 2f7f 443d 388c a9bd
00000160: 6a8b 66bc 7083 67bd 159b b8bc 308a 2c3c
00000170: 5ac7 e0bc f528 9abc 5909 c5bd e1a0 de3c
00000180: 3feb 9dbd 2d83 0c3e d33d 84bc 99e1 d4bc
00000190: 45f5 f0bd be9c 69bc dfc7 9c3d 2037 f5bc
000001a0: eacd 8b3d 3053 3e3d 5bd0 2abd f926 57bc
000001b0: 2a04 b03d 3d4b 453d 77be 293d 6345 8a3d
000001c0: 8fde a0bd 0a99 683d 9bcc e63d 5f4a 5e3d
000001d0: 5aa6 eeb9 cc0a b53d 9c48 bebb 8c07 b13c
000001e0: 5bbc 40bd 78e9 183c f0aa ad3d 391a c43c
000001f0: f15b f73b c2c0 033d c4ee 4dbd b465 19bd
00000200: 90f3 7a3a 1be9 a83c 3244 623d e7a7 943d
00000210: f6d3 903c 6231 693a 9535 dbbd 4c52 e83c
00000220: 5c87 1c3e 2546 453d 6b90 3abd f06e c3bb
00000230: f7f8 4fbd 2b17 033d c969 023d 72f6 503d
00000240: 4a67 953d 5c74 f6bc d601 973c 8fe9 5c3d
00000250: e653 c63d f0c9 7dbd b71e 9f3c 5337 833d
00000260: 2ed3 18bd 2327 8c3d ec17 3ebd f60f d4bd
00000270: 3ab5 913d 1a5d e73d edf8 90bd 9938 febc
00000280: 52dd 9ebc 7fad 6f3d 2050 8c3d 9598 e0bc
00000290: fe81 5dbc 0ea0 66bc cc3d e93c 79f3 883c
000002a0: 1447 f03b ad31 a8bc 8b64 7fbb ca24 37bd
000002b0: 60a8 ba3c 521d ed3c f85c 99bb 2f3a 57bd
000002c0: 2555 063d 56f2 debc 8598 c43d 3fd6 223d
000002d0: 3b86 0b3d db61 113d f696 d83d 6e8b 8bbc
000002e0: 1ac4 7e3c 7ac2 0dbb 3c52 2cbc 6bf9 8a3c
000002f0: 06bc 97bd ef2a 8b3d 7870 e8bc e7ce 853d
00000300: e973 10bd 51be 4a3d 4d15 6abd efab 88bd
00000310: e1e1 a03d 47d5 0ebd 1a2a db3d 47d0 bebc
00000320: f244 943c 2931 1abd 0daf 70bb e17b 9dbd
00000330: 5611 1c3d 4d6e 8c3d 8bd8 3abd 8424 04bc
00000340: 023c e5bc 90bd e43c d390 d938 b024 923d
00000350: b640 49bd 7a24 953d a4e2 cebc 606b d93d
00000360: c1d8 813d b92f fbbb bd85 cc3c d716 debc
00000370: ce9a 1c3d cd04 3e3d e993 593d d1db ffbd
00000380: d1c2 373d 8483 3ebd d68c e73d 482d da3c
00000390: 0c1e d93d 9305 9abd 0478 c0bc 53bf 433d
000003a0: d67a d93b 9dbb c53b 073a d7bc 9825 733d
000003b0: f397 8a3d e202 b83d 54f0 91bc 6432 bc3c
000003c0: ee53 323d e193 0d3d c441 173d ac49 b63d
000003d0: fdbe 913c 8fce 8ab8 313b c13c 5506 9c3d
000003e0: 43bc abbb 2f89 2d3d 8736 3d3d 5cc4 77bd
000003f0: 3ebd 653d 049e f43d aa99 873d 6895 f93c
0.0109345615 0.07289512 -0.06882787 0.07776632 0.08479091 -0.058285672 0.031126108 0.09050367
-0.053823553 0.050807774 -0.06779056 -0.08176023 -0.065836504 0.03230527 -0.01969726 -0.013660183
0.044479746 -0.039742503 0.14175917 0.0052199736 -0.04101691 0.10592312 -0.110912785 0.07625988
0.056455247 0.044180296 0.0053050206 0.021821354 0.03449956 -0.08237729 0.0042635174 0.037606783
0.0898011 0.04719395 0.037718136 0.0011902819 -0.029136054 -0.019121693 -0.010346061 -0.018634437
0.03995035 0.0035632143 0.0022282866 0.05952535 0.09446201 -0.07980029 -0.012984011 -0.02266516
-0.111056 -0.00010945938 -0.036362555 0.046445236 0.09246334 0.050287515 -0.0023800698 0.050366923
0.05291315 -0.0070109847 -0.011450415 -0.04096309 -0.044473913 0.005637624 0.016490556 0.013371514
0.050231982 -0.07947218 -0.010974107 0.05294239 0.10201475 0.00083087024 0.011998061 -0.0027937375
-0.038603827 0.08039786 0.039958388 0.1025619 0.09731628 0.016958624 -0.022661729 -0.08847255
-0.027013242 -0.10258637 0.027741501 0.0053025247 -0.04278504 0.08288682 0.047972854 -0.08278698
-0.014071325 -0.056521833 -0.022534886 0.010530993 -0.027438808 -0.018818358 -0.096209235 0.027176322
-0.07710885 0.13721915 -0.016142761 -0.02598648 -0.117655315 -0.014258562 0.0765531 -0.029933512
0.06826384 0.046466053 -0.04170261 -0.01313185 0.08594544 0.048167456 0.041441407 0.06751516
-0.0785495 0.056786574 0.11269494 0.054270145 -0.0004551884 0.0883995 -0.0058069956 0.021610044
-0.04705463 0.009333007 0.08479869 0.023938285 0.007548802 0.03216625 -0.050276533 -0.037450507
0.0009573037 0.020618966 0.055240817 0.07258587 0.017679196 0.0008895603 -0.10703579 0.028359555
0.1528601 0.0481626 -0.045547884 -0.0059641525 -0.05077454 0.032004517 0.031839166 0.05101628
0.072950915 -0.030084781 0.018433493 0.053933676 0.09683971 -0.06196016 0.019423826 0.06407037
-0.03731077 0.06843402 -0.046409532 -0.10354607 0.07114644 0.112970546 -0.07078729 -0.031032847
-0.019392643 0.05851507 0.0685122 -0.027416507 -0.013519762 -0.014076246 0.02847185 0.01671766
0.007332692 -0.0205315 -0.003896984 -0.04471282 0.022785366 0.028944645 -0.004680272 -0.052545723
0.032796044 -0.027215164 0.09599403 0.039755102 0.03406356 0.035493713 0.105756685 -0.017034259
0.015549684 -0.002163081 -0.010517653 0.016964635 -0.074089095 0.06795298 -0.028373942 0.06533604
-0.03526679 0.049497906 -0.05714922 -0.06673419 0.07855583 -0.034871366 0.107013896 -0.023292674
0.018099282 -0.03764454 -0.0036725432 -0.07689644 0.03810247 0.06856976 -0.045616668 -0.008065347
-0.027982716 0.027922422 0.00010374342 0.07135904 -0.04913398 0.07282348 -0.025254555 0.10616183
0.06340171 -0.007665601 0.024966115 -0.0271105 0.03823357 0.046391297 0.053119574 -0.124930985
0.044863526 -0.04651214 0.11306159 0.02663292 0.10601434 -0.075205944 -0.023494728 0.047789883
0.0066369576 0.006034328 -0.026272787 0.059362024 0.06767263 0.08984925 -0.017814793 0.022973247
0.043537073 0.034564856 0.036927953 0.089007705 0.017791266 -6.618827e-05 0.023587795 0.07618395
-0.0052409484 0.042367157 0.04619458 -0.060489997 0.05608868 0.119442016 0.06621106 0.03046675

mlp_extractor.policy_net.2.weight f4 [256, 256]
00000000: e5b4 23be 1dcb 083c 0197 92bd 3f67 f23c
00000010: 7017 2bbe fedc 723d ab4e f83b a7bb 24be
00000020: e637 d23d 27bc 2abe 402c 1c3e d780 60bd
00000030: 2027 043e f6d6 e93b c630 433c a354 7dbe
00000040: 3408 bbbc 853d 453d fa4f 433e e0b2 01be
00000050: a9cb 113c fd98 013d 0243 c3bd ca2a 163d
00000060: 2f93 f33c 2d72 c0bd 737e 043d 7497 d23c
00000070: 1a43 85bc 0231 f0bb 0f05 153e b443 1f3d
00000080: 0143 d9bd 3c6f b5bb 3624 1c3e a6ea a33c
00000090: 2be1 f5bc a82d 3abd 2ace 1fbe ce3b 45bd
000000a0: 950d 64bd 93b7 bb3d 20bc bc3d 505e dabd
000000b0: 687a 33be 428f 6a3e 894e cabd 94cd a83d
000000c0: 5a3a e3bc 7e33 1d3e c691 043a d477 ff3c
000000d0: 9e82 273e bd07 98bd 22b2 013c 4dc4 e53c
000000e0: 7169 4a3e aa4f 703d 8b4f e2bd 124a 42bd
000000f0: 3345 c0bd de27 07be e834 63bd e711 d43d
00000100: 6ca3 adbd 3f4c e43d 8899 24be 0f85 56bd
00000110: 8b0a 2fbb 42d5 6abd 6e0b 3dbe 55c8 ce3b
00000120: 9d80 e2bd a013 efbd 8a91 85bb 6d5f fc3c
00000130: 8263 d4bd 5f97 35bc 6267 363e 97e7 7dbd
00000140: 6cf7 13be efd6 073d ae8d 9a3c e664 793e
00000150: da10 99bd f722 68be 6b86 193d 581b 0cbe
00000160: 5ad9 523e e89f 493d 7437 2fbe f215 a3bb
00000170: 5e04 6fbd 0b6e 27bd 13f3 3b3d 3d2e 443d
00000180: 9cff 16be 18b2 563e 025b c6bd 58b6 de3c
00000190: 465a 893d 50c6 8eb9 d673 163e 761f 3a3e
000001a0: 637a 053e a531 4d3e d613 b4bd 1d93 403e
000001b0: 3bb5 fcbd 26ad fdbc 1d25 1dbe 1385 443e
000001c0: 37cc ba3a 2e15 67bd 6433 41be aacf 82bb
000001d0: 7218 773e 2826 e33d 8e5b 52be effe 413d
000001e0: 23e1 b23d d558 823c 799e 51be 2399 a73d
000001f0: 8c2b 29bd f7fd 5ebd 10eb ab3d 824a a4bb
00000200: 3c0c dabd 41cc 8f3d b50d 95bd 3bf9 a2bc
00000210: 987e 0b3e ef12 2c3e ddef 2fbd 42e5 b5bd
00000220: 54ff cb3d 599c b93c ac46 1bbe 8383 d5bd
00000230: 52fc 34be 4b3a 2e3d 3bc1 97ba 37da 793d
00000240: a001 073d 346e 03be f90c 1a3e a1d9 f53c
00000250: 33a5 5e3e cc5c f93d b011 503d ef72 64bd
00000260: b851 73bd f57e 0d3e 0ed1 6f3b 5b15 d83d
00000270: 5dea 04be 14b4 ecba 5d78 b1bd 4f02 02be
00000280: 6fb5 f33c ee42 46bc aa39 84bb 6cac 733b
00000290: 88b4 8f3d 8cf6 58bd a907 ac3d 1df4 99bb
000002a0: 42c2 bb3d 98c9 bd3d eaea e2bd 66c6 153c
000002b0: eb17 0bbe 81fc 26bd 5312 d83d 253c f2bd
000002c0: 698b 1fbd a2e6 7dbc 44d0 00be cefb 513d
000002d0: 6364 80bd f94b 73bc cdad 003e 12b0 703d
000002e0: 077b cabd d502 3e3d 05dd e0bc abe5 f73b
000002f0: b5ff 003e 891b a13d 7dbb c23d fa3d 20be
00000300: 192a 77bb 07e1 003e ab57 3fbc 7414 18be
00000310: 446a 8c3d 86c7 653d d1b6 b6bd e40f e1bc
00000320: 54d0 303d b255 b53d 9e2e 3a3c fafe 63bd
00000330: 8f7e 17be f391 36be 9327 d2bc 19c1 92bb
00000340: e6c8 90bd dde4 cdbd ffba 923d 2d21 bd3d
00000350: 3945 ea3d 10a3 073e dcc0 0bbd 83eb 2cbe
00000360: 92ef 01be 1c19 923d 4513 2c3e 4504 de3d
00000370: 9b9a 9cbd 8b39 22bd a242 c23c 5b88 133e
00000380: 36c1 e13a e31f 7dbd 5da2 f73c ebe0 41bd
00000390: fd6b a1bd 7f70 643c e18b a8bc 68d4 583d
000003a0: 297a 073e 9c06 8d3d cc42 44bd 6846 863c
000003b0: 56ea 7fbd 31f5 adbd 52bf bebd 4086 723e
000003c0: 361a e5bd 68fd 6e3d 735b 15bd 6518 363d
000003d0: d501 88bd 27ab 64bc 0fbd a13d 185c bcbc
000003e0: 9dc1 bcbc dc2c fbbd 858b a13c c68b 933d
000003f0: dea4 2c3e 5d6f f73d 02e2 4fbd 9e47 0e3d
-0.15986975 0.008349207 -0.07157708 0.029590247 -0.1670816 0.059292786 0.0075777373 -0.16087209
0.10264568 -0.16673337 0.15251255 -0.05481037 0.1290555 0.007136221 0.011913484 -0.24739318
-0.02283106 0.048154373 0.19073477 -0.12665892 0.008898654 0.03164004 -0.09534265 0.0366619
0.029733269 -0.09396777 0.032347154 0.025706984 -0.016267348 -0.007330061 0.14552711 0.038882926
-0.10608483 -0.005536942 0.15248188 0.02000935 -0.030014595 -0.045453697 -0.15605989 -0.048152737
-0.055677015 0.091658734 0.092155695 -0.1066252 -0.17527163 0.22906211 -0.09878261 0.08242336
-0.027737785 0.15351674 0.00050571223 0.031185068 0.1635842 -0.07423351 0.007916005 0.028047705
0.19766785 0.058669724 -0.11050328 -0.04743392 -0.09388199 -0.13198802 -0.055470377 0.10354977
-0.08478436 0.11147355 -0.16074193 -0.05237299 -0.0026709165 -0.057332285 -0.18461391 0.0063105025
-0.11059687 -0.11673665 -0.0040761875 0.030807221 -0.10370542 -0.011083453 0.17812875 -0.06198844
-0.14449853 0.03316396 0.018866386 0.24354896 -0.07473917 -0.22669588 0.037481707 -0.13682306
0.20590726 0.049224764 -0.17110997 -0.0049769813 -0.058353774 -0.04087643 0.04588611 0.04789566
-0.14745945 0.20966375 -0.09685327 0.027186558 0.067066714 -0.00027232105 0.14692625 0.18176064
0.13034968 0.20038469 -0.08792846 0.1880612 -0.123392545 -0.030966353 -0.15346189 0.19191389
0.0014251535 -0.056416683 -0.1886726 -0.0039920406 0.24130419 0.11091262 -0.20542738 0.047362264
0.08734348 0.015911499 -0.20470609 0.081835054 -0.041301295 -0.05444142 0.08394444 -0.005013765
-0.10646865 0.0702138 -0.07278005 -0.019894233 0.1362251 0.16804098 -0.04295336 -0.08881618
0.09960809 0.02265756 -0.15163678 -0.104254745 -0.17674378 0.04253606 -0.0011577973 0.06099912
0.032960534 -0.12835008 0.15044011 0.030011 0.21742706 0.12175903 0.050798118 -0.05577367
-0.059404105 0.13817962 0.0036593112 0.10550948 -0.12980027 -0.0018059039 -0.086655356 -0.12696193
0.0297496 -0.012100918 -0.0040351944 0.003718163 0.070168555 -0.0529695 0.083998986 -0.00469829
0.09167911 0.092669666 -0.110799626 0.00914154 -0.13583343 -0.04076815 0.1055037 -0.11827878
-0.03895131 -0.015496882 -0.12579447 0.05126553 -0.06269147 -0.014849656 0.125663 0.058761664
-0.09886747 0.04638942 -0.02744914 0.0075652204 0.12597544 0.0786658 0.09508417 -0.15648642
-0.00377143 0.12585841 -0.0116786165 -0.14851552 0.06856206 0.056098484 -0.08921588 -0.027473398
0.043167427 0.08854236 0.0113636535 -0.055663086 -0.14794372 -0.17829113 -0.025653636 -0.0044785854
-0.07069568 -0.10053418 0.07164573 0.092348434 0.114389844 0.13245797 -0.034119472 -0.16886716
-0.12689045 0.071336955 0.16804226 0.10840658 -0.07646676 -0.03960566 0.023713414 0.14407484
0.0017223719 -0.061797988 0.030228788 -0.04733364 -0.07881925 0.013942837 -0.020574512 0.05293694
0.13230194 0.06886026 -0.047915265 0.016390994 -0.06247934 -0.08494032 -0.09313835 0.23684025
-0.1118664 0.058347136 -0.036464166 0.04445686 -0.066409744 -0.0139568215 0.07897388 -0.022993132
-0.02304154 -0.122644156 0.019719848 0.07204394 0.16859767 0.12081788 -0.050752647 0.03473627

mlp_extractor.policy_net.2.bias f4 [256]
00000000: e49c f13c 46df e93c 6801 9b3b 1121 66bc
00000010: 3205 03bd a9e6 863d ccee debc 5422 ad3d
00000020: 82e0 68bd c01c 4c3d d447 873d 18f4 263d
00000030: 3d14 913d 0479 d53c c462 d239 59a7 d23c
00000040: 1898 043c b368 513c c07b fa3b 4d54 443b
00000050: d950 b33d 843f 4a3d 5102 553d cc31 0e3c
00000060: bbd1 d63b 7db7 39bb f586 b33c 0b14 4f3c
00000070: a044 433d aec0 3839 594a 8d3d 3d23 51bb
00000080: eacb 72bb f7be 3a3d 1a2a e3bc e844 1a3d
00000090: 81b2 183d bf38 6cbc 25b1 123d c685 41bc
000000a0: 5453 90bc f715 673d e2da e93c 74cd 7a3c
000000b0: f03b 0a3d 72e5 023d 0790 7d3c 6823 a43c
000000c0: 79d7 483d 52fb 4d3c 2f17 e23c 4b8b 6bbc
000000d0: d1d4 02bd 389b 0a3d c30d 21bd bb4b 793d
000000e0: f3d6 b8bb ddeb b73b c891 613d 2d0e 5d3d
000000f0: 4221 04bd 4adc c139 c070 6bbb eab9 50bc
00000100: 6eba 0f3c b3ef 18ba 2834 783c 830b 6f3d
00000110: cbf7 e3bc 1ccb 223c 75b7 383c 01e6 183c
00000120: bc0e 303d f584 2b3d f7bf b0bc d244 c5bc
00000130: 8dfd 523d 7660 113d f990 303d 8bc9 823d
00000140: 35c6 b03c 3b16 883c 5414 183b 71d9 e13b
00000150: 3825 3b3c e20a 743d 78d3 33bc 390c b13c
00000160: b722 fb3c 8595 923b 4dad cbbc 26ff 0a3d
00000170: c026 cebc a313 6dbb 125d f13c 12f9 173c
00000180: 1b95 993d 9a90 d03b 5576 0f3d cb35 273d
00000190: a70a 333c a4c6 f53c ac1f d53b 0c20 933a
000001a0: 85e3 143d 7180 32bc 57e7 2b3c 6406 44bc
000001b0: e2d9 d3bc b087 e1bc 2302 b9bc fecf a3bc
000001c0: 4d8b ca3b 87d4 403b 2b80 6c3d d780 8e3d
000001d0: 0372 6c3c 1234 2e3d b500 773d de7c fd3c
000001e0: 480d 993b a19b afbc d191 7a3b fd61 86ba
000001f0: e167 883b 1ed1 7d3c 49fc f73c ae26 7abd
00000200: afe2 0e3d 0352 adbb c265 893c 085a 313c
00000210: d9fb 0abd 748d bd3b 3971 e1bc ee3a a0bb
00000220: 0986 cd3c d0f4 60bc b269 f33c f422 353d
00000230: 878d 6bbb b538 733c 4524 e9bc e822 22bc
00000240: f848 24bb 443b 5b3c 928c 3d3c dad2 72bc
00000250: 86e9 77bc d30a 4f3d c3ed b8bc 4ef6 283b
00000260: d78a 5f3d a7d0 bb3c 63d1 3dbc 88a6 b63b
00000270: 5295 c73c 72b6 823c 3c84 ef3c 9b35 c2bb
00000280: 0cf9 0bbc a73f 2bbd 4584 383d ed16 f83b
00000290: fb21 2a3d cbf7 0a3d 64e6 6c3c 971d 373b
000002a0: d338 7a3c 3c19 d13d 07bf d53c 6b0c 0c3d
000002b0: 080d 3a3c 7bcc 09bd 7e9e 9f3c cfd1 0c3d
000002c0: 81c6 a13b 2ea8 a93c 12f0 293d ac1b aeba
000002d0: e319 2eb8 a93b a4bb 4b7b fd3b 7954 e43c
000002e0: 9531 4b3d 7915 753c 6ca4 a43c 030c 013d
000002f0: 6579 953b fe7d 223c 423d 2b3d 07e2 e63c
00000300: 8fde 29bd 9628 013b 57c3 40bc a13c d13b
00000310: b29f e93c 7d9a a93d db5a 123d da03 433d
00000320: cc3b 8bbc 0517 edbb bfc4 9cbc 3841 95bc
00000330: 6e04 383d 5123 50bb c02b 333c a471 433d
00000340: 07e1 863c 125e 8ebb 7d4b 723d 4c92 a9bb
00000350: 4b31 b83d f2f0 c83c 3e07 2bbc 48e1 1c3c
00000360: bf63 373a 4b44 39bd 3ad9 01bb ff64 18bc
00000370: f046 f13c bc16 3dbd ecdd b63d 5302 453c
00000380: 95a7 bb3c 0df7 7e3d 866c 293d 5871 bcbc
00000390: 9110 bf3c 0571 9abb 904e de3b 8cd6 15bc
000003a0: 1d4a 7c3c a606 0f3d 2ebc 9fbb 5e9a c7bb
000003b0: a004 1d3c 441d 673d 5875 f9b9 2008 0b3d
000003c0: 6c7f 453d 547f d5b8 d683 3fbd 8320 d0b9
000003d0: 76e9 c0bb 97bb 453d ce9b adbc ed90 b9bb
000003e0: 570f 2c3c ab3f 743b d37e 92bc 8625 6f3c
000003f0: 7ddb 393d db01 083d 8e6a 163d 572a 323c
0.029493757 0.028548848 0.0047303922 -0.01404597 -0.031987377 0.06586964 -0.027213477 0.08453813
-0.056854732 0.049832106 0.06605497 0.04076013 0.07083938 0.026058681 0.00040127907 0.025714563
0.008092903 0.01278131 0.0076441467 0.0029957474 0.08755655 0.04937698 0.052004162 0.008678865
0.0065557635 -0.0028338127 0.021914938 0.012639056 0.047672868 0.00017619386 0.06898946 -0.0031911873
-0.0037047812 0.045592275 -0.027730037 0.03766337 0.03727961 -0.014417826 0.03581347 -0.011811679
-0.017617859 0.05641743 0.028546754 0.015307773 0.033748567 0.031957097 0.015476233 0.020036414
0.049033616 0.012572126 0.027598945 -0.014376472 -0.03194124 0.033839434 -0.039319765 0.060863238
-0.0056408583 0.005612834 0.05507067 0.053968597 -0.03225828 0.00036975957 -0.0035925359 -0.012739638
0.008772476 -0.0005834058 0.015149154 0.058360588 -0.027828118 0.00993612 0.011274208 0.009332181
0.0429828 0.041874845 -0.021575911 -0.024080668 0.051511336 0.035492383 0.043107007 0.063860975
0.021578887 0.016612163 0.0023205476 0.006892376 0.011422448 0.05958069 -0.010975711 0.021612274
0.030656202 0.0044733905 -0.02486291 0.033934735 -0.025164962 -0.0036175034 0.029463325 0.009275692
0.07499143 0.006364894 0.03502496 0.040822785 0.010927833 0.030001946 0.0065040197 0.0011224761
0.036349792 -0.010894881 0.010492167 -0.011964414 -0.02586073 -0.027530521 -0.022584027 -0.01999664
0.0061811567 0.0029423551 0.057739418 0.06958168 0.014431479 0.042530127 0.06030341 0.03094333
0.0046707727 -0.021436514 0.0038233886 -0.0010252591 0.004162774 0.015491752 0.030271666 -0.061072044
0.03488415 -0.0052893176 0.016772155 0.010824688 -0.033931587 0.005784685 -0.02751981 -0.0048898375
0.025088327 -0.013730243 0.029713485 0.044222787 -0.0035942511 0.014845063 -0.028459677 -0.009896018
-0.0025067907 0.013380829 0.011569159 -0.014820779 -0.01513136 0.050547432 -0.022574311 0.0025781575
0.054575767 0.022926642 -0.011585566 0.0055740513 0.024363194 0.015956137 0.029237859 -0.0059268004
-0.008543264 -0.04180875 0.045048017 0.0075710923 0.041536313 0.03392772 0.014459226 0.002794122
0.015272337 0.10209891 0.026092065 0.03419153 0.011355646 -0.033642273 0.019484755 0.034379777
0.0049369936 0.020710077 0.041488715 -0.0013283393 -4.150894e-05 -0.005011995 0.007735645 0.027872311
0.049607832 0.014958733 0.020097934 0.031505596 0.0045615905 0.009917734 0.041806467 0.02818395
-0.041472014 0.001970803 -0.011765323 0.0063854014 0.028518531 0.082814194 0.035731178 0.047611095
-0.016996287 -0.00723541 -0.019136785 -0.018219575 0.0449261 -0.0031759331 0.010935724 0.047715798
0.016464723 -0.00434471 0.059154022 -0.0051749106 0.08993777 0.024528954 -0.010438738 0.009575196
0.00069957593 -0.045231145 -0.0019813315 -0.009301423 0.029452771 -0.04616426 0.08929047 0.01202448
0.022907058 0.062247325 0.04136326 -0.023003265 0.02332333 -0.00471318 0.0067842677 -0.00914539
0.015398529 0.03491845 -0.0048747277 -0.0060914 0.009583622 0.056424394 -0.0004758041 0.033943295
0.048217222 -0.00010180348 -0.046756588 -0.00039697075 -0.0058872057 0.048274603 -0.021192458 -0.0056630285
0.010501704 0.0037269394 -0.01788274 0.014596349 0.045375336 0.033204895 0.036722712 0.010874352

mlp_extractor.value_net.0.weight f4 [256, 26]
00000000: 93d4 e738 e046 763c 1bad 603e 0744 673e
00000010: 4615 1cbd 5df7 44be 004e 143d 7732 133e
00000020: c1ad 7a3e 2488 423e 06f3 e8bd 02ff ba3e
00000030: 38ef 81bd a1d1 0f3e 7393 fd3c 181d 0d3b
00000040: 0098 963c f3d2 2f3d 9338 04be ea43 4b3d
00000050: 7717 9bbd 39b2 b83c dc6a ef3d 2c99 95bd
00000060: eabd 24bd 958b 1fbd 08ef 8a3e b370 3dbe
00000070: f316 2c3d 834c 1dbf b261 6e3e 4705 4ebe
00000080: f40e 82be b772 76be 49cc 42bf 72d5 6c3e
00000090: 2a57 fc3e bb0e 01bf d2a6 423d ca06 9cbe
000000a0: b06b 3cbe 0931 13bc 6949 45bd f106 2e3c
000000b0: bf25 f93d 4c65 9abe a554 07be 8e11 9bbe
000000c0: 2818 b23e 80d1 d83e 0077 013f 8d6f 0f3e
000000d0: 677c f83c 7de8 d8bb b8ed b0bd 5ff6 323e
000000e0: 6fb6 a9bd 4750 413d ecb7 d83d 80f1 513e
000000f0: 57e6 b93d df5d 953d ac13 d4be a8f2 fd3e
00000100: aa31 0e3d 53fd ea3c fd27 59bd 9fc7 903b
00000110: 5f94 673b 70cb 913c 39f8 7abe a117 10be
00000120: 7911 b43b 03f3 723e 25f4 29bd d651 a0bd
00000130: 7739 12bd 138b 91bd 91a3 16be dab3 c1be
00000140: e1a4 843f d4a4 e13c e2ae 0e3e 2b66 d03e
00000150: 57e9 97be 0cba 20bd 35fd 6bbd dbce 36be
00000160: 63b1 ec3c 0bd8 123d 5ba8 f13d 00d9 59bd
00000170: cbe9 143f 49e4 393d 152e f5ba fdb2 9cbd
00000180: 9c42 353e 3536 8b37 bfc1 8ebd 8d5f 18bd
00000190: 4294 9a3d 9b67 e7bc 16ba 4bbe cd5e 8f3d
000001a0: c810 44be db33 ac3d 9cd3 d7be 7774 443e
000001b0: 17ea 42be 0e33 273e a30f 493e f753 3a3e
000001c0: ef3c c83d 2c5a e83d 454c 49be 2734 d23e
000001d0: 6944 703c f45f dbbd 487f 8c3c 1bc7 2abd
000001e0: 51a6 f93c ba12 8f3d 5af2 bebd 2827 d13d
000001f0: 1116 4f3e 810c b0bd 8596 81be c390 1bbe
00000200: 8cb9 413e 908c 8fbd e4cf 713d 041f 8bbb
00000210: 0684 163e 33e3 793e 53fc 9d3d 116b 84bd
00000220: bb40 1a3d 4851 8e3e aa99 6f3e ba7b d0bd
00000230: e840 99bd 1678 413e e97e e43c 7023 0b3d
00000240: 9dc6 92bd 969a 1e3d 4bf5 623b 1e1f 203a
00000250: 321f 7a3d b6a9 263c 6eb9 2bbe 1bb3 cb3b
00000260: 18e8 12be 1ec5 ea3d 7fc0 83bd af89 063e
00000270: bca2 a43e 9601 dcba 28dc 03bf 32ca db3d
00000280: 7148 38bd 0211 403e 13be 753d 291b dc3d
00000290: 3f18 773e 7db3 26be e0a9 b9be 52fb 353e
000002a0: 72bb 8d3d f59f c43d 8775 68bd b1e6 33bd
000002b0: dea0 cdba 703b 1c3d 85e9 b63d 2f4e 233e
000002c0: 9a2d 413d 3750 1b3e 3aa5 70be 64fd 42be
000002d0: fc30 31bb 499d 45be 4ce0 a73d 36f6 83be
000002e0: 53d8 0c3e a744 a63d bba9 643d a1c7 85be
000002f0: e2db f3bd c133 053e 4da4 8fbe 8cdf ae3e
00000300: a8a4 5ebb 0473 10be 4925 4fbe 1d0e 00bf
00000310: 5cf6 c5be cd6c 373c 57a0 19be e405 62bd
00000320: 3744 a6bd 7d1b a43d 1b8a 4dbe 488e fd3d
00000330: d12f 5cbe bbd8 093c 1316 41be 0093 973c
00000340: 51b4 c13d 5de2 1fbe 8a8f 383e ea34 3f3e
00000350: 6db4 253e cd7e 5dbe bdf3 42be 5b19 ac3a
00000360: 0873 45bd 3b22 94bd 9b9a 923d cfa5 453e
00000370: 3768 52bd 7456 b1be 3c6f 50be 862d 183e
00000380: 29fa c9bc 7d8b ba3d b0d4 283e 6a73 4fbd
00000390: 7d99 a4bd f18d 01bd dfe7 383d c823 183c
000003a0: f60b e83b 8b99 f1bb 1d0e 16be 7709 4e3f
000003b0: 85bd 5fbe 4c80 dcbe c792 273e d88c 4cbe
000003c0: e40c 87bd e96c c3be c431 853f 2ae8 35bf
000003d0: bc72 debd b1d7 c8be 7c7c 47be 71bf 003f
000003e0: 272a e3be fd82 453c b190 3e3e 9ead 0b3e
000003f0: 49f5 bf3c 4449 bb3d 909f d53e 20df 08be
0.000110545334 0.015031546 0.21941034 0.22584544 -0.038106225 -0.19234987 0.0362072 0.1437472
0.24480344 0.18997246 -0.11374478 0.3652268 -0.063444555 0.14044811 0.030954098 0.0021532234
0.018383026 0.042925786 -0.12912206 0.049625315 -0.07572835 0.02254592 0.11690304 -0.07304606
-0.04022018 -0.038951475 0.2713549 -0.18500023 0.042014074 -0.6144487 0.23279455 -0.201192
-0.25402033 -0.24067198 -0.76092964 0.23128298 0.4928525 -0.504131 0.047522373 -0.3047393
-0.18400455 -0.008983859 -0.048165713 0.010621772 0.121654026 -0.30155408 -0.13215883 -0.3028683
0.34784055 0.42347336 0.50572205 0.14007397 0.030332757 -0.0066195116 -0.08639091 0.17476796
-0.082867496 0.0471957 0.10581955 0.20502281 0.09077137 0.07293295 -0.41421258 0.49599195
0.034715332 0.028685248 -0.05301665 0.004418328 0.0035336239 0.017797202 -0.24508752 -0.14071514
0.005495247 0.23725514 -0.0414926 -0.07828109 -0.035699334 -0.071066044 -0.14710833 -0.37832528
1.0362817 0.027544416 0.139339 0.40702948 -0.29670212 -0.039239928 -0.057614524 -0.17852347
0.028893178 0.035850566 0.117996894 -0.053185463 0.5816924 0.045383725 -0.001870575 -0.07651327
0.1770119 1.6595333e-05 -0.06970548 -0.0372005 0.07547809 -0.028247645 -0.19895205 0.07000504
-0.19147027 0.08408328 -0.42153633 0.19185053 -0.1903461 0.1632807 0.19634871 0.18196093
0.09777247 0.11345324 -0.19658001 0.41055414 0.014664748 -0.10711661 0.017150536 -0.041693788
0.030474814 0.06985994 -0.09323569 0.102125466 0.20223261 -0.08596135 -0.2531015 -0.15191941
0.18918437 -0.07009232 0.05903615 -0.0042456407 0.146988 0.24403076 0.07714143 -0.06465734
0.037659388 0.27796388 0.23398462 -0.10179849 -0.07483083 0.18893465 0.027892547 0.033969343
-0.07166789 0.038721643 0.003463107 0.00061081524 0.061064906 0.010172298 -0.16769955 0.0062164194
-0.14346349 0.11463378 -0.064332 0.1313846 0.32155406 -0.0016785141 -0.51507807 0.10731925
-0.04499096 0.18756488 0.059995722 0.10747368 0.24130343 -0.16279407 -0.36262417 0.17771652
0.06920518 0.09600822 -0.056752708 -0.043921176 -0.0015688201 0.03814262 0.08931259 0.15947793
0.04716263 0.15167318 -0.23500529 -0.19041973 -0.0027037254 -0.19298281 0.08197078 -0.25773782
0.13754396 0.08118563 0.05582593 -0.26128867 -0.11907174 0.13008024 -0.2805504 0.34154928
-0.0033972654 -0.14106375 -0.20229067 -0.50021535 -0.3866452 0.011195374 -0.15002571 -0.0551814
-0.0811848 0.080130555 -0.20072214 0.123806536 -0.21502616 0.008413489 -0.18856077 0.018502712
0.09458221 -0.15613694 0.18023506 0.18672529 0.16182108 -0.21630402 -0.19038291 0.0013130115
-0.048205405 -0.072330914 0.07158395 0.19301532 -0.05136892 -0.3463627 -0.20354933 0.14861116
-0.024655418 0.091086365 0.16487384 -0.050647177 -0.08037088 -0.031629506 0.045143005 0.009285875
0.007081504 -0.00737304 -0.14653821 0.8048319 -0.2184964 -0.43066633 0.16364585 -0.19975603
-0.065942556 -0.3816903 1.0405812 -0.7105738 -0.108617276 -0.3922706 -0.19481081 0.50292116
-0.44368097 0.012055156 0.18609883 0.13640448 0.02343239 0.09144834 0.417233 -0.13366365

mlp_extractor.value_net.0.bias f4 [256]
00000000: 7113 613f 86f1 913e 1afa 163f 58b1 be3e
00000010: 4ac2 0b3f 905e 2c3f 79ad 0c3f a0e4 63bd
00000020: 1c81 0d3f ee11 59be 8cdd e7be 9ef4 a43e
00000030: 138d 5c3e 30dd 3b3f 8f32 293f f375 1e3f
00000040: d76b 2c3f f430 393f 9608 183f aac2 f93e
00000050: 4fe5 1e3d 2658 553e ea44 d4be f46d 403f
00000060: ec00 093e ddc4 153d 80d7 2fbf 24d0 ffbc
00000070: 4403 08bf 66d7 16bf 2a56 1d3f 5f55 f8be
00000080: ea00 8bbe 0c74 e5be dfa7 4ebe 62bb 883e
00000090: 9942 f6be 041f 173f 9960 81be 38dc 9c3c
000000a0: 8389 1f3f 29ad 373f 488a fd3e 5a07 293f
000000b0: 954b 333e ed93 e13e 8163 443f 3fe0 f2bc
000000c0: 1735 203f 1c56 00be 3e8f dfbe 7b5f 0e3f
000000d0: 9775 f7be d906 263f 0dab 4f3e 9bfe bf3e
000000e0: 328f a63e a242 063f d4b6 fbbe 68e1 ddbe
000000f0: 1158 98be b7bb af3d da57 a3be 63af ca3e
00000100: 8fed ecbd ae3c ebbd d891 df3e dc22 173e
00000110: ec7d 3fbd 419a 63be 428a 913e c35a 133f
00000120: 8fe8 9ebd e535 5dbe 6ca7 493f 6586 3a3f
00000130: 463f 25bd efbe 483f 7d70 453e eac8 87be
00000140: 5750 8e3c a478 c5be 7dcf 013f e6ab a93d
00000150: 8639 443f 9b1e ecbe 752c 0a3f a061 1f3f
00000160: bf7f 5abe 09aa 793d aff5 2d3f a683 143d
00000170: 52a9 2abe 4157 cebe dd63 15bf 4761 e73e
00000180: f69d 093f 1a09 823d 604a 0e3f 644b 2c3f
00000190: 8924 3e3f 03d7 c0be b39c 4d3d cbb9 76be
000001a0: 8ac9 123f 7c6a 053f a6af f43e fe33 e23e
000001b0: ecb1 98be 5087 c93e 3f29 153f 398d 013f
000001c0: cba0 aebe 5972 2e3f a2cb b9be 2adb 2ebe
000001d0: 43d8 743e 83d0 133d a214 173f 20d8 9fbe
000001e0: 1b2f 95be 77c3 a3bd f237 b73e 5347 623c
000001f0: 6206 df3e b9a6 91be 0a4e 3fbf b517 90be
00000200: 8099 09be b5b6 c6be c70a 1abf f422 ecbe
00000210: 2a51 4dbd 0827 a53f 1931 073f e7a4 c93d
00000220: 4727 bd3e 547c 283c ee84 92be 6c78 043f
00000230: 6ce6 233f c753 873e 92a8 b3be c4cb 89be
00000240: 151c e13e 3e1a 333f 26bd 5c3f 2e82 023e
00000250: d080 1bbf 6ef7 693c a0da 55be c55e 363f
00000260: d6e8 093f 583d 433f 2dea 3b3f cf5c 5f3e
00000270: 4e89 a33e 0806 3a3d e316 dbbd e901 313f
00000280: 95e1 08be e96c 84be 0405 3c3f a7b7 93be
00000290: 0e5d 71be 7a6e 213f 3d87 193e 6ca2 c43e
000002a0: 204f 5bbe a7d0 17be 084f 363e 5a3d 3e3f
000002b0: af8b 4d3f 66c6 0abe c33c 8f3e 3d75 f9be
000002c0: fec8 293f 1d1e d3bd 4a09 263f 94f9 323f
000002d0: 91b1 023f eb1c 9dbe 3cca 4cbe 6d37 a23b
000002e0: 3cd6 d13d fd43 c83e 3aa3 ad3e 180e 203f
000002f0: 715f 51be c259 4b3f 58df cf3e 3ff4 63be
00000300: 26e9 92be c963 cfbe 896a 1b3f a919 bcbc
00000310: bd69 223f ecd4 14be 3cd4 013f 502f 26bf
00000320: 5532 7dbe 0b46 9f3e d1ef 19bf 6ee2 5ebe
00000330: b3d8 1a3f 5d3d d83e b4c9 3c3f 8fac 02be
00000340: 0b81 03be e6f1 bfbc 4d5c d33e 0501 573f
00000350: 703c e93e 979d 07bf c720 a2be 5485 8b3e
00000360: 2dee 4d3e 6291 043f d813 873e 3b52 c0be
00000370: 403b f63e 822c f5bd f32b d4be 0044 1d3d
00000380: 711a d73d 1b0f 283f 045b 2f3e 5d4c 88be
00000390: 005d 31bf e4b3 2e3f 9654 46be a29b f53e
000003a0: fdca 333d 0c8d 503e 560c 633f a721 0cbf
000003b0: 0a20 24bf 418a d1be 79e4 5ebe 1f08 80be
000003c0: 30c6 103f d50f 983d effe ba3e 059d bdbd
000003d0: 0a1e 86be 3b62 2e3f 4e50 13be 811c 16be
000003e0: d259 323f 0f49 e73d 2e65 353f 6d0f 40be
000003f0: 5d60 b9bc 33ff acbe 36b2 443f 6255 223e
0.8792029 0.2850458 0.58975375 0.37244678 0.54593337 0.6733179 0.549522 -0.055637956
0.5527513 -0.21198246 -0.45286214 0.32217878 0.2153819 0.7338438 0.6609277 0.61898726
0.6735205 0.7234032 0.593881 0.4878133 0.038792904 0.20834407 -0.41458827 0.75167775
0.13379258 0.036564697 -0.686882 -0.031227179 -0.5312998 -0.5892242 0.614596 -0.48502633
-0.27149135 -0.448151 -0.20181225 0.26705462 -0.48097685 0.590317 -0.2526901 0.019147977
0.623192 0.71748596 0.49519563 0.6602684 0.17509301 0.4405817 0.7671433 -0.029647944
0.6258101 -0.12532848 -0.43663973 0.5561444 -0.483319 0.648542 0.20280094 0.37498936
0.32531124 0.52445424 -0.49162924 -0.43336034 -0.2975469 0.08580726 -0.31902963 0.39586934
-0.11568748 -0.11486183 0.43665957 0.14759392 -0.046750948 -0.22226812 0.28425795 0.57560366
-0.07759201 -0.2160259 0.7877109 0.7286132 -0.040343545 0.7841634 0.19281192 -0.26520473
0.017372293 -0.38568604 0.50707227 0.0828474 0.76650274 -0.461171 0.53974086 0.6225834
-0.21337794 0.060953174 0.6795301 0.036258362 -0.16666153 -0.40300944 -0.58355504 0.45191404
0.53756654 0.06349392 0.5558224 0.67302537 0.742745 -0.3766404 0.05019827 -0.24094312
0.57338774 0.5211561 0.4779026 0.44180292 -0.29823244 0.39361048 0.5826606 0.50606114
-0.3410705 0.6814323 -0.36288172 -0.17075792 0.23910622 0.036087524 0.5901586 -0.31219578
-0.291375 -0.07996266 0.3578487 0.01381095 0.43559557 -0.28447512 -0.74728453 -0.28143087
-0.13437462 -0.3881127 -0.60172695 -0.46120417 -0.050126232 1.2902536 0.5280929 0.09845906
0.3694403 0.010283548 -0.28617042 0.5174625 0.6402347 0.26431105 -0.35089546 -0.26913273
0.43966737 0.6996192 0.8622612 0.12744972 -0.6074343 0.014280183 -0.2088418 0.71238357
0.53870904 0.7626548 0.734042 0.21812747 0.31940693 0.045415908 -0.10697725 0.6914354
-0.13367303 -0.25864342 0.73445153 -0.28851053 -0.23570654 0.630592 0.14992996 0.38405168
-0.21416903 -0.14825688 0.17803586 0.74312365 0.80291265 -0.13552245 0.27976045 -0.48722258
0.66322315 -0.10308478 0.64857924 0.69912076 0.51052195 -0.30686125 -0.19999021 0.004950455
0.1024594 0.3911437 0.33913594 0.62521505 -0.20446564 0.79433835 0.40600085 -0.22261141
-0.28693503 -0.40505818 0.60709435 -0.022961454 0.63442594 -0.14534348 0.5071447 -0.64915943
-0.24726231 0.31108126 -0.60131556 -0.21766064 0.60486907 0.42234316 0.73745275 -0.12761138
-0.12842195 -0.023430776 0.41281357 0.8398593 0.45553923 -0.5297484 -0.31665632 0.2725016
0.20110388 0.51784337 0.26382327 -0.37562737 0.4809208 -0.1197138 -0.4143978 0.038394928
0.1050309 0.6564805 0.17124563 -0.2662076 -0.6928253 0.6824324 -0.19368204 0.479703
0.043894757 0.20366305 0.886907 -0.5473885 -0.6411139 -0.40925792 -0.21766843 -0.25006196
0.5655241 0.07424895 0.36522624 -0.09258465 -0.26194793 0.6811864 -0.14386103 -0.14659311
0.69668305 0.11293232 0.7085751 -0.18755884 -0.022628957 -0.33788452 0.7683443 0.15852883

mlp_extractor.value_net.2.weight f4 [256, 256]
00000000: 4b9d 29be 4b42 4e3e 3977 12be 57bd b7bd
00000010: fc57 b9bd fe3d f4bd e331 e93d 556f e93e
00000020: b1b3 e63d 761e 603b 3005 d63e 6c69 55bd
00000030: 6a57 18bd 0f1f 00be 0232 36be 8b8f 443e
00000040: f469 4dbe 6794 d53c 55ec 2a3e 448a fa3d
00000050: ed8a c73e 1d33 b23e bf42 093e 48e8 943e
00000060: 1e45 38bc 3b3d fc3e 30aa 03bf 9944 b5bd
00000070: 00a9 afbd ee72 a93e a32f 3cbe 270c 29be
00000080: ff62 88be f078 18bf 0a7e 013f 094a cc3c
00000090: 2061 f3bd 9c3a 7abd 1671 c4bd 7862 fa3e
000000a0: 2b6f 443d d8c4 803d a4a0 d13d 8745 40be
000000b0: 926c 74bd 6693 f4bd c51b 98bd 84cd 503d
000000c0: 6286 9a3d 64a8 233f d4d9 0b3e bf86 dbbd
000000d0: 5e83 a63d 36dc 51be 58b8 8fbc 235e d03e
000000e0: ccb9 74bd bc4a 463e 275b 1cbd a575 cc3d
000000f0: 8dd2 2c3e 9563 953d facd 81be f59f 023d
00000100: d1b5 e93e 82c4 a1be 8e0b ebbc d9d2 3d3d
00000110: 9af5 803f bcb3 31bc b3e1 2b3f d1fc ed3e
00000120: 5b25 31be f4c7 c13d 278a da3d 829c c3be
00000130: 9f52 113f c5f7 9abc 07ea b5bd be71 20be
00000140: f1a8 083e da43 c5be 1fc4 b7bd 5f61 7a3e
00000150: c644 443d 96a1 233c 257b 98bc 3ba7 f53c
00000160: 7e90 ba3e 8092 463b 1192 a7bd db5e adbc
00000170: 88f0 683f 8365 a03b cf7b 0abf fd7c f3bc
00000180: 314f 32be df52 643e 4054 013e e140 4d3a
00000190: fd7b eeba 8a0d 8abe 0115 c4bd c10f 0cbd
000001a0: f09f d6bd 2315 c23d 1b95 3fbe b63c 66be
000001b0: c36a fa3c b69d aa3d 1551 ec3d d3c8 9c3e
000001c0: c69b f2be 562b 283c 7593 c1be 08af e1bc
000001d0: 4f0c 883e 5d02 883d 9772 1fbe 4acf 623f
000001e0: f48a 573e fe6b 99bd 6cbc ef3e fba0 05be
000001f0: 2425 5f3e ca8f 69be a049 c9be 79ab 403f
00000200: 18ce 5d3e bca2 023f a642 3bbf 74b0 43be
00000210: b87d 273f dc72 623d d2be 8ebe c544 183f
00000220: 6ff9 5b3e 6a93 3fbe 33a1 81be d655 f6bd
00000230: 0d44 783e dc3f 77bd ac35 063e 551a d4be
00000240: dac8 0b3e 2cd2 693e 4aa6 0fbc 3a30 303f
00000250: f21e c43d 3090 443d 7265 b83e f780 c53d
00000260: 9fc8 babd 858a 8bbd dca0 d5bc 61b6 a43e
00000270: 36a4 94be 3ca6 513e 2343 c53e f8a3 a2bd
00000280: c706 103f c47d 953e 420c 91be b3f7 4e3e
00000290: 5107 3e3e 9a95 e93d 02e1 00bf ddf9 ff3d
000002a0: b0e1 663f c5ff 6f3f b19c 1a3e afcf 49be
000002b0: 54a2 b7bd 2712 26be be92 383f 0a74 85be
000002c0: c6f5 bebd 9311 063f cde9 34be 8fd3 24bd
000002d0: 5995 a73e b035 8dbd a077 9a3e e25f 353e
000002e0: 8556 c63d 9a6e d53e 6159 863d 9e2d c03d
000002f0: 13e4 a7bd 4845 bc3c ca45 913e 1827 1a3e
00000300: 5a47 043e fec8 a13d a914 4e3b c85b 9d3d
00000310: 1702 e23b 9ffe 243f 84ff 6ebd 11aa 56bf
00000320: 7023 ffbd a83e 0d3e 0390 a7be 7ca4 d03e
00000330: f939 e9bd e6c5 b6bc 6146 9bbe 7918 3c3f
00000340: cbe3 8c3e b95b 78bd 17b5 2f3f f555 1abd
00000350: d45e 85bc ad5d 013e b744 993d 61fa d8bd
00000360: 4625 d8bb 4a93 79be c656 14be 36cd 03be
00000370: 334e 293d 78ec 5dbc 9303 d2bd 62dd 923e
00000380: 11ca 86bc 06ba 9fbe 3c12 b93b 87a2 a83c
00000390: 518e 01bf f38a 9b3d 5952 803f a3eb b1bd
000003a0: e783 903f 2711 a53e 5a98 b3bc 240e 983e
000003b0: 7d77 05bf 2fd6 7ebd 94c8 80bf a45e 1d3f
000003c0: 9ed8 0bbc ab9f fc3c b5fc 16bd a9b8 db3d
000003d0: 7fbd bb3e 3c7c 39bb ad50 a3bb a5d2 a53d
000003e0: 91ee 8fbe e016 543d cbd5 b33c d744 1b3f
000003f0: 3a07 163e 4572 1abd d7bb d1bc 58f8 9e3e
-0.16563909 0.20142476 -0.14303292 -0.089716606 -0.09049985 -0.119258866 0.11386468 0.45592752
0.11264742 0.0034197844 0.41800833 -0.05210249 -0.03719274 -0.12511848 -0.17792514 0.19195382
-0.20059949 0.02607174 0.16691716 0.12233403 0.3897318 0.3480462 0.13404368 0.29083467
-0.011246948 0.49265465 -0.5143156 -0.088509746 -0.08577156 0.33095497 -0.18377547 -0.16508542
-0.26638028 -0.59559536 0.50582945 0.024937646 -0.118837595 -0.06109105 -0.09591882 0.4890325
0.04795758 0.06287545 0.10235718 -0.18776523 -0.059673853 -0.119421765 -0.074271716 0.050977245
0.07545163 0.6392882 0.13657314 -0.1071906 0.08130525 -0.2049416 -0.017543957 0.4069682
-0.059747502 0.19364446 -0.038172867 0.099833764 0.16877194 0.072943844 -0.2535246 0.03189083
0.45646527 -0.31595236 -0.028692033 0.046343658 1.0074952 -0.010846075 0.67141265 0.46481946
-0.17299406 0.09461966 0.10670882 -0.38205343 0.56766695 -0.018916974 -0.08882528 -0.15668389
0.13345696 -0.3852833 -0.08972954 0.24451207 0.04791715 0.009987256 -0.018613407 0.029986968
0.36438364 0.0030299723 -0.08182157 -0.021163395 0.9099202 0.0048949136 -0.54095167 -0.029722685
-0.17413022 0.22297238 0.12629795 0.0007829797 -0.001819491 -0.26963454 -0.09574319 -0.03419471
-0.104797244 0.09476688 -0.18709223 -0.22484097 0.030568486 0.08330862 0.11538903 0.30621967
-0.4738447 0.010264238 -0.37807813 -0.027549282 0.2657189 0.06641076 -0.15571056 0.8859755
0.210491 -0.07491301 0.46823442 -0.1304969 0.21791512 -0.22808757 -0.39313984 0.75261647
0.2166065 0.5102956 -0.7314857 -0.1911028 0.65426207 0.05528532 -0.2787996 0.59479934
0.2148187 -0.18708578 -0.25318298 -0.12028091 0.2424471 -0.060363635 0.13106412 -0.4142634
0.13650838 0.2283408 -0.008767674 0.6882359 0.09576215 0.04798907 0.36014897 0.09643739
-0.09120297 -0.0681353 -0.02607768 0.32170394 -0.29031533 0.2047357 0.38527784 -0.07941431
0.5626034 0.29197514 -0.28329664 0.20211677 0.18557478 0.11405487 -0.50343335 0.124988295
0.9018812 0.9374965 0.15098836 -0.19708131 -0.089665085 -0.16217862 0.7209891 -0.26065093
-0.09324221 0.52370566 -0.17667313 -0.04024082 0.3273113 -0.06895006 0.30169392 0.17712358
0.09684471 0.41685945 0.065600164 0.09383701 -0.081977986 0.022982255 0.28373557 0.15053976
0.12917843 0.07899664 0.003144542 0.076835215 0.006897222 0.6445102 -0.058349147 -0.8385325
-0.12457931 0.13793433 -0.3272706 0.40750492 -0.113880105 -0.022311162 -0.30327132 0.7347484
0.27517542 -0.06063435 0.68635696 -0.03767963 -0.01628057 0.1263339 0.074838094 -0.10594631
-0.00659624 -0.24372593 -0.14486226 -0.1287125 0.041334342 -0.013545148 -0.10254588 0.28684527
-0.016453775 -0.31196612 0.0056479257 0.020585312 -0.5060778 0.07594862 1.002513 -0.08687522
1.1290253 0.3223965 -0.021923233 0.29698288 -0.5213545 -0.06221598 -1.0061212 0.61472535
-0.008535532 0.030837854 -0.036862094 0.107285805 0.36668012 -0.002830281 -0.0049839825 0.08096818
-0.281117 0.051779628 0.02195253 0.60651916 0.14651194 -0.037706632 -0.025602264 0.31048846

mlp_extractor.value_net.2.bias f4 [256]
00000000: 09be 80be 9402 723e aa1f 893d 50d7 4f3e
00000010: f2ee 9a3e 3044 6e3e 3b3e 523e 3cef 973e
00000020: 8d8f 32be b47a 9a3e a74a a63e a0f1 663e
00000030: 6e7a f8bd f85b fd3e 74cc d03d c151 8d3e
00000040: 73b6 953e 3dbf 7c3e 3970 973e bb26 983e
00000050: 7b8a 3b3e 45a1 1f3e eeeb 943e 77cf 683e
00000060: bf1d ddbd 1801 a53e 2de3 c93e a0d5 a73e
00000070: 4dc6 04be 06aa 9d3e 2032 983e e46f 6d3e
00000080: 61e1 adbe a32d 03be b00b 403e 2a20 7b3e
00000090: 193c 8e3e 9545 a03e 5665 f43e de40 0ebe
000000a0: 28c3 28bd cb9f c13e f92b a83e b2e1 5cbe
000000b0: 0c90 973e 7805 2a3e fd5a bebd 98af 9c3e
000000c0: d1c0 933e 8dec e4be 6702 843e dde3 7cbe
000000d0: a04a 09be e023 9a3e 75e0 81be e949 c3bd
000000e0: 023a 963e bd59 6e3e 61c5 2c3d c605 ee3a
000000f0: 5d79 9d3e 7c3d 993e e151 0ebe c7c4 853e
00000100: 37c2 9a3e 9c00 e73d 7b75 a13e 4711 573e
00000110: bd23 b0bd 09c8 983e 2e0c 963e 48c6 26be
00000120: 4b76 7b3e f33d d3bd f28d e53d d48c 4dbe
00000130: 4ff9 0d3e 6247 50be 2fbe d33e c2bf a73e
00000140: 10f7 b23e b9eb 903e d479 9a3e 6843 9cbd
00000150: ebb9 97be 4d0b cfbe 8f55 0bbe ef40 bb3d
00000160: a73f b13e 4236 0e3e be3e 7e3e 68b8 913b
00000170: 01d5 393d a6e0 ac3e 0114 8c3e c55b e8bd
00000180: 8c8b 3bbd 40c9 3b3e 2526 9b3e 2fc1 933e
00000190: 5fb9 9c3e 5e7b 963e fcea 6ebe 85f1 993e
000001a0: d8ec a03e dcbf a63e 1935 f5bd 7f7c ea3d
000001b0: 9783 dc3d d2b3 073d db49 983e 1306 91be
000001c0: ecaf 923e b1e5 ae3e ac09 9a3e 42ef 963e
000001d0: ace4 9a3e 4d52 5ebe 609b 863e 08a2 c93e
000001e0: ef48 a83e d01c 963e 9274 a2be d053 123e
000001f0: bb90 923e 095c 903e 51cb 983e 4d91 993e
00000200: 2230 b43e 1ccc 883e 3b46 933e e449 923e
00000210: 0080 983e 3e6d 983e 3b23 993e c221 983e
00000220: 9c1d 883d 4925 b2be c796 8f3e ebd3 5bbe
00000230: 3680 6f3d 6505 8c3e c259 6d3e 8b00 76be
00000240: 8676 51be ece6 c23e 8a52 8ebd 6126 993e
00000250: f161 92be 83f0 903e 763c 033f 8357 9e3e
00000260: dd08 963e ceaf 8d3d d4f6 ab3e 38d5 50be
00000270: e2ca 963e 4bd6 9f3e 1f7c 47be a530 b0bd
00000280: 1a89 943e 6973 1dbe 9c55 a53e 6d7d 923e
00000290: 4332 983e 5d35 9b3e 9bd5 36bd cb48 a33e
000002a0: 6376 ac3e 8c43 9d3e 741c 9c3e 7ef1 613e
000002b0: 54fb 7dbe bb30 9e3e 11ba 053e 389f a63e
000002c0: 4c32 9bbe e2fa 19be c49c 9c3e f58b 983e
000002d0: f92c 9f3c fbed 913e 6c25 103e d4c7 9e3e
000002e0: debf 983e 063f 933e 20c9 9bbe 07d9 d03e
000002f0: 29b0 2f3e a509 db3d 9b6f 8d3e 2593 0a3e
00000300: de02 bcbe c5ba a0bd 2bec 36be 1d28 c4bd
00000310: 634c 193d c792 ad3b f8f5 9a3e 0d1d 13be
00000320: 261c 9b3e ead8 933e 62e7 9b3e 0014 25be
00000330: 6c25 16be a7d9 923e 6bfa 24bd 3339 813e
00000340: b7da ba3d e650 9c3d 9d56 c63e 1a9c 14be
00000350: 700b 9c3e ab6c c4bd 2f29 493e 4578 35be
00000360: caf3 9f3e 6b47 10be ddd4 603d 99f2 613e
00000370: 29ca b2be a862 943e c674 95be 6986 77be
00000380: 63ad e93e 8109 6dbe c3d6 193e a997 17be
00000390: 9177 983e e816 a9bc e517 9c3e 19d4 7c3e
000003a0: 0c9c 7a3e 4db6 ffbd b314 583e c05e 913e
000003b0: 58b7 433e c60d 72be f073 ad3d e4aa 9e3e
000003c0: 4c27 973e 9679 913e 9f63 943e d44e 073e
000003d0: a7b9 d13d 58ea 8fbd afca a6be 34a9 b93c
000003e0: c92e 883e 9046 963e afa1 dd3d e6ab a73e
000003f0: c39e 923e dc1d 983e a1cc 653e 2f3c 463e
-0.25144985 0.23633796 0.066954926 0.20296979 0.30260426 0.23268199 0.20531552 0.2967471
-0.17437573 0.3017174 0.3247883 0.2255311 -0.121327266 0.4948423 0.10195246 0.27601436
0.2924076 0.24682327 0.29577807 0.2971705 0.18314545 0.15588863 0.2908625 0.22735392
-0.10796689 0.32227397 0.39431134 0.3278017 -0.1296627 0.3079378 0.29725742 0.23187214
-0.33961013 -0.12810378 0.18754458 0.24523988 0.27780226 0.31303087 0.47733563 -0.13891932
-0.04120174 0.37817225 0.32846048 -0.21570471 0.29602087 0.16603649 -0.092946984 0.30602717
0.28858045 -0.44711724 0.25783083 -0.24696298 -0.13407373 0.30105495 -0.2536656 -0.095355816
0.2934113 0.2327642 0.042180423 0.001815968 0.30756655 0.2992972 -0.13898422 0.26126692
0.302263 0.11279413 0.31534943 0.21002685 -0.086005665 0.29840115 0.29306167 -0.16286576
0.24556844 -0.1031455 0.112087145 -0.20073253 0.13864635 -0.2033973 0.41356036 0.32763487
0.3495412 0.28304842 0.30171072 -0.07630044 -0.29634032 -0.4043831 -0.13606857 0.091432445
0.34618875 0.13887885 0.24828622 0.0044470318 0.045369152 0.33765143 0.27359012 -0.11345629
-0.04578738 0.1833849 0.3030254 0.28858325 0.30610177 0.29390997 -0.23331827 0.30067077
0.31430697 0.32568252 -0.11973018 0.11449527 0.10767286 0.033130474 0.29743847 -0.28324947
0.28649843 0.34159616 0.30085504 0.29479414 0.30252588 -0.21711083 0.26290417 0.39381433
0.32868144 0.29318857 -0.3172956 0.14289784 0.28626046 0.28195217 0.29842618 0.29993668
0.35192972 0.26718223 0.2876452 0.28572 0.29785156 0.29770845 0.2990969 0.29713255
0.066462725 -0.3479407 0.2804472 -0.21467559 0.05847188 0.27347866 0.23178771 -0.24023645
-0.2045537 0.38066804 -0.06949337 0.29912093 -0.28590348 0.28308496 0.5126413 0.3092614
0.29303637 0.06918298 0.33586752 -0.20393836 0.29451662 0.3121818 -0.19480942 -0.08603028
0.2901085 -0.15376057 0.32291877 0.28611317 0.29725847 0.3031415 -0.044637304 0.31891474
0.33684072 0.30715597 0.30490458 0.22064778 -0.24802905 0.30896553 0.1305926 0.3254335
-0.3031181 -0.1503711 0.30588353 0.2979428 0.019430624 0.28501877 0.14076775 0.31011832
0.29833883 0.2875902 -0.30426884 0.4079058 0.17157044 0.10695199 0.2762421 0.13532694
-0.36720937 -0.078481235 -0.17863528 -0.095779635 0.037426364 0.0052970382 0.30265784 -0.1436655
0.30294913 0.2887643 0.3044997 -0.1612091 -0.14662713 0.2868168 -0.04027788 0.25238952
0.09123748 0.07632618 0.38737956 -0.14512673 0.30477476 -0.09591039 0.19644617 -0.1772166
0.31240684 -0.14089744 0.054890502 0.220652 -0.3491986 0.2898152 -0.29190654 -0.24172367
0.45640096 -0.23148157 0.15023331 -0.14803948 0.29778722 -0.020640805 0.3048698 0.24690284
0.2447359 -0.12485943 0.21101646 0.283926 0.19112909 -0.23638067 0.08469379 0.30989754
0.2952217 0.28413075 0.28982255 0.13213664 0.102404885 -0.070271194 -0.3257651 0.02266369
0.26598194 0.2935071 0.10821854 0.32748336 0.2863675 0.2971028 0.22441341 0.19358896
