gym_multirotor(Native PPO)/examples/rl/experiments_from_paper/experiments_data/trained_models/QuadrotorPlusHoverEnv/QuadrotorPlusHoverEnv-3/ppo/QuadrotorPlusHoverEnv-v0.pt (torch, 216272 bytes, 12 tensors)

weight f4 [150, 18]
0	0x3cc88b4e	0.024480488
1	0x3e3c61ba	0.18396655
2	0xbd3bf641	-0.045889143
3	0xbd90e6de	-0.070752844
4	0xbc284588	-0.010270484
5	0x3c40012b	0.011719028
6	0x3e4a3355	0.19746144
7	0xbe577b91	-0.2104323
8	0x3cdf4ba0	0.02725774
9	0xbb5f3ef2	-0.0034064618
10	0xbe5e2c81	-0.21696664
11	0xbe450487	-0.19240008
12	0x3e0253b6	0.12727246
13	0x3d67cdd6	0.056592785
14	0xbebd398c	-0.36957967
15	0xbde3d71d	-0.11125014
16	0xbe75242a	-0.23939577
17	0x3e9305b7	0.28715298
18	0xbd973706	-0.07383542
19	0xbd2e70a6	-0.0425879
20	0x3dc71286	0.0972033
21	0xbe0f495d	-0.1399283
22	0xbdc97499	-0.09836692
23	0xbda484a8	-0.08033115
24	0xbd855843	-0.06510975
25	0x3d2ef95d	0.04271828
26	0x3e14e5e3	0.1454082
27	0xbe7a4818	-0.24441564
28	0x3e309c14	0.17247039
29	0xbe1fc9ad	-0.15604277
30	0x3d954ecd	0.07290421
31	0x3d536485	0.051609535
32	0x3e3ba2cb	0.1832382
33	0xbde8396d	-0.11339078
34	0xbd6b7145	-0.05748107
35	0x3d2c7bb1	0.04211015
36	0xbe5354ad	-0.2063777
37	0xbe78507e	-0.24249455
38	0xbd008df6	-0.031385385
39	0xbe35d723	-0.1775785
40	0x3e764e1a	0.24053231
41	0x3ddce957	0.107866935
42	0x3e4c19ef	0.19931768
43	0xbe1d90aa	-0.15387216
44	0xbd6a9dee	-0.05727952
45	0x3e635dc9	0.22203745
46	0x3d0ccaf8	0.034373254
47	0x3e722b44	0.23649317
48	0x3e23b639	0.15987481
49	0x3d479796	0.048728548
50	0xbca079aa	-0.019589264
51	0x3e42d526	0.19026622
52	0x3d950194	0.07275692
53	0xbdd04a60	-0.10170436
54	0xbdcf1fcd	-0.101134874
55	0xbd668801	-0.056282047
56	0xbc888444	-0.016664632
57	0xbd0bbe92	-0.03411729
58	0x3e1ba22e	0.15198585
59	0x3e9adebc	0.30248058
60	0xbdedcff6	-0.11611931
61	0x3e824e93	0.25450572
62	0xbdcb8331	-0.09937132
63	0xbd930bae	-0.07179962
64	0x3e6cabf4	0.2311247
65	0x3c9b6688	0.01896979
66	0xbe00b2f4	-0.12568265
67	0x3b02e47f	0.001997262
68	0x3e0da936	0.1383408
69	0x3e1c55c2	0.15267089
70	0x3cd546ba	0.026034702
71	0x3e98f1cd	0.2987198
72	0x3e1e87ce	0.15481493
73	0x3cbcef40	0.023063302
74	0x3d2ec77e	0.04267072
75	0xbc7b58be	-0.015340982
76	0xbe7ab9e4	-0.24484974
77	0x3e160e63	0.14653926
78	0x3d93fbf9	0.07225794
79	0x3d971817	0.07377642
80	0x3bffd287	0.0078070792
81	0x3e06e872	0.13174608
82	0x3d1f1de7	0.038846876
83	0xbe12895a	-0.14310208
84	0xbdfd455e	-0.12366746
85	0xbe2f1203	-0.17096715
86	0x3e5b5eed	0.2142293
87	0xbe3503ca	-0.17677227
88	0x3d4d6fa4	0.050155297
89	0x3d2c1ff0	0.042022645
90	0xbc9c6bfe	-0.019094463
91	0xbe916983	-0.28400812
92	0xbe9e7bac	-0.3095373
93	0x3d410ae3	0.047129523
94	0x3c06ed52	0.0082352925
95	0x3dda94d6	0.106729195
96	0xbcc5217d	-0.02406382
97	0x3ce2bf47	0.027679099
98	0x3eadaae8	0.33919454
99	0xbdd203cd	-0.10254631
100	0x3dde5fd3	0.10858121
101	0xbdf92cb9	-0.12166733
102	0xbd9f93db	-0.07791873
103	0xbd7e62f4	-0.062106088
104	0xbe4b8d15	-0.19878037
105	0xbdbd1c73	-0.09233942
106	0xbd15c197	-0.036561575
107	0x3e43610e	0.19079992
108	0x3d387571	0.045033876
109	0xbd8b9e44	-0.06817296
110	0x3e5b5535	0.21419223
111	0x3de6a959	0.11262769
112	0xbbd23f80	-0.006416261
113	0xbdbb2761	-0.0913837
114	0x3e914076	0.28369492
115	0xbd80efb5	-0.062957205
116	0xbe13c91c	-0.14432186
117	0x3dd205a7	0.10254984
118	0x3e2af393	0.16694479
119	0x3e3af176	0.18256173
120	0xbe9c6d06	-0.30551928
121	0x3c098360	0.008393139
122	0x3e00e893	0.1258872
123	0xbd1fcb6b	-0.039012354
124	0xbe2fe666	-0.17177734
125	0xbe858331	-0.26076654
126	0x3e4e0cc9	0.20122065
127	0x3e81d573	0.2535816
128	0x3e2f7203	0.17133336
129	0x3d888b82	0.06667234
130	0x3e4ff1c9	0.20307077
131	0x3d884466	0.06653671
132	0xbcf89302	-0.030343536
133	0xbdb02dbe	-0.08602475
134	0x3e4c6a58	0.19962442
135	0xbdaa3357	-0.083105735
136	0xbe2c76c8	-0.16842186
137	0xbe4258e7	-0.18979226
138	0x3dc4ab90	0.096030354
139	0xbd8684e8	-0.065683186
140	0x3e28e628	0.16494048
141	0xbe234b02	-0.15946582
142	0x3e847019	0.25866774
143	0xbd625c8b	-0.055264037
144	0x3c559778	0.013036601
145	0xbd800c14	-0.06252304
146	0xbe30dd6a	-0.17271963
147	0xbe8829fa	-0.26594526
148	0x3e641819	0.22274818
149	0xbb7b313f	-0.0038328914
150	0x3cbb6a17	0.022877736
151	0x3d16b470	0.036793172
152	0x3e67f196	0.22650751
153	0x3d6640c4	0.05621411
154	0x3e20b7f1	0.15695168
155	0xbe12e30e	-0.14344427
156	0xbd269af5	-0.040675122
157	0x3c5590fd	0.013035056
158	0xbe9084aa	-0.28226215
159	0x3e0506cb	0.12990873
160	0x3e53dbea	0.2068936
161	0x3da4c0c6	0.08044581
162	0x3dc921d5	0.09820906
163	0x3dd3e4a6	0.103463456
164	0xbcb36220	-0.021897376
165	0xbce119ef	-0.027478186
166	0xbeb35a8d	-0.35030022
167	0x3e16f5ef	0.14742254
168	0x3d2e2e64	0.04252471
169	0x3c5fa203	0.013649466
170	0xbd5e1007	-0.054214504
171	0x3dd16da0	0.102259874
172	0xbceac620	-0.028658926
173	0x3e20189d	0.15634389
174	0x3daf0394	0.08545604
175	0x3de62c40	0.11238909
176	0xbd931ff6	-0.071838304
177	0xbe9c5505	-0.30533615
178	0x3d1eb134	0.038743213
179	0x3dbef6d1	0.0932442
180	0x3dff5c64	0.12468794
181	0x3ecf146b	0.40445265
182	0x3e81602c	0.25268686
183	0xbe8ff1c4	-0.2811414
184	0xbd32fc22	-0.043697484
185	0xbe3db9a5	-0.18527849
186	0xbd9eb4ee	-0.07749353
187	0x3e949dd8	0.29026675
188	0x3da3900c	0.07986459
189	0xbdc66333	-0.096868895
190	0xbbc83f08	-0.0061110295
191	0xbd51123d	-0.051042784
192	0x3eaf4c3e	0.34237856
193	0x3e558db1	0.20854832
194	0x3cb3f982	0.02196956
195	0x3e31128f	0.17292236
196	0xbc201491	-0.009770528
197	0xbeb20a94	-0.34773695
198	0x3ea7dd1e	0.32785887
199	0x3d3f1c70	0.04665798
200	0xbbf13c1b	-0.0073619015
201	0xbd5bff35	-0.05371018
202	0x3e5155de	0.20442912
203	0x3c4036f1	0.011731849
204	0x3d9433e0	0.07236457
205	0x3deadf01	0.11468316
206	0xbd318d1c	-0.043347463
207	0x3e870573	0.26371345
208	0x3d6f9f9f	0.058501836
209	0xbe8719aa	-0.26386768
210	0x3e13a93c	0.14420027
211	0x3d78d97a	0.060754277
212	0xbeb44dc3	-0.35215577
213	0xbcb6ce6a	-0.022315223
214	0x3d4fe9c2	0.05076004
215	0x3dbb420d	0.091434576
216	0x3deb92d8	0.115026176
217	0xbddb5f2e	-0.107115135
218	0x3e49d425	0.19709833
219	0x3d099740	0.03359151
220	0xbd264940	-0.0405972
221	0x3d8f6702	0.07002069
222	0x3e03efce	0.12884447
223	0x3d7f6f19	0.06236181
224	0x3df3e328	0.11908561
225	0x3e02fdcb	0.12792127
226	0x3c9352df	0.017983852
227	0x3df86c3f	0.12130021
228	0x3ea83660	0.32853985
229	0xbe2f5dba	-0.17125598
230	0x3cd8a0cd	0.026443863
231	0xbeb1dde0	-0.3473959
232	0xbd82eb93	-0.063925885
233	0xbdd604f0	-0.104501605
234	0xbd31db5e	-0.043422095
235	0xbe9f789c	-0.31146705
236	0x3eee9b75	0.4660298
237	0xbd1cc41e	-0.03827297
238	0xbb758756	-0.00374647
239	0xbdb63c14	-0.08898178
240	0xbe1e0f56	-0.15435538
241	0x3d8a7675	0.06760875
242	0xbe04a547	-0.12953673
243	0xbe71b2e8	-0.23603404
244	0x3aecdb4f	0.001807073
245	0xbce9b98e	-0.028530862
246	0xbe393d26	-0.18089733
247	0xbe29de09	-0.16588606
248	0x3dec2929	0.11531288
249	0xbe639118	-0.22223318
250	0x3e04e997	0.12979732
251	0x3e8b9ffa	0.2727049
252	0x3e5f1d49	0.21788515
253	0xbd7f455d	-0.06232201
254	0x3caa1ed8	0.02076666
255	0xbe1fbbce	-0.15598986

bias f4 [150]
0	0xbe641c0b	-0.22276323
1	0x3c9cfedd	0.019164497
2	0x3d8cf8e1	0.068834074
3	0xbd1eb8af	-0.038750347
4	0xbd4231e8	-0.047410876
5	0xbd83786c	-0.06419453
6	0x3de1190a	0.10991104
7	0xbd3511d5	-0.04420646
8	0x3d9274d2	0.07151188
9	0x3d8a5b65	0.067557134
10	0x3b8c728a	0.004286115
11	0xbd977347	-0.07395034
12	0x3e4b9fbc	0.19885153
13	0xbd8ac2d1	-0.067754395
14	0x3d0e6b84	0.034770504
15	0xbd632f82	-0.05546523
16	0x3d80abd4	0.062827736
17	0x3ab8d8bc	0.0014102678
18	0xbdca5c61	-0.09880901
19	0xbdc22938	-0.09480518
20	0xbe6d62d0	-0.23182225
21	0x3db8f28e	0.09030639
22	0xbd60726c	-0.05479662
23	0x3e07e057	0.13269173
24	0x3b932ee0	0.004491672
25	0xbd11ab17	-0.035563555
26	0x3c127867	0.008939839
27	0x3dccdd11	0.100031026
28	0xbd8d0a60	-0.068867445
29	0xbde9cc2e	-0.11415897
30	0x3d80a016	0.06280534
31	0x3ccaa176	0.024735194
32	0xbe6a51d8	-0.22882783
33	0x3d7346ee	0.059393816
34	0xbb4abfb1	-0.003093701
35	0x3c313d28	0.010817803
36	0x3c88557b	0.016642323
37	0xbd85fe3e	-0.065426335
38	0x3c34b4b0	0.011029407
39	0xbca0efac	-0.019645534
40	0xbc56ba5d	-0.013105956
41	0xbda7c453	-0.08191743
42	0xbc0d8a1c	-0.008638885
43	0xbc31cded	-0.010852319
44	0x3e0a1342	0.13483909
45	0xbe02395a	-0.1271719
46	0xbc43d3d1	-0.011952356
47	0xbe119b0c	-0.14219302
48	0xbd00d772	-0.031455465
49	0x3d02ef6f	0.031966623
50	0xbd089e28	-0.033353955
51	0xbdc83694	-0.09776035
52	0xbdf228cc	-0.11824188
53	0x3da6d445	0.08145956
54	0x3ce6a5d0	0.028155237
55	0x3d82d912	0.06389059
56	0xbe2afd00	-0.16698074
57	0xbc780038	-0.015136771
58	0xbdaa5b05	-0.08318142
59	0xbde44ed9	-0.111478515
60	0xbd784037	-0.060608115
61	0x3c04d29b	0.008106853
62	0x3c450065	0.01202402
63	0x3e6af935	0.22946627
64	0xbcca2491	-0.02467564
65	0xbd540670	-0.05176395
66	0xbd1a89e9	-0.037729178
67	0xbdf9032b	-0.12158807
68	0x3db8e917	0.09028833
69	0xbc9a9eed	-0.01887461
70	0xbcc85df8	-0.02445887
71	0xbcaafd9f	-0.02087289
72	0x3d81131a	0.063024715
73	0xbc549362	-0.012974592
74	0x3d8a1930	0.067430854
75	0x3db366a4	0.087598115
76	0x3da496ba	0.08036561
77	0x3bd64366	0.0065387962
78	0x3bae9999	0.005328369
79	0x3d35c84d	0.044380475
80	0x3dd11ef2	0.102109805
81	0xbcb55595	-0.022135535
82	0xbd7f04fc	-0.062260613
83	0x3d6c6e4d	0.05772238
84	0x3d65f7e5	0.056144614
85	0x3dbf1648	0.09330422
86	0xbac2d859	-0.0014865502
87	0xbb97d1c3	-0.00463316
88	0x3d26376f	0.04058021
89	0x3cfcaf66	0.030845355
90	0x3c0a07fd	0.008424756
91	0xbaabe10e	-0.0013113336
92	0xbbfa7479	-0.007643279
93	0x3d19ce41	0.037550215
94	0xbcb9e01c	-0.022689871
95	0x3cb18f9c	0.021674924
96	0xbcd64e54	-0.026160397
97	0xbc95526e	-0.018227782
98	0xbd9879dd	-0.074451186
99	0xbdbdb3a6	-0.09262781
100	0x3d5f9222	0.054582722
101	0x3d6b29bb	0.057412844
102	0x3d4bf65b	0.04979549
103	0x3ce7775d	0.028255159
104	0x3e2d00c0	0.16894817
105	0xbe4827ec	-0.19546479
106	0xbdf5608a	-0.11981304
107	0xbc5af225	-0.013363396
108	0x3dc3d300	0.095617294
109	0x3c9ba394	0.018998899
110	0x3dbebe8b	0.09313687
111	0xbd9dc8bc	-0.07704303
112	0xbbd874b9	-0.0066057113
113	0xbd97a75b	-0.074049674
114	0x3ba6dbe5	0.0050921314
115	0xbe62d939	-0.22153176
116	0x3d9ea7ec	0.07746872
117	0xbda9856b	-0.082774006
118	0xbd816981	-0.063189514
119	0x3cd22502	0.025652412
120	0x3b28567b	0.0025686312
121	0xbdd1cadd	-0.10243771
122	0xbd767610	-0.060171187
123	0xbdd4e2d6	-0.10394828
124	0x3cffbd3d	0.031218166
125	0xbd44ea05	-0.04807474
126	0xbd4ebd99	-0.050473783
127	0xbe0772bb	-0.1322736
128	0xbd973942	-0.07383968
129	0xbd40f81e	-0.047111623
130	0x3d0b126a	0.033953108
131	0x3da2ba5d	0.07945702
132	0x3d613447	0.054981496
133	0xbdf46ede	-0.11935209
134	0xbd9f44ec	-0.07776818
135	0xbdedd3e1	-0.11612678
136	0x3d4eb314	0.05046375
137	0x3d77469e	0.06037008
138	0xbcc4020c	-0.023926757
139	0x3db1880b	0.08668526
140	0xbbbd16bf	-0.005770534
141	0xbdcc799d	-0.099841334
142	0x3de4e827	0.11177092
143	0x3d370a8d	0.044687796
144	0x3d541376	0.051776372
145	0x3e1986d5	0.1499284
146	0xbd3d3af2	-0.046198793
147	0xbcb2bbdc	-0.021818094
148	0xbdb0bf60	-0.08630252
149	0xbdccba41	-0.099964626

weight f4 [150, 150]
0	0x3ec2f640	0.380785
1	0xbc8bf86d	-0.017086232
2	0xbe2db68c	-0.16964167
3	0x3d8589d9	0.06520433
4	0xbd06b175	-0.03288408
5	0x3cb8f4e8	0.022577718
6	0xbe41371d	-0.1886868
7	0x3ca0f00f	0.019645719
8	0x3e81ad89	0.2532771
9	0x3cf27ce8	0.029600576
10	0xbd92ec78	-0.07174009
11	0x3ee618b8	0.44940734
12	0xbdae0e0b	-0.08498772
13	0x3cab65b8	0.020922527
14	0x3e466858	0.19375741
15	0xbe304257	-0.17212807
16	0xbc33e8ec	-0.010980826
17	0xbecf9c3a	-0.4054888
18	0x3cfc2962	0.030781452
19	0x3dc925b6	0.09821646
20	0x3e16a27a	0.14710417
21	0xbe3d7f06	-0.18505487
22	0x3bcabb73	0.0061868965
23	0x3e716498	0.2357353
24	0xbd9842d3	-0.07434621
25	0xbcce1bd4	-0.025159754
26	0xbdfd7384	-0.123755485
27	0xbdd3994d	-0.10331974
28	0x3d7bfe64	0.061521903
29	0x3e8ee029	0.27905396
30	0xbe801f0f	-0.25023696
31	0x3dc5b702	0.096540466
32	0xbd88a0ff	-0.066713326
33	0x3de2a2c5	0.11066202
34	0xbe2690f2	-0.1626623
35	0x3d2278ff	0.039666172
36	0xbce46116	-0.027878325
37	0x3d0e7d68	0.034787565
38	0x3c32bbce	0.010909034
39	0x3da9c86d	0.08290181
40	0xbcf1bd8c	-0.029509328
41	0xbdb86833	-0.090042494
42	0xbe2e6271	-0.1702974
43	0x3e29c74a	0.16579929
44	0x3d7521f0	0.05984682
45	0x3cae14ce	0.021250155
46	0x3dd7d817	0.10539263
47	0x3e9a5e12	0.30149895
48	0x3da6c26c	0.08142552
49	0xbd52f0bf	-0.051499125
50	0x3dfe56d9	0.124189086
51	0x3db00f39	0.085966535
52	0x3e6c801c	0.23095745
53	0x3defeeb3	0.1171545
54	0x3e4061f6	0.18787369
55	0x3dacc9a3	0.08436897
56	0x3ddb9a02	0.10722734
57	0x3e508595	0.20363458
58	0x3e3dea5b	0.18546431
59	0x3e29afa5	0.1657091
60	0xbd45d4f6	-0.0482988
61	0x3e515e39	0.204461
62	0x3ce57002	0.028007511
63	0xbe8d0e92	-0.2755018
64	0xbe3ddf72	-0.18542269
65	0xbc05d273	-0.008167851
66	0xbb3df3a8	-0.0028984342
67	0x3c74e8f9	0.014948123
68	0xbeba086d	-0.36334553
69	0x3e0d9340	0.13825703
70	0xbab6d196	-0.001394796
71	0x3d852684	0.06501487
72	0x3c55ed88	0.01305712
73	0x3c5a1dc5	0.013312762
74	0xbd223f09	-0.039610896
75	0xbe052da8	-0.13005698
76	0xbda21623	-0.079143785
77	0xbdbe40fb	-0.09289738
78	0xbe5b7f54	-0.2143529
79	0xbd9fefde	-0.07809423
80	0xbe0b7983	-0.13620572
81	0xbe64e06e	-0.22351238
82	0x3dbcb8af	0.09214913
83	0xbc93f5b8	-0.018061504
84	0x3da60767	0.08106881
85	0x3e6d8b12	0.23197582
86	0xbd879e28	-0.06621963
87	0xbe17b3b7	-0.1481465
88	0xbe8f7520	-0.28019047
89	0xbe2956b5	-0.16536982
90	0xbd558af3	-0.052134465
91	0xbc596ef0	-0.0132710785
92	0xbbae8e5a	-0.005327028
93	0x3d72dee0	0.05929458
94	0xbdbf1cd6	-0.09331672
95	0x3ce48c67	0.02789898
96	0xbe2583dd	-0.16163583
97	0x3d6524f6	0.05594345
98	0x3d2463d1	0.040134255
99	0xbdab4883	-0.0836344
100	0x3bc176cb	0.005904054
101	0xbe0d0b82	-0.13773921
102	0xbe29cf1f	-0.16582917
103	0xbe86fbb3	-0.26363906
104	0xbd9ac5e3	-0.07557275
105	0x3e9e3b3b	0.30904564
106	0xbe910303	-0.2832261
107	0x3e88e5ee	0.26737922
108	0x3d77fddb	0.06054483
109	0xbeac3dd0	-0.3364091
110	0x3e9b0133	0.30274352
111	0xbe1fffa8	-0.15624869
112	0x3d504a66	0.050852202
113	0xbdfd3b29	-0.123647995
114	0x3d589677	0.05287787
115	0x3d585141	0.052811865
116	0x3e6f30cb	0.23358457
117	0xbe5d6a37	-0.21622549
118	0xbde99ce9	-0.11406881
119	0xbcbe9965	-0.023266504
120	0x3d8e6530	0.06952894
121	0xbe6c1825	-0.23056085
122	0x3de7edb1	0.11324633
123	0xbd8edb93	-0.06975474
124	0xbe35517d	-0.17706867
125	0x3e65f54e	0.22456858
126	0xbd595f2a	-0.05306927
127	0x3d289fb8	0.041167945
128	0xbdbe380c	-0.09288034
129	0x3d9a49df	0.07533621
130	0xbcde4ca1	-0.027136149
131	0x3d878968	0.06618005
132	0xbaa6b019	-0.0012717276
133	0x3eac117b	0.33607087
134	0x3e4015ff	0.18758391
135	0x3daf1503	0.085489295
136	0x3e8cbcc9	0.27487782
137	0x3cccf663	0.02501983
138	0xbdbeb55e	-0.09311937
139	0xbe3af648	-0.18258011
140	0xbd650ec7	-0.055922296
141	0x3c2f5e2b	0.010703604
142	0xbe041de7	-0.12902032
143	0x3bd0d4be	0.006373017
144	0x3d947a55	0.072498955
145	0xbed5cd80	-0.41758347
146	0x3e02a641	0.12758733
147	0xbe94753f	-0.28995702
148	0xbdb5137d	-0.08841608
149	0x3b4d30fe	0.003130972
150	0x3dcaafd3	0.09896817
151	0x3e525a52	0.20542267
152	0xbe10857f	-0.14113425
153	0xbe0b7c3f	-0.13621615
154	0xbe02a092	-0.12756565
155	0x3decfb18	0.1157133
156	0x3e2f1076	0.17096123
157	0x3e3ca495	0.18422158
158	0xbdf6588e	-0.12028609
159	0x3d3dc11e	0.04632675
160	0x3dbd6372	0.09247483
161	0xbc17815f	-0.009247153
162	0x3e387f66	0.18017349
163	0x3d5b2adf	0.053507682
164	0x3e07ab9f	0.13249062
165	0x3b2cf2b8	0.002638979
166	0x3e57adbf	0.21062373
167	0x3b13d561	0.0022557604
168	0x3dfbb91b	0.122911654
169	0xbdfcf374	-0.123511225
170	0xbe4a4758	-0.19753778
171	0xbdf2297f	-0.11824321
172	0xbda4bb2f	-0.08043515
173	0xbc8595b7	-0.016306741
174	0xbd12793a	-0.035760142
175	0xbd6688d9	-0.05628285
176	0x3e39a3af	0.18128847
177	0x3e039bcd	0.12852402
178	0x3d6a90a4	0.057266846
179	0x3d0571d4	0.032579258
180	0xbdcbd10c	-0.09951982
181	0xbd489421	-0.04896939
182	0x3d56f384	0.05247833
183	0x3eb7cf6b	0.35900435
184	0x3cb3ead8	0.021962568
185	0x3e134d9b	0.14385073
186	0xbd994ee3	-0.074857496
187	0x3d5fe9d6	0.054666363
188	0xbd18c18d	-0.03729396
189	0x3d8bdb4c	0.06828937
190	0x3cb8c909	0.022556799
191	0x3cce2a01	0.025166513
192	0xbbf40eea	-0.007448067
193	0x3c02cea8	0.007983841
194	0xbd9f0b41	-0.077658184
195	0xbd31622a	-0.043306507
196	0xbc934bd8	-0.017980501
197	0x3dc4ffd4	0.09619108
198	0x3e435813	0.19076566
199	0xbdb32eaa	-0.08749135
200	0x3e2fba4d	0.17160912
201	0xbc8740e9	-0.016510444
202	0x3df0dc08	0.11760718
203	0xbda13b55	-0.07872645
204	0xbe37d05b	-0.17950575
205	0x3b996011	0.0046806415
206	0x3e154464	0.1457687
207	0x3cf40580	0.029787779
208	0x3dd22314	0.10260597
209	0x3d8aa6d2	0.067701
210	0xbdbc597d	-0.09196756
211	0xbd7e54c8	-0.062092572
212	0x3e19ac83	0.15007214
213	0x3de95924	0.11393955
214	0xbe294522	-0.16530278
215	0x3d6c8e2e	0.05775278
216	0x3e099f4c	0.13439673
217	0x3cf2a708	0.029620662
218	0xbb92153f	-0.004458099
219	0xbd20b261	-0.039232615
220	0xbe6bfbbb	-0.23045246
221	0x3df65339	0.12027592
222	0xbe4bf9fb	-0.19919579
223	0x3d85698e	0.065142736
224	0xbc8c8dda	-0.017157484
225	0x3e369ba3	0.17832808
226	0xbba8fe78	-0.005157288
227	0x3d9cd669	0.07658083
228	0x3d4390ef	0.04774564
229	0xbcbaf829	-0.02282341
230	0x3d9edc9b	0.07756921
231	0xbd619476	-0.055073224
232	0x3d908072	0.07055749
233	0xbd682102	-0.056672104
234	0xbe3a00d8	-0.18164384
235	0xbd9088c6	-0.070573375
236	0x3d894284	0.0670214
237	0xbd543933	-0.051812362
238	0xbe2c9d1c	-0.16856807
239	0xbe7b9be3	-0.24571185
240	0x3d2e294d	0.042519856
241	0x3d9498e9	0.07255728
242	0xbe07a8ec	-0.13248032
243	0x3c30cbe9	0.0107908035
244	0x3d91dbd9	0.07122011
245	0x3e18cc92	0.14921787
246	0xbc2e687b	-0.010645027
247	0xbec047e4	-0.37554848
248	0x3e1e9050	0.15484738
249	0x3d9da64b	0.076977335
250	0xbe1d9f17	-0.15392719
251	0xbd4b62ac	-0.049654648
252	0x3d83e271	0.06439675
253	0x3e16c915	0.14725144
254	0xbe247d61	-0.16063453
255	0xbd8c80e5	-0.06860522

bias f4 [150]
0	0xbe734e15	-0.23760255
1	0xbd0e198e	-0.03469234
2	0xbdd07aa5	-0.101796426
3	0xbe7d136d	-0.24714442
4	0xbd80c7eb	-0.06288131
5	0x3d53505b	0.051590305
6	0xbe053ceb	-0.1301152
7	0x3cb7a4f5	0.022417525
8	0x3c8160a2	0.015793148
9	0xbd34ae5c	-0.044111595
10	0x3dbd0ba3	0.09230735
11	0xbcd77ade	-0.026303705
12	0x3dad5075	0.084626116
13	0xbc819afe	-0.015820976
14	0xbe7062a4	-0.23475128
15	0xbda61a4c	-0.081104845
16	0xbd8d952f	-0.0691322
17	0x3d978876	0.07399075
18	0x3da295e3	0.07938745
19	0xbd5954f7	-0.053059544
20	0x3d8d73aa	0.06906827
21	0xbd932f8d	-0.07186804
22	0x3d980bba	0.07424112
23	0x3e068dc6	0.1314002
24	0x3d011498	0.03151378
25	0xbdabd058	-0.08389348
26	0xbe30c662	-0.17263177
27	0x3e747ba2	0.23875287
28	0x3d0bd4d1	0.034138504
29	0xbe45a3fe	-0.1930084
30	0xbce80848	-0.028324261
31	0x3e0c4f64	0.1370216
32	0xbc2f6f9e	-0.010707764
33	0xbdc81e36	-0.09771387
34	0xbe124130	-0.1428268
35	0x3d35f67f	0.04442453
36	0xbe5fdfe4	-0.21862751
37	0xbbc00b27	-0.0058607045
38	0x3d546eab	0.051863354
39	0x3d8e8cb5	0.069604315
40	0xbd979e54	-0.074032456
41	0xbe138ff5	-0.14410384
42	0xbe42ba9c	-0.19016498
43	0xbd712343	-0.05887152
44	0x3d651d85	0.055936355
45	0x3d7e73ab	0.06212203
46	0xbce87df6	-0.028380375
47	0x3e009ba9	0.1255938
48	0xbc88fc9e	-0.01672202
49	0xbd427b83	-0.04748107
50	0xbc996000	-0.018722534
51	0x3cbb5ace	0.022870447
52	0xbe507376	-0.20356545
53	0xbd234d3c	-0.03986858
54	0x3a595b32	0.0008291482
55	0x3d3411f3	0.04396243
56	0x3dbb6ba8	0.09151393
57	0x3cae0066	0.021240424
58	0x3d8c8cea	0.06862815
59	0x3b1228b6	0.0022302098
60	0xbe07113e	-0.13190171
61	0xbd6d4ffb	-0.057937603
62	0x3c843ad5	0.016141335
63	0xbd3b8690	-0.045782626
64	0x3dc4e462	0.09613873
65	0x3ce7d030	0.028297514
66	0x3e387702	0.18014148
67	0xbce472ab	-0.02788671
68	0x3c19f2e9	0.009396293
69	0x3df5510f	0.11978351
70	0xbd1e961a	-0.038717367
71	0x3ca2b645	0.019862304
72	0xbe1f6e6d	-0.15569468
73	0xbd5b212d	-0.053498436
74	0xbd2b65cd	-0.04184513
75	0xbd904a4a	-0.070454195
76	0x3cf1f4a4	0.029535599
77	0x3e0681b8	0.13135421
78	0xbbc2837c	-0.0059360843
79	0xbdc889d8	-0.097919166
80	0xbe6571fe	-0.22406766
81	0x3d9b86ea	0.07594092
82	0x3cd20b0d	0.025640035
83	0x3c656883	0.014001968
84	0x3cee186f	0.029064385
85	0xbe7d1c9c	-0.24717945
86	0x3c634f23	0.013873848
87	0xbdfebf30	-0.1243881
88	0xbdbde4a2	-0.09272124
89	0xbcb4918d	-0.02204206
90	0x3dda6d9d	0.10665438
91	0xbd858730	-0.065199256
92	0x3c75dd4c	0.015006375
93	0x3df0af0a	0.11752136
94	0x3d1bbe3a	0.03802321
95	0xbe74e26d	-0.239145
96	0xbd952f83	-0.07284453
97	0x3d2ff514	0.042958334
98	0x3e5c3b68	0.21507037
99	0x3d95312b	0.07284769
100	0x3dabe2ef	0.083928935
101	0x3e816a0a	0.25276214
102	0x3db6b328	0.0892089
103	0xbe05bbac	-0.13059872
104	0xbbe7bf8a	-0.007072394
105	0xbda80193	-0.08203425
106	0x3cca0f2d	0.02466544
107	0x3d9b3741	0.07578898
108	0xbcfa494d	-0.03055253
109	0xbdaef010	-0.08541882
110	0xbdd7d446	-0.10538535
111	0x3b4a6b84	0.0030886838
112	0x3cf19357	0.029489202
113	0xbd65dbe5	-0.05611791
114	0x3cfbf9f6	0.03075884
115	0xbdabc830	-0.08387792
116	0x3c903239	0.017602073
117	0xbe41ade5	-0.18913992
118	0x3d340883	0.04395343
119	0x3d3fa635	0.046789367
120	0x3c58a00b	0.013221751
121	0x3d87bc26	0.06627683
122	0x3cb560c1	0.022140862
123	0x3c3dab2a	0.011576453
124	0x3d3dfbd1	0.04638273
125	0x3e05ff72	0.13085726
126	0x3bceb47c	0.0063081365
127	0x3d24ad89	0.04020456
128	0xbddce7ab	-0.10786375
129	0x3da23ce2	0.07921769
130	0xbb51c80f	-0.0032010113
131	0x3d7ec8bb	0.06220315
132	0x3c585eb8	0.013206176
133	0x3df00ca7	0.11721163
134	0x3ba446a9	0.005013306
135	0x3d130f56	0.035903297
136	0xbd450e07	-0.04810908
137	0x3c0e447f	0.008683323
138	0xbdd23b3f	-0.102652065
139	0x3ce1c16e	0.027558055
140	0x3db392be	0.08768223
141	0xbd001372	-0.031268544
142	0x3d9027b6	0.07038824
143	0x3d54df7c	0.051970944
144	0x3d8d8372	0.06909837
145	0xbca61970	-0.020275801
146	0xbcc47c1e	-0.023984965
147	0x3b8ccb29	0.0042966795
148	0x3dc658dc	0.09684917
149	0xbc0b880c	-0.008516323

weight f4 [150, 18]
0	0xba8807bf	-0.0010378285
1	0x3c51d4b5	0.012807061
2	0x3bfc5d78	0.007701572
3	0x3c969bdf	0.018384872
4	0x3d2a120f	0.04152113
5	0x3e978902	0.29596716
6	0x3cb9e6fb	0.022693148
7	0xbd7767a5	-0.060401578
8	0xbe424fe7	-0.18975793
9	0x3dc542ed	0.09631906
10	0x3d976f27	0.073942475
11	0xbd2d1b83	-0.042262565
12	0x3d8cad51	0.06868995
13	0x3e0c8980	0.13724327
14	0x3d70c5cd	0.058782388
15	0xbd69308d	-0.056931067
16	0xbc483461	-0.012219519
17	0x3ca76c13	0.020437276
18	0xbe0d07ba	-0.13772479
19	0xbd1573c9	-0.036487374
20	0x3e0e9548	0.13924134
21	0x3e116532	0.14198759
22	0xbdb82440	-0.08991289
23	0xbcdcfbcf	-0.02697554
24	0x3d8dcc14	0.069236904
25	0xbc79e5b5	-0.01525252
26	0x3dfce9fb	0.12349316
27	0x3d8b9d69	0.06817133
28	0x3d9198d0	0.07109225
29	0x3d8e87f9	0.069595285
30	0xbe2f2658	-0.1710447
31	0xbda80501	-0.082040794
32	0x3c862f71	0.016380044
33	0x3bec5058	0.007211726
34	0xbdc0af36	-0.09408419
35	0x3db21bb9	0.08696694
36	0x3e532c9c	0.20622486
37	0x3d011dc4	0.031522527
38	0xbe428a4c	-0.18998069
39	0xbc0aa85c	-0.008462992
40	0xbe74cafc	-0.23905557
41	0x3c89d37c	0.016824476
42	0xbd8d4edc	-0.06899807
43	0x3d1e7304	0.038683906
44	0x3db02345	0.08600477
45	0x37148050	8.8513625e-06
46	0x3d8d4ead	0.06899772
47	0xbde8f7f3	-0.113754176
48	0x3e828702	0.25493628
49	0x3dcb150a	0.09916122
50	0x3e1ad203	0.15119176
51	0xbcf0af9f	-0.029380618
52	0x3d1ffba8	0.039058357
53	0xbd352a30	-0.044229686
54	0x3db1080c	0.08644113
55	0xbc7c5c47	-0.01540286
56	0xbe139e10	-0.14415765
57	0x3c87cd11	0.016577275
58	0x3c701a45	0.014654701
59	0x3dba7f36	0.09106295
60	0xbd9a12b9	-0.07523102
61	0xbd7c2e63	-0.061567675
62	0x3e4def48	0.2011081
63	0xbd0e4c72	-0.034740873
64	0x3e107da8	0.14110434
65	0xbe636fab	-0.22210567
66	0x3e0ce8b2	0.13760641
67	0x3dcdedaf	0.100551
68	0xbdfdf31c	-0.12399885
69	0xbdc2f022	-0.09518458
70	0x3e9277a1	0.28606895
71	0xbeb5d705	-0.3551561
72	0xbd8af081	-0.06784154
73	0x3d92f67c	0.071759194
74	0x3d75b0a7	0.059982922
75	0xbdc9d7f3	-0.09855642
76	0x3d4de2a4	0.05026497
77	0xbdf2770a	-0.11839111
78	0x3e0ccccc	0.13749999
79	0xbe19d018	-0.15020788
80	0xbcc9c705	-0.024631033
81	0xbd6ed254	-0.058306053
82	0x3a9f340c	0.0012146248
83	0xbda8a228	-0.08234054
84	0x3daaca86	0.083394095
85	0xbbe315f2	-0.0069301063
86	0xbe08a5d3	-0.13344507
87	0xbe89f49a	-0.2694443
88	0xbdc7a5b1	-0.097484
89	0xbeb1cc1e	-0.34726042
90	0xbe236dfe	-0.15959927
91	0xbe3323e2	-0.17494157
92	0x3ea51cf4	0.32248652
93	0x3e4a2dad	0.19743986
94	0xbc82612b	-0.015915474
95	0xbe33cbf6	-0.17558274
96	0x3dc5b224	0.09653118
97	0xbd6d704d	-0.057968426
98	0x3cffd366	0.031228732
99	0x3cab4a12	0.020909343
100	0x3e4dc5d2	0.20094994
101	0x3d111e80	0.035429478
102	0xbd306f7d	-0.043075074
103	0xbdc1ec8d	-0.094689466
104	0x3dc92f65	0.09823493
105	0x3e1ea489	0.15492453
106	0xbac003b5	-0.0014649542
107	0x3e3673df	0.17817639
108	0x3cf9d52b	0.030497154
109	0xbd84294b	-0.064531885
110	0xbdeb72e1	-0.11496521
111	0x3da6ae93	0.08138766
112	0x3b9fa486	0.0048719076
113	0x3c63f6d2	0.013913827
114	0x3c2e4daa	0.010638634
115	0xba9fc1cf	-0.0012188497
116	0xbe483075	-0.19549735
117	0x3db9070c	0.09034547
118	0xbe38db26	-0.18052348
119	0xbe6fe50b	-0.23427217
120	0x3cfa6e36	0.03057013
121	0xbc111d2b	-0.008857052
122	0xbe2fb9d4	-0.17160732
123	0x3d1f7632	0.03893108
124	0x3e2bba91	0.16770388
125	0xbd75c4c2	-0.060002096
126	0xbd0bdef2	-0.034148164
127	0xbc530c8e	-0.012881411
128	0x3e072385	0.13197143
129	0x3cb821d6	0.022477072
130	0xbe121454	-0.14265567
131	0xbda93881	-0.082627304
132	0x3dec8b29	0.1154998
133	0xbe0d1052	-0.13775757
134	0xbe953d23	-0.29148206
135	0xbddee928	-0.10884315
136	0x3d405545	0.04695632
137	0x3d25bee2	0.040465243
138	0x3dc064b7	0.0939421
139	0xbdecc996	-0.11561887
140	0xbd5f4280	-0.05450678
141	0x3d6d5dbb	0.057950716
142	0xbe25abdc	-0.1617884
143	0x3e7fdacc	0.24985808
144	0xbdcd09ba	-0.10011621
145	0x3e0f1300	0.13972092
146	0xbe55e653	-0.20888643
147	0xbe51831c	-0.2046017
148	0x3b2ce30a	0.0026380443
149	0x3e5040fb	0.20337288
150	0xbe16522d	-0.14679785
151	0xbd06688a	-0.03281454
152	0xbd8a8c19	-0.06765003
153	0xbcfb103a	-0.030647386
154	0x3df45f8c	0.119322866
155	0xbd72a4c4	-0.059239164
156	0x3deded06	0.11617474
157	0x3d121429	0.035663757
158	0xbe022551	-0.12709548
159	0x3bdd98a4	0.006762581
160	0x3e326af7	0.17423616
161	0xbe0162cc	-0.12635344
162	0xbdc4cd23	-0.09609439
163	0x3cded39f	0.027200518
164	0xbc035746	-0.008016413
165	0xbdf24e71	-0.11831368
166	0xbd9b893d	-0.075945355
167	0xbdccf0e3	-0.10006883
168	0xbd46022c	-0.048341915
169	0x3d856094	0.065125614
170	0xbcf44e9c	-0.02982264
171	0x3da1cd66	0.07900505
172	0xbc9e764c	-0.019343518
173	0x3dcb6dc4	0.099330455
174	0xbe652ba9	-0.22379936
175	0x3d930af2	0.07179822
176	0xbe0756ec	-0.13216752
177	0xbe479206	-0.19489297
178	0x3dec211a	0.11529751
179	0xbe15254a	-0.14565006
180	0xbd581a3b	-0.05275939
181	0xbc1ec7cc	-0.00969119
182	0xbd9aee26	-0.075649545
183	0xbda4fb2a	-0.08055718
184	0x3c52185c	0.012823191
185	0xbd825c60	-0.063652754
186	0xbd7ce828	-0.06174484
187	0x3b94d3e9	0.004541863
188	0xbc8f4346	-0.017488133
189	0x3b6592ab	0.0035030048
190	0x3d4c993e	0.04995083
191	0xbe095283	-0.13410382
192	0xbd886b68	-0.06661111
193	0xbd6dcc18	-0.058055967
194	0x3df7b474	0.120949656
195	0xbde9ac56	-0.114098236
196	0xbe0b5db3	-0.13609962
197	0xbded9cb3	-0.11602154
198	0x3d619112	0.05506999
199	0xbdee5a92	-0.11638369
200	0xbd10b245	-0.03532626
201	0xbe44f564	-0.19234234
202	0xbdd28ab1	-0.102803595
203	0x3d9a32b2	0.075292006
204	0xbdd956e6	-0.10612278
205	0x3d2768a3	0.040871274
206	0xbd4c3ff6	-0.049865685
207	0xbd8c3030	-0.068451285
208	0x3cb39291	0.021920474
209	0xbde142a8	-0.10999042
210	0xb50fcbc0	-5.3568147e-07
211	0xbcae1599	-0.021250533
212	0xbc0644a5	-0.008195077
213	0xbd51dff1	-0.051238958
214	0x3e1b0dde	0.15142009
215	0xbe62d07a	-0.2214984
216	0xbde32dad	-0.11092696
217	0xbd1e773b	-0.038687926
218	0xbc0e200c	-0.008674633
219	0xbd86642c	-0.06562075
220	0xbe53e938	-0.20694435
221	0xbd8085db	-0.06275531
222	0xbcc9d31a	-0.024636794
223	0xbe0a0613	-0.1347888
224	0x3cd2c43f	0.025728343
225	0xbd65e2e6	-0.05612459
226	0xbdb79eea	-0.08965857
227	0xbe11a63e	-0.14223573
228	0xbd871737	-0.06596225
229	0x3b019c08	0.001977684
230	0xbe6a9f1f	-0.22912262
231	0xbcb6be97	-0.022307677
232	0x3d8d59ad	0.0690187
233	0xbe0657d0	-0.13119435
234	0xbd097ec8	-0.033568174
235	0x3de0849b	0.109627925
236	0x3d15cd86	0.036572956
237	0xbe20e7ee	-0.15713474
238	0xbd9b4407	-0.075813346
239	0x3dec5070	0.1153878
240	0xbdb1026b	-0.08643039
241	0x3e925ca2	0.28586298
242	0x3c82e00e	0.015975978
243	0xbdb503ac	-0.08838591
244	0xbdb401d5	-0.08789412
245	0xbe0a1524	-0.13484627
246	0xbddaa8f4	-0.106767565
247	0x3d3d6451	0.046238247
248	0x3e1cae81	0.15300943
249	0xbd1cc900	-0.038277626
250	0xbd007eba	-0.031370856
251	0xbd8ed7a2	-0.069747224
252	0xbe05c4f9	-0.1306342
253	0x3cc3d7fa	0.023906697
254	0xbda26e82	-0.07931234
255	0xbdc859cb	-0.09782752

bias f4 [150]
0	0xbe12f67b	-0.14351837
1	0x3dcba05f	0.09942698
2	0x3e88bea1	0.26707938
3	0x3e4964e2	0.1966739
4	0xbe8ce2f0	-0.2751689
5	0x3d8abc37	0.067741804
6	0xbcbffa29	-0.023434715
7	0x3e21a9cd	0.1578743
8	0xbe75426b	-0.23951118
9	0xbca26dd0	-0.019827753
10	0x3dd41a33	0.103565596
11	0xbd8705c7	-0.06592899
12	0xbe075cdb	-0.13219015
13	0x3d70a016	0.05874642
14	0x3ee8168c	0.45329702
15	0x3e6417a1	0.22274639
16	0xbe510b2f	-0.20414422
17	0xbcbcd5f4	-0.02305124
18	0x3e83ebbf	0.25765797
19	0x3d7f94a0	0.0623976
20	0x3dffbc5e	0.124871
21	0x3ea86715	0.32891145
22	0xbdf5579b	-0.119796
23	0x3e557e6c	0.20849007
24	0x3d2939f9	0.041315053
25	0x3ce27a0e	0.02764609
26	0x3ee8da2d	0.45478955
27	0x3e172fab	0.14764278
28	0x3d9a73a1	0.07541586
29	0x3e232591	0.15932299
30	0x3e235871	0.15951706
31	0xbe44554b	-0.19173162
32	0x3e08f891	0.1337607
33	0x3e5a0038	0.21289146
34	0xbd063afc	-0.032771096
35	0x3de1ba10	0.11021817
36	0x3e178c8e	0.14799711
37	0xbd9c0f53	-0.0762011
38	0x3e6c77a9	0.23092522
39	0xbe2be1cc	-0.16785353
40	0x3c5049bb	0.012712891
41	0x3e08f893	0.13376074
42	0xbd677505	-0.056508083
43	0xbc2a67ba	-0.010400707
44	0xbdaf53a2	-0.085608736
45	0x3db1638e	0.08661567
46	0x3e4516e6	0.19247016
47	0xbe748b1b	-0.2388119
48	0x3e731d52	0.23741654
49	0xbea0882a	-0.31353885
50	0xbbde9401	-0.006792546
51	0x3d81029e	0.06299327
52	0xbe694584	-0.22780424
53	0xbe09c7dc	-0.13455147
54	0x3ac991b3	0.0015378505
55	0x3e1673df	0.14692639
56	0xbd16ad5b	-0.03678642
57	0x3d8d5b40	0.0690217
58	0x3da548f1	0.08070553
59	0x3de1b7b5	0.110213675
60	0xbe3c9885	-0.18417557
61	0x3da6bd5f	0.081415884
62	0x3c2c429f	0.010513931
63	0x3d38389f	0.044975873
64	0xbea9af6f	-0.33141658
65	0xbbf8f96e	-0.0075980937
66	0xbe36a4c7	-0.17836295
67	0xbbee0f06	-0.0072649745
68	0x3e7e92cf	0.2486069
69	0xbe41cd07	-0.18925868
70	0xbea0bd56	-0.31394452
71	0x3e85e001	0.26147464
72	0xbceb26cc	-0.028705023
73	0x3dc3d647	0.095623545
74	0x3d69c353	0.05707104
75	0x3de82563	0.11335256
76	0x3ea93e91	0.33055547
77	0x3d49f2b3	0.04930372
78	0xbc57ba28	-0.013166942
79	0xbe8c3dc9	-0.27390888
80	0x3e1a7397	0.15083157
81	0xbe0f2ed2	-0.13982704
82	0x3eeb3451	0.45938352
83	0x3aa3688e	0.0012467073
84	0x3d8c4e48	0.068508685
85	0x3eb4a644	0.352831
86	0xbef72674	-0.48271525
87	0xbe442dd8	-0.19158113
88	0xbdb6fcff	-0.08934974
89	0xbeb7e9a8	-0.35920453
90	0x3ead22d0	0.33815622
91	0xbb6b3782	-0.003589124
92	0x3cd33189	0.025780456
93	0x3e46a8a7	0.19400273
94	0x3e9605fe	0.29301447
95	0x3e0d7eff	0.13817976
96	0x3e532f1a	0.20623437
97	0x3df69bbc	0.12041423
98	0x3d6c6c25	0.057720322
99	0xbe52a7e4	-0.20571858
100	0x3e60143c	0.21882719
101	0xbea3d798	-0.32000422
102	0xbd28d93c	-0.041222796
103	0x3ef8c1be	0.48585314
104	0xbd171934	-0.03688927
105	0x3eca51de	0.39515585
106	0xbe237ba3	-0.15965132
107	0xbe8f6262	-0.28004748
108	0x3ea04735	0.31304327
109	0xbe5b8fab	-0.21441524
110	0x3eb05e58	0.3444698
111	0x3de83572	0.11338319
112	0xbdd6812e	-0.10473858
113	0x3d2ca96d	0.042153765
114	0xbe8332de	-0.25624746
115	0xbeaf8ed1	-0.34288648
116	0x3e6d7cc2	0.23192123
117	0x3c2c15de	0.01050326
118	0x3e379c9b	0.17930834
119	0x3ded00f8	0.115724504
120	0xbe2312a2	-0.15925077
121	0x3dbafce5	0.09130267
122	0x3df446bb	0.11927553
123	0x3e725b3d	0.23667617
124	0xbe76a6db	-0.24087088
125	0xbd4134ba	-0.047169425
126	0x3e9c436e	0.30520195
127	0x3dbaa429	0.09113342
128	0x3c0d5768	0.008626796
129	0x3dfc8a0c	0.12331018
130	0x3d8584ff	0.065195076
131	0xbd87c357	-0.06629055
132	0xbdb0ef71	-0.0863942
133	0xbe015b30	-0.12632442
134	0xbd147bd2	-0.036250897
135	0x3e877f08	0.26464105
136	0x3deb98ff	0.11503791
137	0xbdf142ca	-0.11780317
138	0xbd79f94f	-0.061028775
139	0x3d9e43db	0.07727786
140	0xbdea3369	-0.11435587
141	0x3ecb281f	0.39679047
142	0x3de22e21	0.11043955
143	0x3c83d2f9	0.01609181
144	0xbe3e5cb3	-0.1859005
145	0xbe64aa95	-0.22330697
146	0xbe7eca1e	-0.24881789
147	0x3d5618db	0.052269798
148	0xbd35705e	-0.044296615
149	0x3db86777	0.09004109

weight f4 [150, 150]
0	0xbe09899c	-0.134314
1	0xbdc1022c	-0.094242424
2	0x3e5dbf7c	0.21655077
3	0xbdd4b6ad	-0.10386405
4	0xbd7bbae6	-0.061457537
5	0x3d738356	0.059451424
6	0x3b54473a	0.0032391087
7	0x3ccf8481	0.025331737
8	0xbe2f3f73	-0.17114048
9	0xbe265297	-0.16242443
10	0xbe3060ec	-0.17224473
11	0xbc6bc8ec	-0.014391165
12	0xbdb25d04	-0.087091476
13	0xbe5492ad	-0.20759077
14	0x3e7826a4	0.2423349
15	0x3d0f1334	0.034930423
16	0xbcd223fb	-0.025651922
17	0xbd991e9f	-0.07476544
18	0x3e151e77	0.14562403
19	0xbe1c5743	-0.15267663
20	0xbc335644	-0.01094586
21	0x3e396cf6	0.18107972
22	0xbdc191ef	-0.09451663
23	0x3e6acb90	0.22929215
24	0xbe26fed9	-0.16308154
25	0xbde6c773	-0.11268511
26	0xbe19d5c1	-0.15022947
27	0x3dc53a01	0.09630204
28	0xbe0b36d0	-0.13595128
29	0x3bbfdef1	0.005855434
30	0xbdf9e11c	-0.12201139
31	0x3d96277f	0.07331752
32	0x3dd03b74	0.1016759
33	0x3e8829cc	0.26594388
34	0x3deb1b72	0.11479844
35	0xbbfd64ad	-0.0077329488
36	0x3c3bb0a9	0.011455693
37	0xbd21f4b9	-0.039540026
38	0x3d9fe88e	0.07808028
39	0x3d35668d	0.044287253
40	0xbdc82a26	-0.09773664
41	0x3e82665c	0.2546872
42	0xbc8b577f	-0.017009495
43	0x3e3aa8f6	0.18228516
44	0x3e1da39c	0.15394443
45	0x3e974936	0.29548043
46	0xbe2e3272	-0.17011431
47	0x3d077890	0.03307396
48	0x3b940987	0.0045177373
49	0x3d8551e1	0.06509758
50	0xbe1a0f4e	-0.15044901
51	0xbcee7033	-0.029106235
52	0xba04577a	-0.00050484354
53	0x3c802337	0.015641792
54	0xbd6cca8d	-0.057810355
55	0xbbeae1e9	-0.007168044
56	0xbc350852	-0.011049347
57	0xbd232a4c	-0.03983526
58	0xbdd54800	-0.104141235
59	0x3dccfe7d	0.10009477
60	0x3d88cd6f	0.06679808
61	0xbce6c2d2	-0.02816907
62	0xbe2c4d23	-0.168263
63	0x3df743d4	0.12073484
64	0xbd11c267	-0.035585787
65	0x3e50b604	0.20381933
66	0x3de2af8a	0.11068638
67	0xbe31331e	-0.17304656
68	0x3e77685a	0.241609
69	0x3e91ba02	0.28462225
70	0x3e71cbb4	0.23612863
71	0x3e279af8	0.1636771
72	0xbb20357e	-0.0024445946
73	0xbdbcc818	-0.09217852
74	0xbe443b11	-0.19163157
75	0x3cc0296c	0.023457251
76	0x3e4e8a79	0.2017001
77	0xbde9b71c	-0.114118785
78	0x3df98957	0.121843986
79	0xbdb20db7	-0.08694022
80	0xbd1c1dfd	-0.038114537
81	0xbe5cbc99	-0.2155632
82	0x3e586aa6	0.21134433
83	0xbdaacfc5	-0.0834041
84	0x3e8ea0cf	0.27857062
85	0x3d4488ef	0.047982153
86	0x3dd2cbb1	0.10292757
87	0xbdc392cc	-0.09549484
88	0xbe8aef0d	-0.27135506
89	0xbd9b24cf	-0.0757538
90	0x3de15c11	0.110038884
91	0xbd93e571	-0.07221497
92	0xbe2337df	-0.15939282
93	0x3d3296f3	0.043600988
94	0xbac05c0f	-0.0014675873
95	0xbc85fdf2	-0.016356442
96	0x3e40485e	0.18777606
97	0x3de8ddd2	0.11370434
98	0xbe8aae63	-0.27086172
99	0x3ebfa499	0.37430266
100	0xbcb0c7ae	-0.02157959
101	0x3d1a1632	0.037618823
102	0xbd09c025	-0.03363051
103	0xbd4ef1fa	-0.050523736
104	0xbacab908	-0.001546652
105	0xbe05fd2d	-0.1308486
106	0x3d0e528a	0.034746684
107	0xbd667ccd	-0.056271363
108	0xbda56f66	-0.08077888
109	0xbc5f649a	-0.013634825
110	0x3eaec8f4	0.3413769
111	0x392d4a3d	0.00016526222
112	0xbd4743bb	-0.048648577
113	0xbec89c78	-0.39181876
114	0xbe96279d	-0.29327098
115	0xbcf6ea89	-0.030141132
116	0x3d47ae8d	0.04875045
117	0xbe22d2ad	-0.15900679
118	0x3e0096dc	0.12557548
119	0x3e79dc6a	0.24400488
120	0xbdda84b0	-0.106698394
121	0xbd22cf9d	-0.039748777
122	0xbce0bdd6	-0.02743427
123	0x3dcd9a88	0.1003924
124	0x3e149727	0.14510785
125	0xbd2992c7	-0.041399743
126	0x3e772afd	0.24137492
127	0x3d4ea383	0.050448906
128	0xbe0ca2ec	-0.13734025
129	0xbd247900	-0.040154457
130	0xbd8a0303	-0.06738856
131	0x3e157fae	0.14599487
132	0xbd66e840	-0.056373835
133	0xbe4c9e3b	-0.19982235
134	0x3b1487a2	0.0022663851
135	0x3e3ebb20	0.1862607
136	0x3e538d34	0.20659333
137	0xbc8cfe8c	-0.017211221
138	0x3b08c04e	0.0020866576
139	0xbd5b6d30	-0.053570926
140	0xbdd4be22	-0.103878275
141	0x3d9cef2c	0.07662806
142	0xbdedaf0c	-0.11605653
143	0xbe1b0a2e	-0.15140602
144	0x3db78ba0	0.08962178
145	0x3e917ed4	0.28417075
146	0xbe1dc274	-0.15406209
147	0xbe52a6c7	-0.20571433
148	0xbe0bb4bb	-0.13643162
149	0xbe12b42d	-0.14326544
150	0xbe2d0da8	-0.1689974
151	0xbdd670a5	-0.10470704
152	0xbd372931	-0.044717018
153	0xbd6e2581	-0.058141235
154	0x3d71c78a	0.059028186
155	0x3e648aee	0.22318622
156	0x3d886b5d	0.06661103
157	0x3e091f50	0.13390851
158	0x3e1f80ac	0.15576428
159	0xbdf3eb82	-0.11910154
160	0x3c128f3f	0.008945285
161	0xbd005908	-0.031334907
162	0xbd294ddf	-0.04133403
163	0x3c185035	0.009296467
164	0xbdce23b3	-0.10065403
165	0x3e09f97f	0.13474081
166	0x3c94f63d	0.018183822
167	0x3cf55700	0.029948711
168	0x3d481ac8	0.048853666
169	0xbd9d585b	-0.07682868
170	0xbd182a52	-0.037149735
171	0x3d48a4c1	0.048985247
172	0x3dcb141e	0.099159464
173	0xbd9231ae	-0.07138382
174	0x3d2f24e3	0.042759787
175	0xbdb524a5	-0.0884488
176	0x3c1538ac	0.00910775
177	0xbb8f73fc	-0.00437784
178	0x3cbc1d11	0.022963079
179	0xbdb3a604	-0.08771899
180	0xbe67e1df	-0.22644757
181	0x3dba7a11	0.091053136
182	0xbc7c5801	-0.015401841
183	0xbcfeedaa	-0.031119186
184	0xbda2f93e	-0.079576954
185	0xbdc34981	-0.09535504
186	0xbe24a127	-0.160771
187	0x3d8b6f75	0.06808368
188	0xbdb0aec8	-0.08627087
189	0xbccef9c3	-0.02526558
190	0xbe27ef69	-0.16399921
191	0x3baa577e	0.005198418
192	0xbdf52748	-0.11970383
193	0xbdae2d10	-0.08504689
194	0xbe0140b9	-0.12622346
195	0x3d478b0f	0.0487166
196	0xbe3bc7a7	-0.1833788
197	0xbc6f4e80	-0.014606118
198	0xbe56a3cf	-0.20960926
199	0xbd8c1ed7	-0.0684182
200	0xbd8bf846	-0.06834464
201	0xbeb66e53	-0.35631046
202	0x3d8f341f	0.06992363
203	0xbdd26a13	-0.10274138
204	0x3be6eee1	0.0070475196
205	0xbc0647b2	-0.008195804
206	0x3da9143b	0.08255812
207	0x3cad0663	0.02112121
208	0xbdcadb15	-0.09905068
209	0x3dd18a4b	0.102314554
210	0xbdb67fae	-0.08911072
211	0xbe5761ea	-0.21033445
212	0xbdce2330	-0.10065305
213	0x3e13f4ca	0.14448848
214	0x3e01ab19	0.12662925
215	0x3e69669f	0.22793053
216	0xbe683a40	-0.2267847
217	0xbaced751	-0.0015780722
218	0xbbbb7d9f	-0.0057217623
219	0xbe1fb6cb	-0.15597074
220	0xbe70201a	-0.23449746
221	0x3d327541	0.043568853
222	0xbe3fd854	-0.18734866
223	0xbdc4c42a	-0.09607728
224	0xbdc980f5	-0.0983905
225	0x3c650e36	0.013980439
226	0x3d21698c	0.039407298
227	0x3e10e2bc	0.14148992
228	0xbd6b705a	-0.057480194
229	0x3da5f968	0.08104211
230	0xbdb462ef	-0.088079326
231	0xbe1f4533	-0.15553741
232	0xbd0d88a5	-0.034554143
233	0x3e04c524	0.12965828
234	0x3e5bc0ae	0.2146022
235	0xbe18f866	-0.14938506
236	0xbd2b6bae	-0.04185074
237	0x3e4d70e8	0.20062602
238	0x3d93923d	0.07205627
239	0xbbb431d5	-0.0054991045
240	0xbdca722a	-0.09885056
241	0xbe134388	-0.1438123
242	0x3d0372ac	0.03209178
243	0xbda32612	-0.07966246
244	0xbe36766d	-0.17818613
245	0xbe0da6fc	-0.1383323
246	0x3e8a50d2	0.27014786
247	0xbddca2c8	-0.107732356
248	0xbd02caeb	-0.0319318
249	0xbdb34812	-0.08753981
250	0xbdea9bb4	-0.11455479
251	0x3db0039d	0.08594439
252	0xbdc0e69b	-0.094189845
253	0xbdf5d85b	-0.12004157
254	0xbb918fc9	-0.0044421894
255	0xbe8bc652	-0.27299744

bias f4 [150]
0	0x3e0b83d2	0.13624504
1	0xbda2599d	-0.079272486
2	0x3d2d25e7	0.042272475
3	0x3dac76c4	0.0842109
4	0x3cb11e4b	0.02162089
5	0xbd98a95d	-0.074541785
6	0xbdcac9c5	-0.09901766
7	0x3c9f2733	0.019427871
8	0x3d836ea0	0.064175844
9	0x3e8127a1	0.25225547
10	0x3b5546da	0.0032543452
11	0x3c7cc3c2	0.015427532
12	0xbcf3a403	-0.029741293
13	0x3dc1afca	0.09457357
14	0x3dd4631f	0.10370468
15	0xbde473b3	-0.111548804
16	0x3d991c5c	0.07476112
17	0xbdbd0ddc	-0.09231159
18	0xbe0d8c66	-0.13823089
19	0x3bb8e2ff	0.0056422944
20	0xbdeecb39	-0.116598554
21	0xbe8f9a7c	-0.2804755
22	0x3bf270b3	0.0073986887
23	0xbdc64b6e	-0.09682356
24	0x3da03278	0.07822126
25	0xbde0c63e	-0.10975312
26	0xbd710225	-0.058839936
27	0xbdc56e53	-0.09640183
28	0xbd19bb4f	-0.037532147
29	0xbdb2a65c	-0.08723137
30	0x3d20946f	0.039204057
31	0x37cb1af8	2.4212044e-05
32	0xbdae2bcc	-0.08504447
33	0x3d5ac109	0.05340675
34	0xbe064cef	-0.13115285
35	0xbd9a64ba	-0.07538743
36	0x3bbe261e	0.0058028838
37	0x3cb76eec	0.022391759
38	0xbdc43626	-0.095806405
39	0x3d992402	0.07477571
40	0x3d67d787	0.056602027
41	0xbdb7093c	-0.08937308
42	0x3e7ebc4d	0.24876519
43	0xbdcbbaa6	-0.0994771
44	0x3e44054e	0.19142649
45	0x3d7fe727	0.062476303
46	0x3ce42199	0.027848052
47	0xbe292c5d	-0.1652083
48	0x3d9e2cd3	0.07723393
49	0xbe38a5b4	-0.1803196
50	0x3d2f9044	0.04286219
51	0x3db970e5	0.09054736
52	0xbd584e16	-0.052808844
53	0xbd9596c9	-0.073041506
54	0x3e08c569	0.13356556
55	0xbdf76c0e	-0.12081157
56	0xbc96fc52	-0.018430863
57	0x3e35159b	0.17684023
58	0xbd4ad310	-0.04951769
59	0xbc206044	-0.0097885765
60	0xbd41a49a	-0.047276117
61	0x3cce71c9	0.025200741
62	0x3da5ddbd	0.08098934
63	0x3d3ec504	0.046574607
64	0xbd917b9d	-0.071036555
65	0x3d4e798a	0.050408877
66	0x3de47f06	0.1115704
67	0xbdbeb2ad	-0.093114235
68	0x3d9a9d64	0.07549551
69	0x3de8bad0	0.11363757
70	0xbde2aabc	-0.11067721
71	0x3c792323	0.015206131
72	0xbe2cb3b5	-0.16865428
73	0x3dafb807	0.08580022
74	0x3db07110	0.08615315
75	0x3de517fb	0.111862145
76	0xbe1999c2	-0.1500006
77	0xbdf0897e	-0.117449746
78	0x3cc0130f	0.023446588
79	0x3d89e7af	0.06733643
80	0xbe209464	-0.15681607
81	0x3c604978	0.013689391
82	0x3e535800	0.20639038
83	0xbd81f1ad	-0.06344924
84	0xbe33e2df	-0.17567013
85	0xbc8df362	-0.017327968
86	0x3db34d51	0.08754981
87	0x3d772913	0.060341906
88	0x3db991de	0.09061025
89	0x3d25f5c0	0.04051757
90	0x3dd181a7	0.10229807
91	0x3d9593d0	0.073035836
92	0xbda4caf1	-0.080465205
93	0x3c7ac3ae	0.015305443
94	0xbdf03a93	-0.11729922
95	0xbd962afb	-0.073324166
96	0x3cacaeff	0.021079538
97	0x3d7fa3e2	0.06241215
98	0x3db31c2d	0.087456085
99	0x3dc1c933	0.09462204
100	0x3db48b1b	0.08815595
101	0x3d839eda	0.06426783
102	0xbdc7d083	-0.09756567
103	0x3c4b273b	0.01239949
104	0x3ce91565	0.028452585
105	0x3d6ef277	0.0583367
106	0x3e32fdc3	0.17479615
107	0xbe68adb1	-0.22722508
108	0xbd13777e	-0.03600263
109	0xbd9ac88d	-0.07557783
110	0xbdb0b38b	-0.08627995
111	0x3ce808d8	0.02832453
112	0xbdbad145	-0.09121946
113	0xbe1236ac	-0.14278668
114	0xbda10301	-0.07861901
115	0x3d87a280	0.06622791
116	0xbdc91398	-0.0981819
117	0xbdac72e3	-0.084203504
118	0xbdde11dd	-0.10843251
119	0xbdc5c979	-0.096575685
120	0xbd0362ad	-0.032076526
121	0x3d890442	0.06690265
122	0x3d01285e	0.031532638
123	0xbdb4e603	-0.08832934
124	0xbd55e7f8	-0.052223176
125	0x3daf9350	0.085730195
126	0xbd9a521f	-0.075351946
127	0xbd9d5b88	-0.07683474
128	0x3caa26ea	0.020770509
129	0xbd33ce2a	-0.043897785
130	0xbd2bc270	-0.041933477
131	0x3d1c4a7a	0.038156964
132	0x3e00ae52	0.12566498
133	0x3dba9615	0.09110657
134	0x3d697755	0.05699857
135	0xbd3ce78e	-0.046119265
136	0xbe476388	-0.19471562
137	0xbd9bcbbe	-0.0760722
138	0x3db29460	0.087197065
139	0x3d5a1de2	0.053251155
140	0x3d95102e	0.07278477
141	0xbd780833	-0.060554694
142	0x3d9ecea9	0.07754261
143	0xbc12e303	-0.008965257
144	0xbc0c62ed	-0.008568508
145	0x3dbd18a0	0.092332125
146	0xbdf3fc13	-0.11913314
147	0xbdaf941f	-0.08573174
148	0x3d9d453c	0.07679221
149	0xbe26ba66	-0.16282043

weight f4 [1, 150]
0	0x3e14c8ab	0.14529674
1	0x3dc9677e	0.09834193
2	0xbcaa31de	-0.020775732
3	0xbd837a39	-0.064197965
4	0x39250e94	0.00015741057
5	0x3e020fc4	0.12701327
6	0x3dd89680	0.105755806
7	0xbe29c854	-0.16580325
8	0xbd39c261	-0.04535139
9	0x3e976330	0.29567862
10	0x3dada125	0.084780015
11	0xbe4d2732	-0.20034483
12	0x3db4ecba	0.088342145
13	0xbd8208cb	-0.063493334
14	0xbe48326f	-0.19550489
15	0x3cebdb3d	0.028791064
16	0xbca1c86d	-0.01974889
17	0x3caf013f	0.021362899
18	0x3e2fada2	0.1715608
19	0xbd6c0fca	-0.057632245
20	0xbe230b07	-0.15922175
21	0xbe82ac8f	-0.25522277
22	0x3de4fec3	0.111814044
23	0x3b767f5c	0.0037612533
24	0xbe9693e7	-0.29409716
25	0x3e3e849d	0.18605275
26	0x3db58ccf	0.08864748
27	0x3d3d9843	0.046287786
28	0x3d540118	0.051758856
29	0x3d3d076c	0.046149656
30	0x3ecb74a4	0.39737427
31	0xbdbe2dff	-0.09286117
32	0x3de23a91	0.11046327
33	0xbdd60d69	-0.104517765
34	0x3d5e0740	0.054206133
35	0x3ceb912e	0.02875575
36	0xbe9b01cf	-0.30274817
37	0x3e01bfe6	0.1267086
38	0x3c6e7224	0.01455358
39	0xbe1d4c1c	-0.15361065
40	0xbbe8163c	-0.0070827287
41	0x3db24f82	0.08706571
42	0xbdca20ea	-0.09869559
43	0x3e779a52	0.24179962
44	0x3e3804d9	0.17970599
45	0xbdf3e521	-0.11908937
46	0xbe138549	-0.14406313
47	0xbe8a00bf	-0.26953694
48	0xbd8f9144	-0.07010129
49	0x3dbe5aa9	0.09294636
50	0xbde9f9b2	-0.11424579
51	0xbe41eb97	-0.18937527
52	0x3d2e2fd0	0.042526066
53	0x3e29b9df	0.1657481
54	0xbcf4dee9	-0.029891448
55	0x3e2bd298	0.16779554
56	0x3dd7666a	0.10517581
57	0x3e9cd66e	0.30632347
58	0x3c7c8fd0	0.015415147
59	0x3e5d2c6a	0.21598974
60	0x3d79b8c9	0.06096724
61	0xbd54d078	-0.051956624
62	0xbd32df85	-0.043670196
63	0x3de76098	0.11297721
64	0x3d03baa7	0.032160427
65	0xbd15132c	-0.036395237
66	0xbc8fd4d2	-0.017557535
67	0x3d52c47c	0.051456913
68	0xbcf7b92c	-0.030239664
69	0x3e374c42	0.17900184
70	0x3da5b8d8	0.08091897
71	0xbe46bf54	-0.19408923
72	0x3d587af1	0.05285162
73	0x3eb0cf9e	0.345334
74	0xbdb32bbc	-0.08748576
75	0xbdcb329d	-0.09921763
76	0x3e71d3b9	0.23615922
77	0x3e38fe78	0.18065822
78	0xbd8646e9	-0.06556494
79	0xbe3f0bd4	-0.18656856
80	0x3e852cb1	0.2601066
81	0xbd905e01	-0.0704918
82	0x3e54c767	0.20779191
83	0x3de9f072	0.114228144
84	0xbe595611	-0.21224238
85	0xbd95efd1	-0.07321132
86	0xbe858648	-0.2607901
87	0xbdcad0e8	-0.09903127
88	0xbd6371a8	-0.055528313
89	0xbe3f2f8d	-0.18670483
90	0xbeaa26a9	-0.3323262
91	0xbe664061	-0.22485496
92	0x3e2c5706	0.16830072
93	0x3df4465d	0.11927483
94	0x3cc415e2	0.023936216
95	0x3d9339dd	0.07188771
96	0xbd876dbb	-0.06612726
97	0x3df2ec77	0.11861508
98	0xbe0cdb03	-0.13755421
99	0xbd5f9954	-0.054589584
100	0xbe8d2982	-0.2757073
101	0xbe864c3c	-0.26230037
102	0x3e094a25	0.1340719
103	0x3d3fd08c	0.046829745
104	0xbda9c389	-0.082892485
105	0x3e33fe85	0.1757756
106	0x3e392fe5	0.18084677
107	0xbdd1e519	-0.10248775
108	0x3e03a4c7	0.12855826
109	0x3aee7e87	0.0018195667
110	0xbe8bebaf	-0.2732825
111	0x3e2a7fcc	0.16650313
112	0xbea20708	-0.3164599
113	0x3e8f232c	0.27956522
114	0x3dcb52de	0.09927915
115	0xbc5288d1	-0.012850002
116	0x3e8e0800	0.2774048
117	0x3ce395c7	0.02778138
118	0x3e675dd6	0.2259439
119	0x3e35dc74	0.17759877
120	0x3da73b18	0.08165568
121	0xbd469238	-0.04847929
122	0x3e18fc82	0.14940074
123	0x3da0699b	0.07832643
124	0x3daa80a0	0.083253145
125	0x3e09b920	0.13449526
126	0x3d53b16f	0.051682886
127	0x3e03cc5f	0.1287093
128	0x3e72d466	0.23713836
129	0x3ba2c3e9	0.004967202
130	0x3dd64ab8	0.1046347
131	0xbe3845cf	-0.1799538
132	0xbe6550c6	-0.22394094
133	0xbd916605	-0.07099537
134	0xbe31c79a	-0.17361298
135	0x3dee151b	0.11625119
136	0x3e8692ff	0.26284024
137	0xbe25da50	-0.16196561
138	0xbdb31aa3	-0.08745315
139	0xbd8ad34c	-0.06778583
140	0xbdda8aaa	-0.10670979
141	0x3c2f127a	0.0106855575
142	0xbe17bd03	-0.14818196
143	0x3de54ac3	0.111959
144	0x3e38111a	0.17975274
145	0x3de5aa54	0.11214128
146	0x3d01b0d4	0.031662777
147	0xbe3b8b90	-0.18314958
148	0xbe3fc0ab	-0.18725841
149	0xbe6b3d85	-0.22972687
