gym_multirotor(Native PPO)/examples/rl/experiments_from_paper/experiments_data/trained_models/QuadrotorPlusHoverEnv/QuadrotorPlusHoverEnv-0/ppo/QuadrotorPlusHoverEnv-v0.pt (torch, 216272 bytes, 12 tensors)

weight f4 [150, 18]
000000 02 48 23 bd d6 c1 f7 3d 7c 05 26 be 90 d8 08 bd
       -0.039863594 0.12097518 -0.1621303 -0.033409655
000010 a6 59 87 bc 47 ad de 3d 6c 38 4f bd e6 97 1b be
       -0.01652224 0.10872894 -0.050590917 -0.15194663
000020 54 6f 1b 3d 96 35 44 3d 89 9b 9b 3a 0d e2 d1 be
       0.037947968 0.047902666 0.0011871915 -0.40992776
000030 ef 99 88 3d e7 4c 11 3d 78 b1 06 bf 19 cb a0 bc
       0.066699855 0.03547373 -0.52614546 -0.019628095
000040 65 5c 8f 3c 2f 26 15 3c 0b 41 14 3e f3 82 05 bd
       0.017500112 0.009103342 0.14477937 -0.032595586
000050 1e 50 17 3e a3 79 fa bd 92 81 2c be 44 7f ab bc
       0.14776656 -0.122302316 -0.16846302 -0.020934708
000060 ac a1 c1 3e 42 ae 69 3d 8d c5 08 be 3c 00 84 3e
       0.37818658 0.05705095 -0.1335661 0.2578143
000070 8c 91 6e bd 43 0b 2f 3d 7b 2a ca 3d 83 62 2f be
       -0.058244273 0.04273535 0.09871384 -0.17127423
000080 9a f9 2a 3e 82 63 d1 bd 33 24 31 3e f3 26 b2 3d
       0.16696778 -0.10224058 0.17298965 0.08698835
000090 fe 74 07 3e 60 d9 a3 bd 55 c0 74 3c ba dd a6 bb
       0.13228223 -0.08000445 0.014938434 -0.00509235
0000a0 1f c1 db 3d be a3 33 3e d8 33 c0 bc 96 e1 19 bc
       0.10730194 0.17542931 -0.023462221 -0.009392163
0000b0 79 94 22 3e 8a f5 07 be 08 c3 06 be 95 21 5d bd
       0.1587695 -0.1327726 -0.13160336 -0.053987104
0000c0 80 ef 77 bd a7 c3 c1 3d fb e2 0b bd b4 e6 5b be
       -0.06053114 0.09461146 -0.034152012 -0.21474725
0000d0 e2 ee a3 3d ca 3c 42 bd aa 50 3a 3c b6 41 0b bc
       0.08004548 -0.047421254 0.011371771 -0.008499553
0000e0 89 1b 0a 3e e6 5d 67 3d e6 40 97 bc 61 d4 c7 3b
       0.13487066 0.056486033 -0.018463563 0.0060983156
0000f0 18 a6 e9 bd a2 45 8d bd ba 7c ed bc 14 51 fc bd
       -0.11408633 -0.06898047 -0.028990138 -0.12320152
000100 16 78 13 3d f5 50 97 be 54 38 d3 bd cd dd 58 bd
       0.036003195 -0.29553953 -0.10313478 -0.0529459
000110 70 46 98 3e 29 43 01 bd 0a 51 37 be 5e f0 08 bd
       0.2974124 -0.03155819 -0.17902008 -0.033432357
000120 56 ad ea bd 09 28 7f bd 7a 64 16 be d0 3d f1 3d
       -0.114588425 -0.06229404 -0.14686766 0.11779368
000130 2f 70 52 be 95 6a 8d bd be a3 ef 3d 0a a6 86 3e
       -0.20550607 -0.069050945 0.11701153 0.26298553
000140 8c 8f 28 be 3b 8f 21 3e 40 41 a9 bc 50 58 56 3c
       -0.16461009 0.15777294 -0.020660996 0.013082579
000150 00 c5 8a 3d cd 67 9f be 6e ce 89 bc c1 f6 ce 3d
       0.06775856 -0.3113388 -0.016822066 0.10105658
000160 39 fd 92 be 3c f7 8b bd 7b 72 3a 3e 3b e1 25 3e
       -0.2870882 -0.068342656 0.18207733 0.161992
000170 df 6c 9b be 3e da 90 3c 40 74 06 bb 5b 97 0b be
       -0.303565 0.017682191 -0.0020516068 -0.13631956
000180 6c 54 09 bc 05 28 0c bd 0c 8b cd 3d 25 34 8f 3b
       -0.008381944 -0.034217853 0.10036287 0.00437023
000190 77 d1 6b 3d 37 52 76 bd e6 93 f6 3d 72 93 20 3e
       0.057572808 -0.060137 0.12039928 0.15681246
0001a0 ee 71 f0 3d 41 c9 49 be 40 89 26 3e d3 f0 98 3c
       0.1174048 -0.19705679 0.16263294 0.018669521
0001b0 7f d5 f2 bd 8b d9 15 3e 27 ef 1c bc 45 0b 80 be
       -0.118571274 0.14633767 -0.009578503 -0.25008598
0001c0 47 1f 5d be 5d 1a 0d be 02 d5 cd 3b 61 32 05 3e
       -0.21593963 -0.13779588 0.006281496 0.130075
0001d0 98 f6 b0 3d b7 f4 78 bd 55 7a 86 bc 76 54 4e 3d
       0.08640784 -0.060780253 -0.016415754 0.050373517
0001e0 ed 6d 83 3d 32 ac 8f 3e 22 03 57 bd ed 23 4d be
       0.06417451 0.28061062 -0.052493222 -0.20033236
0001f0 11 ab 97 bd e1 ef cb 3d 5f 53 24 3e 16 dd c0 3d
       -0.07405675 0.09957863 0.16047429 0.09417169
000200 fc 5c 76 3e e7 19 14 be 39 75 a7 bc 5e 08 ee 3d
       0.24058908 -0.14463006 -0.020441638 0.1162269
000210 29 b6 7b 3e 34 2d 1a be 38 9e 7a be 69 3f 4c be
       0.24581207 -0.15056306 -0.24474418 -0.19946064
000220 de 1f 93 bc fb 41 0f 3e dd 04 98 3d ae 5a 8f 3e
       -0.017959531 0.13990013 0.074228026 0.2799887
000230 7c f0 d0 3d 2b 8f c5 3d 8c f0 d2 3d ea 3a 8e bd
       0.10202119 0.09646448 0.10299787 -0.06944831
000240 73 a7 73 ba 01 6e 69 be 7f 98 88 3d 19 75 7e bd
       -0.0009294666 -0.2279587 0.06669711 -0.06212339
000250 ec e3 c2 3c 8d e2 3c bd 4e e7 e8 bd 5d 5e fd 3d
       0.023790322 -0.046114493 -0.11372243 0.12371514
000260 28 ad 0e be 30 5e ab bd 1f 00 6f 3d 3f 4b 2d be
       -0.13933241 -0.08367574 0.058349725 -0.16923235
000270 f5 cf 9d bd cd 7b 91 bc 9a 56 5c 3e 31 ef be 3d
       -0.0770568 -0.017759228 0.21517411 0.09322966
000280 e5 6c 17 3e 8d 7f 13 be 55 66 7a 3d 91 18 2d bc
       0.14787634 -0.14404126 0.061132748 -0.010564939
000290 c7 de a9 bd a1 9f 4b be 73 be 1a 3d f8 d2 ec bc
       -0.082944445 -0.19885112 0.037779283 -0.028909191
0002a0 c3 1e 21 3e 7b 4e 51 be e3 bf af 3d dd f6 03 be
       0.15734391 -0.20440094 0.08581521 -0.1288714
0002b0 3c 65 cf bd 8b 36 df bd f0 ac 3b be 55 e5 48 be
       -0.10126731 -0.10899075 -0.18327689 -0.19618733
0002c0 39 a6 34 3b fb 4b e0 bd 89 79 a5 bd 7c cc d7 3d
       0.0027564897 -0.10951992 -0.080798216 0.10537049
0002d0 1e f6 b9 ba 3d 69 30 bc 96 1c 3b 3c 87 48 11 3c
       -0.0014187729 -0.010767278 0.01142039 0.0088673895
0002e0 84 12 9b 3d f3 c9 de 3d 52 65 a9 3e 27 5b c8 bd
       0.07571891 0.108783625 0.33085114 -0.09783011
0002f0 84 6d 08 be bb c4 08 3e f4 22 cb 3d 9c 57 5d 3e
       -0.13323027 0.13356297 0.09918776 0.21615452
000300 40 35 81 3d 64 44 28 3e c2 9e 06 3e 4d cb 47 3e
       0.06308985 0.16432339 0.13146499 0.19511147
000310 ff 85 ad bd 86 92 1e 3e f0 fb b2 be c7 6c 9f bd
       -0.08472823 0.15485582 -0.34957838 -0.077844195
000320 2c 21 59 be 1e 1c 44 3e e5 de 07 3c 05 2b 7c 3d
       -0.2120406 0.19151351 0.008292888 0.061564464
000330 e7 87 c6 3d 7b 08 7a bb 28 ab cb bc e3 6e 94 be
       0.0969389 -0.0038152027 -0.024861887 -0.2899085
000340 ee dc b2 bd 7b eb e2 bd 53 8f 21 be be ae a8 be
       -0.08733545 -0.110800706 -0.1577733 -0.32945818
000350 ec 91 fb bd 79 49 10 3d 1e 3f 4f 3e 85 0c 46 3e
       -0.12283692 0.03522632 0.20238921 0.19340713
000360 2b 0a 40 be 45 a9 5f 3e 5e 24 af 3c f2 99 11 be
       -0.18753879 0.21841915 0.021379646 -0.14218882
000370 76 5a d9 3d 94 b1 52 3d 8d 0b 09 3c b3 d8 88 bd
       0.10612957 0.051438883 0.00836457 -0.06681957
000380 b9 14 72 3d c3 1a 05 3e 68 28 4e bd be 09 2f 3e
       0.059101794 0.1299849 -0.050331503 0.1709356
000390 58 c4 23 3e 78 b3 f2 bd 71 f1 08 3e 55 10 89 bd
       0.15992868 -0.11850637 0.13373353 -0.06692568
0003a0 2e 91 a1 bd c3 ea 2d 3e 8e 9f 23 3e 7f f7 b1 bd
       -0.07889019 0.16984086 0.15978834 -0.08689784
0003b0 12 64 0d 3d d4 cf 9d 3d 45 c6 25 bd de 11 3d be
       0.034519263 0.07705656 -0.040472288 -0.18463847
0003c0 f0 86 b0 3d b5 48 bf 3d 3b fa 5d be 51 d6 07 be
       0.08619487 0.0934004 -0.21677487 -0.13265349
0003d0 3e 4a b0 bb 33 84 a2 3e 44 59 c9 3d 11 88 1b bd
       -0.005379944 0.31741485 0.09831479 -0.03797156
0003e0 0f 39 6f bd 86 6e 05 3d 52 c5 a9 be aa 8c 8b bc
       -0.058404025 0.032576106 -0.33158356 -0.017034847
0003f0 2a 32 0a bd 8f 71 0c be 11 c4 81 3d a5 cd be 3c
       -0.033739246 -0.13715194 0.06336225 0.023291418

bias f4 [150]
000000 62 6b 93 be bd a4 d5 3b 40 d3 a0 bd be 69 f2 bd
       -0.28792864 0.0065198825 -0.07852793 -0.11836575
000010 bd ac fa 3b cb f2 8b 3d 91 b5 50 3d 40 9e be bd
       0.0076499865 0.068334185 0.050954405 -0.093075275
000020 4f d0 86 3d 76 55 6e be cf 67 7b bc 48 f9 22 3d
       0.065827005 -0.23274788 -0.015344574 0.039788514
000030 e8 31 8c bd fc 04 9b 3c 2f e6 b3 bd 74 0f 0e be
       -0.06845456 0.018923275 -0.087841384 -0.13873082
000040 7c 18 ed bd 9a 34 82 3d 2d fb b5 3d 7a 24 31 bd
       -0.11576936 0.06357689 0.088857986 -0.043247677
000050 76 95 07 3e a3 75 6a 3d 30 d4 59 bd 86 e7 75 bd
       0.13240609 0.057241093 -0.053180873 -0.06003525
000060 6d fe 8f bd 1a 2c 9c 3d 2e 4e 97 bc a8 f7 3c bd
       -0.0703095 0.07625599 -0.018469896 -0.04613462
000070 57 56 31 bd 0b df 94 bc c8 c7 18 3e b3 3b fe bb
       -0.04329523 -0.018172761 0.1491996 -0.0077585815
000080 9e 62 bf 3c 9e 50 0c 3a 22 f0 bc 3d f5 21 b8 bc
       0.023362454 0.0005352589 0.09225489 -0.02247713
000090 b9 02 18 3c 35 ba 77 3b 3e 76 0c bd b6 74 c4 3d
       0.009277993 0.0037800197 -0.034292452 0.09592573
0000a0 6a f1 ef 3d fb 75 8b bd 72 9f 24 3d 57 bb 94 3d
       0.11715968 -0.06809612 0.04019112 0.07262295
0000b0 18 b7 a2 bd a3 40 82 3d 4f 50 8b 3d 16 c3 08 3d
       -0.079450786 0.06359985 0.06802427 0.033389173
0000c0 7a 71 98 3c 99 bb c6 3d 02 97 66 be 69 df d0 3d
       0.018608797 0.0970375 -0.22518542 0.10198862
0000d0 60 14 e5 bc e2 68 d2 bb 71 5c 63 3e 41 03 45 3d
       -0.027963817 -0.0064211944 0.22203232 0.048098806
0000e0 1e 93 97 3d e0 b3 c5 bd 33 75 0f bd dc 3f 15 be
       0.07401107 -0.09653449 -0.03502388 -0.14575142
0000f0 ef b9 46 bd 9b af aa bd e9 d5 ce bd 31 9b f9 3c
       -0.048517164 -0.08334275 -0.10099394 0.030469509
000100 ac b6 6f bd 03 b1 f1 3c 0e 15 09 bd de af b2 bd
       -0.05852382 0.029503351 -0.033467345 -0.0872495
000110 60 00 1f bd f0 db 56 3c 1c 42 b1 bd 68 d4 2c 3d
       -0.038818717 0.013113961 -0.086551875 0.042194754
000120 35 9b 0e bd e7 c8 39 3c 13 3c 31 3d e6 d8 ca bc
       -0.034815986 0.011339403 0.043270182 -0.024761628
000130 91 a2 0c 3e 8a 47 97 3d d1 01 92 3d de 32 70 3c
       0.13733889 0.07386692 0.07129253 0.014660565
000140 eb 99 18 bc 7c 9f 91 bd c1 cd 26 3d 44 26 99 bd
       -0.009314041 -0.07110497 0.040723566 -0.07478002
000150 df 88 8b bb 34 89 c3 b9 af 3b 9f 3c 26 57 a9 3b
       -0.0042582597 -0.00037295523 0.019437639 0.0051678596
000160 e8 04 c7 bc 58 b5 87 3c 6c 6a 06 3d e5 97 6c 3d
       -0.024294332 0.016565964 0.032816336 0.057762045
000170 04 ec d0 3c 8b 9a 99 3d b4 81 bd 3d 67 e3 8a 3d
       0.025503166 0.0750018 0.092532545 0.06781655
000180 9d da 49 3d 77 cf 1f bc 40 18 bc bd 91 c0 b9 3d
       0.04928075 -0.009754053 -0.09184313 0.09069932
000190 43 e8 3d 3d 91 f2 8b bd 7b 13 4b be 12 6a 31 bd
       0.04636408 -0.06833375 -0.1983165 -0.043314047
0001a0 b7 f7 94 ba bc 11 84 3d 6c f3 e0 bc df bf 9c bd
       -0.0011365329 0.06448695 -0.027459823 -0.07653784
0001b0 13 5d 80 be 59 19 39 3e bc f2 db 3d df c6 5d bc
       -0.2507101 0.18076076 0.10739657 -0.013536184
0001c0 02 98 31 be e1 57 09 3e 43 0b 7e 3d 5d 18 fd bc
       -0.17343143 0.1341243 0.06202246 -0.030895406
0001d0 2e b4 c1 bd 33 08 5c bd 62 3f 22 3d e5 3b 04 3e
       -0.09458195 -0.053718757 0.039611228 0.12913473
0001e0 d9 8c 81 3c c6 57 6e 3d 1e e7 c6 ba cc e8 bc 3c
       0.015814232 0.058189176 -0.001517508 0.023060225
0001f0 d5 3a ab 3d f8 21 0a bc b4 25 e2 3c b9 59 b0 3d
       0.08360831 -0.00843095 0.027605869 0.08610863
000200 94 47 bf 3d 4c e8 42 bc 5f 0e f3 3c dd 13 64 bb
       0.09339824 -0.011896204 0.029669939 -0.0034801879
000210 6a 3a 04 3e 27 e4 ed 3a e0 31 db 3d 85 33 84 3d
       0.12912908 0.001814966 0.10702872 0.06455139
000220 4b 55 0b 3e 8d e0 db 3d ef 72 da bd eb 29 db 3d
       0.13606755 0.10736189 -0.10666453 0.107013546
000230 7b 6e 8e 3d ab e1 91 bb af 2b b3 bd 1d 86 90 bd
       0.06954666 -0.0044519505 -0.08748566 -0.0705683
000240 30 b4 55 bd 80 de 8c bd 77 91 05 3e df 4f 2b 3d
       -0.052173793 -0.06878376 0.13043772 0.041824218
000250 e1 32 b4 3d ee df 9d 3b
       0.08798767 0.0048179543

weight f4 [150, 150]
000000 0a 33 00 3e d0 0b f0 3d f1 21 ce 3d 06 29 0f bd
       0.1251947 0.11721003 0.100650676 -0.034951232
000010 ba f6 b7 3d 88 eb d0 3b 4a 5f 2a 3d 04 3e 3a 3e
       0.08982606 0.0063757338 0.04159478 0.1818772
000020 46 a0 8a bd 84 f4 8a bd 42 34 3e be 81 ad b6 3b
       -0.06768851 -0.06784919 -0.18574622 0.0055748825
000030 6e fe 15 be 64 ce 3f 3e 5a 0b 27 3e b6 db 97 bd
       -0.14647838 0.18731076 0.16312924 -0.074149534
000040 37 95 04 be 55 21 d2 bd 7e ab 9f 3c ec 3c 34 3e
       -0.12947546 -0.10260264 0.019490954 0.17601365
000050 5b 3d 93 3d d4 04 28 3e 8c 9e 06 3d 33 64 7a bd
       0.07189437 0.16408092 0.032866046 -0.061130714
000060 91 26 91 3c 94 5f c0 bd 5e cf 5d 3e 73 a3 37 3d
       0.017718585 -0.0939323 0.21661136 0.04483361
000070 00 ef 71 be cc bf 5e 3e 4e 06 62 be a0 e3 c8 3e
       -0.23626328 0.21752852 -0.22072718 0.39236164
000080 00 49 b3 3d d3 2e 47 bd 74 c8 3b be 03 cd bd 3d
       0.08754158 -0.04862864 -0.18338186 0.092676185
000090 56 2a 70 be 9c 99 92 3d 49 0b c7 3d a5 73 3f 3d
       -0.2345365 0.07158205 0.09718949 0.046741147
0000a0 dd fb 93 3d 69 6d 1d bd c0 8d 14 be 63 d9 ff bd
       0.072257735 -0.03843442 -0.14507198 -0.12492635
0000b0 7b 15 97 bc 7c 4b da 3d 72 ff 53 3b 0d fb d6 3d
       -0.01844286 0.10658929 0.0032348302 0.10497103
0000c0 65 56 46 bd b6 08 83 be 23 ee b5 3c 57 7b c5 3d
       -0.048422236 -0.25592583 0.022208279 0.09642666
0000d0 80 99 78 bd 1c 95 0b 3e c6 b1 d0 bc e3 63 3e be
       -0.060693264 0.136311 -0.025475394 -0.18592791
0000e0 83 96 ff 3d c0 c7 90 3d 5f 6c 6f be 7e db 65 3e
       0.1247988 0.07069349 -0.23381184 0.22447011
0000f0 27 51 3a 3e cb b1 16 3d 15 d3 a0 3b 6d e6 ea 3d
       0.1819502 0.03679065 0.0049079754 0.114697315
000100 91 b2 e6 bd 1d 6f 49 3d 3a 4b ac 3d 66 3a 8a bd
       -0.112645276 0.04917823 0.08412786 -0.0674942
000110 fb 55 4b bd 24 de ab be fe e4 a6 bd 30 65 dc 3c
       -0.049642544 -0.33567917 -0.081491455 0.026903719
000120 a5 d1 cc ba 2f 5d 44 bd 1c 75 e6 bc 63 98 95 3e
       -0.0015626444 -0.04794043 -0.028132014 0.29217824
000130 ac d3 ec 3d e6 a2 f3 3d 06 2e 2f 3e ae bd 2d bd
       0.11563811 0.11896305 0.171074 -0.04241722
000140 d6 f5 67 3c 80 5d bf 3c 70 05 2f be de 18 c7 3d
       0.014157733 0.023360014 -0.17091918 0.0972154
000150 b6 1e 9f bd 38 6f 13 be 14 dd 65 be 18 3a 6b bd
       -0.077695295 -0.14397895 -0.22447616 -0.05742845
000160 2f 9d 0d bd 5a d6 50 3c 38 f3 83 3d c4 3e e6 3d
       -0.03457373 0.012746418 0.06442875 0.1124244
000170 9e 26 a7 bd 0a cf 51 be 91 e1 03 bd 07 e5 66 3d
       -0.081616625 -0.20489135 -0.03219754 0.05637076
000180 12 5c a7 3d b3 cf 5f bd 38 8c 67 bc cb a9 36 3d
       0.08171858 -0.054641437 -0.014132552 0.04459552
000190 dd 82 48 3e 5b 6d 66 bd 0b 10 93 3e a6 32 0c 3d
       0.1958117 -0.056256633 0.28723177 0.03422799
0001a0 66 a2 71 bd 46 01 42 be 10 18 7e 3d 09 c9 2e bd
       -0.058992766 -0.18945798 0.062034667 -0.04267219
0001b0 fa d4 1f be d3 3b ef 3d cd 9e 27 bc 74 53 5f bd
       -0.15608588 0.116813324 -0.010230732 -0.054522946
0001c0 8e 5d 33 bd 36 d5 d2 3d 5f df 12 3e a9 1c 21 3d
       -0.043790393 0.10294573 0.14343022 0.039333973
0001d0 dc 82 20 bd 9f a7 91 3c 99 e4 20 3c 51 ce a3 3d
       -0.039187297 0.017780123 0.009820127 0.07998336
0001e0 46 2b 84 3d 74 8f 42 3d 67 f8 4f bd 3e 39 8d be
       0.06453566 0.04750009 -0.050774004 -0.27582735
0001f0 11 80 0c 3e 5b dd 84 bd 4e 3f 7a 3e 09 6d 1f 3e
       0.13720728 -0.06487533 0.24438211 0.15568937
000200 eb 8e b9 3d 5a 50 1a bd c1 3f b0 3c 7b ff c0 bc
       0.090604626 -0.037674285 0.021514775 -0.023559323
000210 db 71 93 bd ed ba 99 bd 8b f1 59 3e 2e 78 36 3e
       -0.071994506 -0.075063564 0.21283548 0.17819282
000220 a0 8b b2 3c 25 c1 66 3d 42 e9 60 bb 4a 3a 00 3e
       0.021795094 0.05633654 -0.003431872 0.12522236
000230 11 a6 6d bd d0 96 6a 3c 09 fa 6a bd 25 25 a3 bc
       -0.0580197 0.014318183 -0.05736736 -0.019915173
000240 36 df 9d be 10 a9 24 bd 79 b8 0e bc f6 4f 07 3e
       -0.3083436 -0.040200293 -0.008710974 0.13214096
000250 18 5c 09 3e 97 c4 76 3d 05 3a 9a bd 56 cc d0 bc
       0.13414037 0.060246076 -0.075305976 -0.02548806
000260 47 5f 2f bd cd 36 3d 3d 23 19 15 be 29 fc 95 be
       -0.042815473 0.04619484 -0.1456037 -0.29293945
000270 cf 59 f9 3d 45 ac d7 3d 9f 51 e0 3c 76 35 7f bd
       0.12175333 0.10530905 0.02738267 -0.062306844
000280 7f 80 dd 3c 52 be 02 3c 80 79 3b 3e a4 13 cf bd
       0.02703881 0.007979946 0.18308067 -0.10111168
000290 93 8c 99 3d a1 87 c2 3d e4 42 1f 3c 9a e5 2d 3e
       0.074975155 0.094985254 0.009720538 0.16982117
0002a0 59 62 dc bd f3 c1 32 bd f2 fd 4f 3e 23 20 48 be
       -0.10760946 -0.043641996 0.20311716 -0.19543509
0002b0 64 ef 1f be e2 66 a3 bc f3 7d 68 3e 24 75 aa bd
       -0.15618664 -0.01994652 0.22704296 -0.08323124
0002c0 00 d9 7f 3e e4 ad 91 3e 57 d5 a9 bd 0c 73 22 be
       0.24985123 0.2845298 -0.082926445 -0.158642
0002d0 f9 dc d1 bd f2 f6 b6 3d 3c 50 c1 3d c9 04 8e 3d
       -0.10247225 0.0893382 0.094391316 0.069345064
0002e0 34 56 05 bd 4f cd bc 3d ba bd ad bd 40 d5 64 bc
       -0.032552913 0.09218847 -0.08483453 -0.013966858
0002f0 65 db 56 3c fb b4 9a bb 48 b0 91 bc b5 7b 8b bc
       0.013113831 -0.0047212816 -0.017784253 -0.017026762
000300 43 f0 53 be 55 3d 93 be 59 e8 6e bc b3 1e d5 bd
       -0.20697121 -0.2875773 -0.014581763 -0.10406246
000310 a5 98 4b 3e 7d 6e b0 bb d2 ce ff 3c 45 65 f2 3c
       0.19882448 -0.005384265 0.03122655 0.029589305
000320 0b 4b c0 3d 08 a4 20 be bd 19 31 bc 4d ad f5 bd
       0.09389313 -0.15687573 -0.010809359 -0.11995945
000330 37 0a 9a 3d b0 73 0b be 84 4d 07 3c 7c c6 3f 3e
       0.075214796 -0.1361835 0.008258227 0.1872806
000340 08 6e c8 bd 0d f2 2b be d0 5d 80 bd 2a 45 4d 3e
       -0.09786612 -0.16791554 -0.06267893 0.20045915
000350 a1 7d 20 be 9c 34 9c bd c6 6d 24 3b f3 64 9c bd
       -0.15672924 -0.07627222 0.0025089844 -0.07636442
000360 1d f5 6e 3d 0e 1b 40 3e e6 f3 82 3e 46 8a 3d be
       0.058339227 0.1876032 0.25576705 -0.18509778
000370 8c 3a a2 3e bc c1 e4 bc 81 4d ea ba 5c 9c ae bd
       0.31685293 -0.027924411 -0.0017875881 -0.08525917
000380 b9 b0 76 3e 01 33 bd 3d 06 e6 2b bd 4a 46 aa 3d
       0.24090852 0.09238244 -0.041967414 0.08314188
000390 e2 a8 08 be e6 e9 db 3b f6 09 49 bc 79 d6 46 3e
       -0.13345674 0.0067112325 -0.012270441 0.19417752
0003a0 58 04 64 3c 6e 73 ab 3c da b4 2d be 79 b5 ea bb
       0.013917051 0.020929065 -0.1696352 -0.0071627465
0003b0 06 5b 21 3e 17 48 d2 3b 7e da 6c 3d 25 76 9c bd
       0.15757379 0.006417285 0.057825558 -0.07639722
0003c0 bf 45 16 3d 14 9a c9 3b 2f e4 a1 3d 52 68 53 3c
       0.03668761 0.0061524007 0.07904851 0.01290329
0003d0 44 06 28 3e 4b 81 db bd 4d 0a fa bd 38 bf 02 3e
       0.1640864 -0.1071802 -0.12208996 0.12768257
0003e0 c2 cc dd bb 60 72 8d be 1d 32 7c bd 0c 20 1d be
       -0.006768794 -0.27626324 -0.06157123 -0.15344256
0003f0 b3 04 e6 bb 97 00 2c 3d fb 6d 3c 3d ad aa 8f bd
       -0.007019603 0.04199275 0.046003323 -0.07014976

bias f4 [150]
000000 fb ed b7 bb 50 7d b2 bd ab 42 5b bd 2b 39 00 3e
       -0.0056130863 -0.08715308 -0.053530376 0.12521808
000010 fe 7d 3a 3e f4 80 d9 3c 5d ad 0e bd 42 f6 4f 3e
       0.18212125 0.026550747 -0.0348333 0.20308784
000020 9d 96 f1 3c 46 5d 98 bd be 5e e6 3c fc 07 0d bd
       0.029490763 -0.074396655 0.028121348 -0.034431443
000030 10 ae 1d 3c e3 d8 74 bc 36 d2 de 3c cd bf 96 ba
       0.009624019 -0.014944288 0.027199846 -0.0011501253
000040 4c b5 32 bd f9 49 e2 3d 03 2b c4 bc 5c 42 14 be
       -0.04362993 0.110492654 -0.02394629 -0.14478439
000050 53 cd ad 3d 00 c2 1b bd 0c 2b 68 bd 73 48 c1 3c
       0.08486428 -0.03802681 -0.056681678 0.023594117
000060 c9 a9 a2 3d 8a 9b 1d 3d b2 05 81 bd 2e c8 99 3c
       0.0794254 0.03847841 -0.062999144 0.01877221
000070 e7 83 b5 3d 68 33 d7 3d 98 37 2e 3d bd 33 85 bd
       0.08863049 0.10507852 0.042533487 -0.06504009
000080 08 38 21 bc a8 71 96 bd 67 c4 e9 3d 7c b4 01 3e
       -0.009840019 -0.07345897 0.11414414 0.12666506
000090 0b 89 f4 3c 2b ba fa 3d 5b d4 42 3e c7 3a 0a 3e
       0.029850503 0.1224254 0.1902632 0.13498984
0000a0 8d 57 53 3e f7 0e 23 3d eb b4 94 bd 8d ab ed 3d
       0.20638867 0.039809193 -0.0726107 0.11604986
0000b0 5b 54 25 3d 04 8a c0 bd 8b 2e 10 3d 7e 8c 06 3d
       0.04036365 -0.094013244 0.035200637 0.032848828
0000c0 46 3d aa 3d ad 7c 92 bc 96 59 f3 3d 65 69 e8 bd
       0.08312468 -0.017881716 0.118823215 -0.113482274
0000d0 e3 4c f0 3d b2 97 39 3e 82 31 dd bd 10 a7 cf 3b
       0.11733415 0.18124273 -0.108004585 0.006337054
0000e0 7c 06 2f 3d e6 7c 27 3d b4 d5 c7 3c 5e fb 56 3e
       0.042730793 0.040890597 0.024393894 0.20994326
0000f0 85 c9 e2 bd d4 ac fb bc 18 bc 77 3d a5 eb c1 3c
       -0.11073593 -0.03072206 0.060482115 0.023671934
000100 ff a9 c5 bc 76 d7 fc bd b9 bb 90 bd dd 94 60 bd
       -0.024128912 -0.123457834 -0.07067055 -0.054829467
000110 ef 50 ca 3d 3c e7 a6 bc a0 5d a8 ba 1c de c2 3d
       0.09878718 -0.020373933 -0.0012845285 0.0951502
000120 14 a9 c1 3d d5 4b c6 bd e7 6e 30 bd 55 30 80 3d
       0.09456077 -0.096824326 -0.043074515 0.062592186
000130 ed f4 20 bd 56 34 db bd 11 27 6b bd c8 25 e3 3d
       -0.03929608 -0.10703342 -0.057410304 0.110911906
000140 6e 27 af 3d d9 af 1c 3d 46 d7 4c be 57 a1 13 be
       0.085524425 0.03825364 -0.20003995 -0.14417015
000150 7b 10 a2 bc 98 07 96 bc 70 af 55 bd f5 da 3a 3e
       -0.01978325 -0.018314168 -0.052169263 0.18247588
000160 3b 8f 61 bc 0c 6f bf bd c2 98 65 3b cb ab 16 3e
       -0.013767059 -0.093473524 0.0035033678 0.14713971
000170 4a f4 db bd 89 04 5a 3d 81 7f 06 3d 1d 9a 4c 3c
       -0.10739954 0.05322698 0.03283644 0.012487915
000180 98 46 82 3b ce 4d 24 bd a9 f5 0c 3d 3a 3c 5d 3d
       0.0039757006 -0.040113263 0.034413967 0.054012515
000190 38 47 02 3d e6 e2 ea 3c 05 d9 26 3d 1b 31 4d be
       0.0318062 0.028672647 0.04073431 -0.20038263
0001a0 ca f9 83 3d 9e 17 00 bc 38 ab 98 3c 9b 0a 70 bd
       0.06444128 -0.007818131 0.018636331 -0.058603864
0001b0 e2 55 0d be fa 15 42 bd f0 ae 20 3e 2c a3 b8 3d
       -0.13802293 -0.04738424 0.15691733 0.090154976
0001c0 f8 df 53 be 18 af 0c bd 5a f4 63 bb 3c de 81 bd
       -0.20690906 -0.03434667 -0.0034783096 -0.06341216
0001d0 15 3e 16 bd 01 86 d4 bd 89 f2 82 3d 05 5a 78 bd
       -0.0366803 -0.10377122 0.06393916 -0.060632724
0001e0 43 d4 62 bd 1c 45 a4 3d c3 e5 f1 3d 75 09 66 3d
       -0.05537821 0.08020994 0.11811402 0.056161363
0001f0 6b d7 16 bd 8d da 05 bd f0 87 d0 bb 0b 6e c2 bc
       -0.036826532 -0.03267913 -0.0063638613 -0.023734113
000200 5e 95 aa bd a6 c2 2f bc b9 1c d4 bd 9a af c3 ba
       -0.08329271 -0.01072756 -0.10357041 -0.0014929653
000210 6f 54 80 3d c2 c2 4b 3e c7 cb 39 be 26 ad ab 3d
       0.062661044 0.19898513 -0.18144141 0.08382635
000220 94 d8 50 bd d4 fa 57 bd 53 a6 50 be b3 b8 06 3d
       -0.050987795 -0.052729443 -0.20375948 0.032890987
000230 01 20 ab 3c 09 45 9d 3d 87 16 2c bc 03 df ca 3c
       0.020889284 0.07679183 -0.010503418 0.024764543
000240 fa 58 11 bd ea d6 1d 3b a9 c6 81 bb 82 e6 37 3d
       -0.035485245 0.0024084398 -0.0039604497 0.044897564
000250 ca 39 3b 3d c2 bb 1a 3e
       0.04570941 0.15110686

weight f4 [150, 18]
000000 86 0b e9 3d 79 3e fc bb df 21 a8 3b c6 82 f9 bc
       0.11379151 -0.007697877 0.005130991 -0.030457865
000010 84 d0 81 3c c3 8b b1 bc 1b f3 d8 bc 62 17 ac bc
       0.015846498 -0.021673089 -0.02648311 -0.021007244
000020 d9 7f 8d bd cf d9 36 3d 37 df 5b bc d3 64 80 be
       -0.06909151 0.044641312 -0.013419918 -0.25076923
000030 4b 7a 91 3d 45 fc 5f bc 29 ed 4e be 98 92 0a be
       0.07103404 -0.013670986 -0.20207657 -0.13532484
000040 f4 f4 9f 3c ad 50 17 be 5c 0a c8 bc c0 66 e6 3b
       0.019525982 -0.14776869 -0.024419002 0.0070312917
000050 29 36 57 be a4 da 70 3d 5c d3 d0 3d 55 f1 30 3d
       -0.21016754 0.058802262 0.101965636 0.043198902
000060 69 c3 80 bd e4 52 c9 3d d4 ce 15 bd 50 f9 c4 bc
       -0.062872715 0.09830263 -0.0365742 -0.024044663
000070 82 b4 46 3e b8 28 63 be 69 6e e0 bc 34 e6 5a 3d
       0.19404796 -0.22183502 -0.027396398 0.053442195
000080 5c ac 99 be f4 a3 30 3e 98 33 2c 3e 75 e3 89 bd
       -0.30014312 0.17250043 0.16816556 -0.06732837
000090 34 f6 84 3e 89 5e 0d be 57 65 38 3e e8 24 1c 3c
       0.25969088 -0.13805594 0.18007408 0.0095302835
0000a0 f1 7d cd 3b 63 b0 3b 3e 62 e9 6b bd c7 ef 32 3e
       0.006271117 0.18329005 -0.057595618 0.1747428
0000b0 fa 53 49 3d 88 8a d5 bc c6 75 80 bc 48 37 b9 3d
       0.049152352 -0.026067033 -0.015681159 0.09043747
0000c0 4a 92 e5 3d 3a 65 0c be 2d a5 24 bc c5 ae 90 bd
       0.11209543 -0.1371049 -0.010049147 -0.07064585
0000d0 83 bd 8f 3d 3e ae 82 be 8f a2 64 3d c1 f0 f8 3c
       0.07018568 -0.2552356 0.05581909 0.030388238
0000e0 ac 9c d6 3d dd fc 24 3d 33 43 fc bc b1 b0 08 bb
       0.104791015 0.04028021 -0.030793762 -0.002085727
0000f0 bc 1b f0 bc a6 8e af 3d b8 ba f0 bd 36 61 eb bd
       -0.0293101 0.0857213 -0.11754364 -0.11493151
000100 e9 d5 e6 3d d4 6f 2a 3e 97 35 32 3e 67 dc 69 bd
       0.11271269 0.16644222 0.17403255 -0.057094958
000110 36 58 23 3e d7 9e 51 3e 2a cd d5 bd df 07 c0 3d
       0.15951619 0.20470749 -0.104395226 0.09376501
000120 21 b5 4d be 31 95 10 be ca 9e 59 bd 5d ae c4 bc
       -0.20088626 -0.14119412 -0.05312995 -0.024008924
000130 df e2 44 3d 4e a7 97 bd 5b ae 11 3e 18 18 ab 3c
       0.048067924 -0.07404958 0.14226668 0.020885512
000140 f4 bc c4 3d eb d3 c9 bd 80 fe a3 bd 2f 62 76 3e
       0.096063524 -0.09854873 -0.080075264 0.24060892
000150 3b 4d 70 bd 80 72 44 bd b4 32 74 3d 02 44 94 3c
       -0.058667403 -0.04796076 0.059618667 0.018098835
000160 85 61 2b 3d 7a ab a3 be a4 b8 66 3e 16 74 8f be
       0.04184105 -0.31966764 0.22531372 -0.28018254
000170 df 2e da 3c 29 24 5d bb 1c 5a 6f bd 66 82 5e 3e
       0.026633678 -0.0033743477 -0.058435544 0.2172943
000180 fa 1c c0 39 7e bb 73 bd c0 21 35 3d 41 1c 38 3d
       0.00036642683 -0.05950498 0.04422164 0.04494882
000190 19 b8 d6 3c ad 31 d9 3d fb 61 3c 3d 0a e6 de 3d
       0.026210831 0.10605178 0.04599188 0.1088372
0001a0 81 a3 44 3e 3d eb 45 3d de 12 94 bd 3f 8b f4 3d
       0.19202997 0.048320044 -0.07230161 0.119406216
0001b0 06 85 e7 3c bb ab 11 be f4 ab c1 bd d3 8c 4d bd
       0.028261673 -0.14225666 -0.094566256 -0.05018313
0001c0 69 b2 64 be 14 05 ad bd ad db 6a be 0a 04 44 3e
       -0.22333683 -0.08448234 -0.22935362 0.19142166
0001d0 aa 77 bd 3d 06 88 e5 bc ff b8 97 3b bc cc 26 be
       0.0925134 -0.028018963 0.0046302075 -0.16289037
0001e0 eb e3 54 3e 10 7f 47 bd 1f d4 cd bb 3c 84 0b bc
       0.20790069 -0.04870516 -0.0062813903 -0.008515414
0001f0 ed 31 8d 3e f5 d6 8f bd 2b ea a0 be 91 30 e3 bc
       0.27577153 -0.07023422 -0.31428656 -0.02773312
000200 83 22 bd bd ae 68 b9 3c ae a6 49 bd ea 14 be bd
       -0.09235098 0.022632923 -0.049231224 -0.09281333
000210 16 db 26 be 6d 1c b6 bd 6a f6 a1 bc ca 03 12 bd
       -0.16294512 -0.088921405 -0.01977082 -0.035648145
000220 b3 e9 ca 3d eb 3c 02 3e e8 ff be be 95 ef fe 3c
       0.09907856 0.12718551 -0.37304616 0.031120101
000230 89 9b df 3d 39 3e e0 3c 13 eb 01 bd 17 d2 f4 bc
       0.10918338 0.02737342 -0.031718325 -0.029885335
000240 8f d3 5d 3e 72 67 81 3d 59 5c 3c bc 85 95 8a be
       0.21662734 0.06318559 -0.011496627 -0.270672
000250 d8 a7 fb bd 51 9a 06 3e b4 0a 34 3d e2 d0 15 3e
       -0.12287873 0.13144805 0.04395552 0.14630464
000260 82 e8 d1 bd 88 63 00 bc 6f 2d 41 be c1 c4 23 3e
       -0.102494255 -0.00783623 -0.18864988 0.15993024
000270 fd 33 0b 3d 4a a9 99 bd e4 8b 81 3d 5b 3d 25 be
       0.033985127 -0.075029925 0.0632551 -0.16136687
000280 53 6a 0f 3e 11 b0 35 be e4 ab 63 3d 7f 78 96 3d
       0.14005403 -0.17742945 0.05558385 0.073472016
000290 19 4f d4 bd 67 6e 21 be f7 45 5d 3e c9 d7 fe 3d
       -0.10366649 -0.15764771 0.2160872 0.124435015
0002a0 20 77 01 bc 26 6a f4 3d c7 0f 49 be 54 4a 15 be
       -0.007901937 0.11934309 -0.19634925 -0.14579135
0002b0 88 cf 01 be ee bd 92 3d 6c 1d c1 3d b8 96 d8 bd
       -0.12676823 0.071651325 0.0942944 -0.10575622
0002c0 d1 33 5e 3d a7 17 65 3d 0b ca dc 3b a0 48 a3 3d
       0.054248635 0.05593076 0.0067379526 0.079728365
0002d0 a6 08 04 be 49 b2 17 3e 6e 30 da 3d 02 e4 d2 3d
       -0.12893924 0.14814104 0.106537685 0.10297395
0002e0 06 f4 41 be ae 2f 8f 3d e0 b1 76 bd 67 95 41 3e
       -0.18940744 0.06991516 -0.06022823 0.18904649
0002f0 91 ce 13 3d 03 1c 5b 3c 37 ff 20 3d 81 f8 c0 bd
       0.03608567 0.013373378 0.03930589 -0.09422398
000300 b4 77 e0 bd ca 92 d5 bd 5d ef 4e 3e 67 43 dc 3c
       -0.109603316 -0.104283884 0.20208497 0.026887609
000310 4c bc 0c bd bc 0e 11 be f3 a8 11 bc 9e 2c 62 bc
       -0.03435926 -0.14165777 -0.008890378 -0.013804583
000320 73 16 82 bd 4f 0f d5 3c 6e 2c ac bd ae a1 fe bd
       -0.06351938 0.026008276 -0.08406912 -0.12433182
000330 08 b3 5b 3d df 3a ac 3c ab ff 8e 3d bd f8 8e bc
       0.053637534 0.021024166 0.069823585 -0.017452592
000340 9e 16 c1 bd 4a e2 9c ba 07 89 a1 3d 5a e7 cd 3c
       -0.09428142 -0.0011969295 0.07887464 0.025134731
000350 ba 92 5c be 4a 4e 9b 3d 11 3e eb bb e4 f6 41 bd
       -0.21540347 0.07583292 -0.0071790298 -0.047354594
000360 58 60 9f 3c 74 24 b8 bd 7c 13 54 3d b4 5f e7 bb
       0.01945512 -0.08991328 0.051776394 -0.0070609692
000370 ad 61 91 3b 06 94 7e bd 8c 48 18 3d d9 5c df 3d
       0.0044366927 -0.062152885 0.03717856 0.10906381
000380 d9 6b 26 be 0f 56 3d bd b5 9b 78 3d f7 f4 b5 3c
       -0.16252078 -0.04622465 0.06069537 0.022211535
000390 49 4d d9 3b 70 ae 09 3e 40 72 25 be 05 63 72 bc
       0.0066315276 0.13445449 -0.16156864 -0.014794116
0003a0 a7 78 bd 3d fb 10 04 3b 41 4a dc 3a 48 b1 20 3d
       0.09251528 0.0020151723 0.0016806797 0.03923157
0003b0 b4 08 0a be c9 29 5a 3e 29 7e 93 bc 2b c5 89 3d
       -0.13479882 0.21305002 -0.018004494 0.0672706
0003c0 b5 df df bb 56 8b 0d 3d b3 68 2c 3e 54 57 3c 3e
       -0.006832088 0.03455671 0.16836815 0.18392688
0003d0 a5 c5 5e bd 7a aa 8c 3d 23 49 85 3d 12 84 0c be
       -0.054387707 0.06868453 0.0650809 -0.13722256
0003e0 4c db 4a 3e b8 ad 65 b8 ef 1a 82 be 55 38 39 3e
       0.19810218 -5.4759643e-05 -0.25411174 0.18087895
0003f0 52 74 10 bb 64 a0 8d 3d 46 43 04 3f 26 80 1b be
       -0.0022041989 0.06915358 0.5166515 -0.15185603

bias f4 [150]
000000 64 6e 1f 3d 70 f4 f2 3d e1 90 01 3e 1a bf 78 3e
       0.038923636 0.11863029 0.12652923 0.2429165
000010 63 72 03 be 56 0d dc 3d 30 2f 4a 3e 53 56 8e 3e
       -0.12836604 0.10744731 0.19744563 0.27800235
000020 e4 3e b3 3d 92 8e 97 bb cd ed ab 3d 26 e6 6c bc
       0.0875223 -0.00462515 0.08394966 -0.014459169
000030 5e e1 a7 3d 47 43 10 3e 64 57 2d be 80 0f 8e 3d
       0.08197282 0.14088164 -0.16927868 0.0693655
000040 c9 13 40 3e a4 ba cc 3d c2 d0 db 3e 2b e6 8d bc
       0.18757547 0.099965364 0.42932707 -0.017321667
000050 e9 56 f2 bd b0 1f e0 3c 52 1d 1e bc cd 4c ca 3c
       -0.11832983 0.02735886 -0.009650545 0.024694825
000060 00 ee 73 3d c8 ec db 3c b5 89 0c 3d 61 c7 97 3d
       0.059553146 0.026846305 0.034311015 0.074110754
000070 66 7a 76 3e 19 3a 88 be 7f a9 7c be c6 0a a7 3d
       0.24070129 -0.26606825 -0.24674033 0.08156352
000080 86 0e 52 bd 57 0b c2 3e 9a 0a ea bd 5e 17 e3 be
       -0.051283382 0.37899277 -0.11427803 -0.44353765
000090 cd 41 79 3e 7a c9 36 bc 0b 81 1e bd ca 23 92 bd
       0.24341507 -0.011156434 -0.038697284 -0.071357325
0000a0 cf 58 ea 3c 03 35 3d bd 07 be b4 3e a3 0a 94 bc
       0.0286068 -0.046193134 0.3530123 -0.018071478
0000b0 37 f0 b2 be 55 79 8a be 9b 35 c3 3e a7 77 78 bd
       -0.34948894 -0.27045694 0.38126835 -0.060660984
0000c0 5d 94 79 3d d1 a2 d4 bd d9 f7 35 3e 64 86 a4 bd
       0.060932506 -0.10382617 0.17770328 -0.080334455
0000d0 54 2d 88 3d 13 9d 58 3e 7d fa 86 be da cd fc 3c
       0.06649271 0.21153669 -0.26362982 0.030859876
0000e0 b2 e0 c9 bd 7b 3e 51 3a 84 c0 4d be 21 5a 19 3e
       -0.0985731 0.00079820276 -0.2009297 0.14975788
0000f0 89 71 ff be 07 02 ee 3d 0d f3 fd 3d cb f5 31 38
       -0.49891308 0.116214804 0.12399874 4.2429e-05
000100 4e f5 4a 3e 6f bc 20 be ae eb d5 bd f1 67 b6 3c
       0.19820139 -0.15696882 -0.10445343 0.02226636
000110 90 f6 b8 3d 83 3a 5f bd 51 cc 06 be 5e 1e d6 3e
       0.09031403 -0.05449916 -0.13163878 0.41820043
000120 cd bc 5b 3e 5f 67 0f bc ca 9d 14 ba f6 b8 67 be
       0.2145874 -0.008752673 -0.00056692644 -0.22629151
000130 08 30 f9 3c fe b3 c3 3e 2b 66 dc be f0 f5 28 be
       0.03041841 0.3822326 -0.43046698 -0.16500068
000140 a8 7e 1c 3e 73 e9 b0 3d 2a 98 f8 bd 44 9c dc 3d
       0.1528269 0.08638277 -0.12138398 0.10771993
000150 00 42 57 be 99 28 04 3e 0c 34 ef bd 5a 1e 8c 3e
       -0.21021271 0.12906112 -0.11679849 0.27366906
000160 fb a2 82 bd fd fb fc bd 68 02 42 3e 79 bc 6f bd
       -0.06378742 -0.123527505 0.1894623 -0.05852935
000170 3f b0 76 be b9 72 61 be 9e a9 e4 3d a0 9a 07 be
       -0.2409067 -0.2201642 0.111651644 -0.13242579
000180 84 2c 98 bd e9 ba a6 be ba bc 9e 3d c8 71 41 bd
       -0.07430366 -0.32564476 0.077508405 -0.04722765
000190 c7 69 16 3e d0 ae b5 3d 95 78 9a be d3 4b 93 3d
       0.14688788 0.088712335 -0.30170122 0.07192197
0001a0 2b 68 38 bc 46 38 0f be f8 5c 88 bc 04 ae 59 3e
       -0.011255304 -0.1398631 -0.016645893 0.21257788
0001b0 17 b8 36 be 3b 02 3a bc 66 f4 95 bc b2 b8 33 3d
       -0.17843662 -0.011353071 -0.018305015 0.04387731
0001c0 25 b5 08 3e 7b e7 10 bd a4 fc 85 3d 1b 55 a1 3d
       0.13350351 -0.035377007 0.06542328 0.07877561
0001d0 a8 0f b2 3d 02 84 51 bd 21 01 28 be c9 ae 8b bc
       0.086943924 -0.051151283 -0.1640668 -0.017051117
0001e0 14 9a 52 be 9a 56 0b be 37 e1 30 be b7 a8 a7 3d
       -0.20566589 -0.13607255 -0.17273413 0.08186477
0001f0 3e eb e6 bd b4 bf 2f 3d d4 b9 97 3d fd e5 80 3e
       -0.11275338 0.04290743 0.07408491 0.25175467
000200 20 5d 6b 3e ee 69 f0 3e 9f 68 9c bd 4e c3 33 bd
       0.22984743 0.46955818 -0.076371424 -0.04388743
000210 e8 51 f4 3d 4e 59 50 be 0e 0c 1e 3d cf b1 09 bd
       0.11929685 -0.20346567 0.038585715 -0.033616837
000220 39 c6 c2 3d b6 6a 51 3e 9f 67 51 bd c6 2c 2a be
       0.09510464 0.20450863 -0.05112421 -0.16618642
000230 f7 bd 27 be 36 2e 8f bd 7e 82 e2 3b 92 1a 1a 3c
       -0.1638106 -0.06991236 0.0069125285 0.009405749
000240 bb d5 95 3d c3 34 54 3e 71 ae a6 bd 36 ad 96 3e
       0.073161565 0.20723252 -0.08138741 0.29429024
000250 b6 3f 68 3e 0e 48 b2 bd
       0.22680554 -0.087051496

weight f4 [150, 150]
000000 42 44 18 bd 85 c2 99 bd ad 60 63 3d fd 89 ed bd
       -0.03717447 -0.07507805 0.05551212 -0.11598585
000010 a4 70 93 be bb 35 84 3e 8e 5a 03 bd 0a b7 9d bd
       -0.28796875 0.25822243 -0.03206878 -0.077009276
000020 1a 61 68 bc a1 7d a6 3c 00 cb 35 3d dc 2a e1 bd
       -0.014183307 0.020323576 0.04438305 -0.10994503
000030 f9 89 e0 bc 3b a7 7d bc 77 26 24 be c2 5c 85 3d
       -0.02740954 -0.015481765 -0.16030298 0.06511833
000040 b5 69 81 3d 60 1f af be cf be 1b be ef 04 be 3d
       0.0631899 -0.34203625 -0.15209506 0.09278285
000050 3a a8 ef 3d 41 e6 8a bd 3d 92 41 be ff 57 07 3e
       0.117020085 -0.06782199 -0.18903442 0.13217162
000060 40 a8 0f 3d 71 9b cb bd 27 c6 ba 3d 6d e5 f3 bd
       0.035072565 -0.099417575 0.09119826 -0.11908994
000070 2c c5 c7 bd 01 d0 87 3e 19 c9 79 bc 1f 62 8f bd
       -0.097544044 0.26525882 -0.015245699 -0.07001137
000080 9d e9 b3 3e e7 d6 6b bd ae 5c dd bb b4 da be 3d
       0.3513917 -0.057577994 -0.006755433 0.09319058
000090 fe 84 d9 3d 06 a8 3b bd ed c7 76 3d b4 64 50 3e
       0.10621069 -0.045814537 0.060249258 0.20350915
0000a0 a2 9c 3f 3d 23 34 f8 bd 12 63 02 be 33 76 8e 3e
       0.046780236 -0.12119319 -0.12733105 0.27824554
0000b0 7f 6d 80 3d 77 bf d2 3d ca b1 72 bd b0 8a ad 3e
       0.06270885 0.10290425 -0.059251584 0.33894873
0000c0 8f 02 2b be 63 86 df bd f6 cb 1b be 07 2a 9b 3d
       -0.16700195 -0.10914304 -0.15214524 0.075763755
0000d0 24 82 93 3c f1 04 89 be 29 07 ea bc e6 81 29 be
       0.018006392 -0.26761582 -0.028567867 -0.16553459
0000e0 90 bd a4 3d b5 28 d2 bd 69 bd b1 3e 21 79 6e be
       0.08043969 -0.102616705 0.3471482 -0.23288395
0000f0 86 d2 ae 3d 67 16 ad 3c 17 05 32 be 59 7d 66 3c
       0.08536248 0.021128846 -0.17384754 0.014067971
000100 4e af d6 bd 6f c8 3d bd 06 6a 14 3e 1f 3f 0a 3e
       -0.104826555 -0.046333726 0.1449357 0.13500641
000110 fe 16 ab bb e0 4d 3f be c9 68 ad 3e f3 48 1e be
       -0.0052212467 -0.1868205 0.33869007 -0.15457515
000120 02 85 04 bf d0 11 63 bd 0a e0 a1 3e 8e d7 73 3e
       -0.51765454 -0.05543691 0.3161624 0.23812696
000130 5a c5 a6 bd 86 87 42 bb 7c b5 ef bb e1 da b8 3c
       -0.081431106 -0.002968283 -0.007315336 0.022565307
000140 95 79 d9 bd 7d b7 1a 3d 73 ee 3b bd a8 b7 63 3e
       -0.10618893 0.037772644 -0.0458817 0.22238028
000150 eb aa 4b 3e e6 35 07 3e 74 5f 9d 3d 38 61 e6 bd
       0.19889419 0.13204154 0.07684222 -0.11249012
000160 34 c1 c6 3d bd 1a 14 3e ca 0f 10 3e 8c dc d9 3e
       0.09704819 0.14463325 0.14068523 0.42551076
000170 f1 cf b5 3a 3c 59 25 be 0c d4 19 3c aa f9 c6 bd
       0.0013871175 -0.16147321 0.009388935 -0.097155884
000180 3e dc 0c 3d 7e 08 75 3d ff 7c 0b be de 71 d7 3d
       0.034389727 0.059822552 -0.13621901 0.10519765
000190 fc 32 8e bd 2d 29 cf bd 74 ac a0 bd 56 ab bc 3d
       -0.06943318 -0.101152755 -0.07845393 0.09212367
0001a0 54 d4 93 bd 11 bf ba ba 4a 37 b8 3d f5 01 de be
       -0.07218233 -0.0014247616 0.089949206 -0.43360868
0001b0 4e c9 d0 3c e2 b9 bd bd 9d 3d 6f 3d a8 74 12 be
       0.025486615 -0.0926397 0.05840837 -0.14302313
0001c0 3f 73 83 be e1 69 f7 3d 27 09 07 3b 6c e4 a6 3d
       -0.25673863 0.12080742 0.002060482 0.08149037
0001d0 4e 8d 2a 3e 95 d6 b1 bd b7 dd d3 be 64 25 8f bc
       0.16655466 -0.086835064 -0.41380093 -0.017473884
0001e0 85 ba 9e bb c6 7a a9 bd be 57 6f 3e db 35 8f 3c
       -0.004844012 -0.0827537 0.23373315 0.017481735
0001f0 e4 10 2a bc f9 9d 24 bd 33 24 17 3e 21 3e c6 be
       -0.010380004 -0.040189717 0.14759903 -0.38719276
000200 91 1d 3b be 88 25 83 3d 23 17 5d bc bf 3f 6c 3d
       -0.18272997 0.06403643 -0.013494286 0.05767798
000210 07 a4 86 3d 6e 59 5f 3e 27 7b b3 bd 78 17 cb 3d
       0.065742545 0.21811458 -0.08763724 0.09916586
000220 aa 86 49 3d 1f 50 10 be dd 10 9c 3e 11 cc be 3d
       0.04920069 -0.14093064 0.30481616 0.09316266
000230 2e 93 b1 3d 6e 2c 1b bc 82 d8 a2 3c 05 b3 0e 3d
       0.086706504 -0.009471042 0.01987863 0.034838695
000240 b8 3e a9 3d 89 3e 96 3b 1e b2 9b 3d 36 3f 97 3d
       0.08263916 0.0045850915 0.076023325 0.073851034
000250 d2 07 4d bd 99 66 eb 3d 3f bf 40 be f2 5a 1f 3e
       -0.050056286 0.11494178 -0.18822955 0.15562037
000260 1c 37 14 3c 95 c8 4f be 29 80 53 3e 46 67 29 be
       0.009046342 -0.2029136 0.20654358 -0.16543302
000270 cf 2d 7d be 66 41 eb 3d b7 00 b3 3d 5c 9f a9 3c
       -0.24724506 0.11487083 0.08740371 0.020705871
000280 2a c4 e9 3d 69 19 cc 3d e5 de eb bc 03 d5 09 bc
       0.114143685 0.09965784 -0.028792808 -0.008412602
000290 83 ee ac bd c0 17 96 be 4e 46 d7 bd f6 3e 40 3c
       -0.0844393 -0.29314995 -0.105114564 0.011733761
0002a0 88 aa 52 be 31 c0 7c bd 9e 3e f4 3d 2f b3 a0 bc
       -0.20572865 -0.061706726 0.11926006 -0.019616691
0002b0 f9 75 b9 3d 03 35 54 3c 8e eb 8c 3b 27 d8 18 bc
       0.090557046 0.012952092 0.0043005412 -0.0093288785
0002c0 90 dc a6 3d d2 3f 96 3d b2 bf 5a be 4e 12 89 bb
       0.08147538 0.073363915 -0.21362188 -0.0041830903
0002d0 c2 89 5d bc f9 dc 15 be 0c 83 05 3e dd e6 41 be
       -0.013521614 -0.14635076 0.13038272 -0.18935724
0002e0 7b 05 b7 3d 77 6a 9c 3e 38 e9 8f bd 1a d6 8f bd
       0.08936592 0.30549976 -0.07026905 -0.070232585
0002f0 4b 8b 70 bd 37 e0 01 be 1c ad 06 be d9 52 1c 3c
       -0.05872659 -0.12683187 -0.13151973 0.009541237
000300 45 16 11 bc fa 7a 34 be 3d bd ef 3d d9 ce f3 3d
       -0.008855407 -0.17625037 0.11706016 0.119046874
000310 7d 8b fd bc 9d 7e 6b 3e 06 aa 11 3e d0 10 1c 3e
       -0.030950302 0.22997518 0.14225015 0.15240788
000320 5f cf 30 be 28 12 58 bd 80 87 19 be b7 88 0b be
       -0.17266606 -0.05275169 -0.14993095 -0.13626371
000330 4d 50 48 bd 47 a8 1c be c7 f7 cf bc 23 59 7e 3d
       -0.048904706 -0.15298568 -0.025386704 0.062096726
000340 ea 9b d8 3d d9 f9 53 bd 74 39 a0 3e 27 e4 84 bd
       0.10576613 -0.051751945 0.31293833 -0.06488829
000350 1c 60 b1 bd 0a 28 12 bd 0b 44 4b be 8a 01 3a bd
       -0.086609095 -0.035682715 -0.19850175 -0.045411624
000360 e2 98 85 3e 8a 67 dd 3c 0e 32 3a be 9e 10 b7 3d
       0.26093203 0.02702691 -0.18183157 0.08938716
000370 6b 0d 6e bd b4 08 3e be 97 96 db bd 98 d8 00 be
       -0.058118265 -0.18558007 -0.10722082 -0.12582624
000380 55 cd 7b be 55 c8 fa bd 4b e2 d2 3c d8 a4 2b be
       -0.24590047 -0.122452416 0.02574267 -0.16762102
000390 7c d7 8f 3d dc 30 1e 3e a9 cc 76 be 2f ce 17 be
       0.07023522 0.15448326 -0.24101509 -0.14824747
0003a0 aa 75 68 3d e9 f3 1f bd 10 5a 32 3e 42 be bc 3d
       0.05675284 -0.03905097 0.17417169 0.09215976
0003b0 12 52 62 3e 44 24 86 be 6d 77 85 3e 52 83 4b 3e
       0.2210162 -0.26199543 0.26067677 0.19874313
0003c0 1b 61 15 bd c9 99 81 be 6f 07 dd 3d 4f e2 01 be
       -0.03646956 -0.2531264 0.107924335 -0.12683986
0003d0 3d d9 53 be aa f4 94 3b c0 7c c9 3c 77 f3 4f 3e
       -0.20688339 0.004545768 0.024595618 0.20307718
0003e0 1a 01 58 be 07 27 9d bc e2 42 c7 3d a2 bc 08 3e
       -0.2109417 -0.019183649 0.09729554 0.13353208
0003f0 1a fd 60 3e 59 59 92 bd 12 08 2e be 8b bb ea 3c
       0.2197155 -0.07145948 -0.16995266 0.02865388

bias f4 [150]
000000 30 5d 66 be c1 a0 34 be 61 25 d2 bd 3d b0 e9 3d
       -0.22496486 -0.17639448 -0.10261036 0.11410568
000010 34 82 da 3b ca 57 89 3d 30 9d af bd 8e 49 83 3d
       0.0066683535 0.067061976 -0.08574903 0.06410514
000020 c6 55 af 3d ec c4 8a 3c a1 71 04 3d e9 a3 1b 3d
       0.08561282 0.016939603 0.032334927 0.037998114
000030 69 e8 96 bd f9 60 23 3d cb 69 5e be ff a8 89 bd
       -0.073685475 0.039887402 -0.21720044 -0.067216866
000040 ec 5c cc 39 b2 66 3f bb 0a cb d1 3c 87 af 78 bb
       0.00038979144 -0.0029205498 0.025609512 -0.003794642
000050 9a 86 c6 3d 89 ae c0 bd f6 4c 0c 3a 2f ef 15 3e
       0.09693642 -0.0940829 0.0005352044 0.14642023
000060 00 5f 93 3d 62 bb 10 be 0c 36 22 3d 41 9b a1 bd
       0.07195854 -0.14133981 0.039602324 -0.078909405
000070 13 1a 39 be f9 00 75 3d 7e 3a a3 bd 4d b3 e4 3c
       -0.18076353 0.05981538 -0.07970141 0.027917529
000080 74 29 72 3d e2 13 8f 3d f3 32 e8 bd 9d 41 f2 bd
       0.059121564 0.06986214 -0.11337843 -0.11828921
000090 62 b5 0a 3e e6 7e 87 3d 2c cc d6 3c 8d a6 ab bd
       0.13545755 0.06616001 0.026220404 -0.083813764
0000a0 63 f3 a8 bd fc 8c 2b 3e 9d 5e e1 3d 5f 88 c4 bd
       -0.08249547 0.16753 0.11004374 -0.09596323
0000b0 f7 34 28 be 61 c9 a3 bd 32 af a0 bd 58 b6 91 3d
       -0.16426454 -0.07997394 -0.07845916 0.071148574
0000c0 8d 9f 16 3e ae 6b 84 bd 9a d4 a9 bd 5f fb 6c 3c
       0.14709301 -0.06465851 -0.08292504 0.014464228
0000d0 5c 2f 14 3e b4 60 92 bb c9 5f 41 3d 1b 56 57 3d
       0.14471191 -0.0044670943 0.04721049 0.05257235
0000e0 f3 bb df 3c c3 29 82 3c 77 31 0b bd e7 23 ab bd
       0.0273113 0.015889054 -0.03398272 -0.08356457
0000f0 87 c1 20 3e 42 6f c5 bd a5 b4 88 3d 44 3d 09 3d
       0.15698825 -0.09640361 0.0667508 0.033505693
000100 7a ae 88 3e c2 76 1c be 66 e3 ef bc 83 bd 84 bd
       0.26695615 -0.15279678 -0.029283237 -0.06481459
000110 66 69 1e 3e 1a 09 af 3d 6b 11 99 bd d4 d6 b5 3c
       0.15469894 0.08546658 -0.07474025 0.022197165
000120 3c e0 0a 3e 6e 0d 1e be 73 f3 81 bd 9d 02 c0 3d
       0.13562101 -0.1543481 -0.063452624 0.093754984
000130 a4 77 8c 3d d6 e6 c0 bd a6 fc ca bd de 10 a3 bb
       0.06858757 -0.094190285 -0.0991147 -0.004976376
000140 ee 41 33 3e 03 98 c1 3d e2 bc 58 bd f7 d9 85 3d
       0.17505619 0.09452822 -0.052914508 0.06535714
000150 9f 7c 7b bd 66 ad 08 bd 32 c0 be 3d 47 e2 e8 bd
       -0.061398145 -0.03336849 0.09314002 -0.11371284
000160 d8 5a 15 3e ed a8 20 bd 44 9e 04 3e b9 f1 54 bd
       0.14585435 -0.0392236 0.12950999 -0.051988337
000170 8d 3a 57 3e 94 ac 8d 3c b5 0d 80 bd b8 c5 3a 3d
       0.21018429 0.017294206 -0.062526144 0.045598716
000180 11 05 7f 3d 99 4c 96 bd 2c fb 4c 3d 19 b4 b1 3d
       0.06226069 -0.073388286 0.050044224 0.08676929
000190 17 22 a0 bd c2 b4 88 b8 32 7c b2 bc 51 e9 a8 bd
       -0.07819002 -6.518654e-05 -0.021787737 -0.082476266
0001a0 de 22 4f 3d 44 11 69 3d 52 db 6a 3c 8a 66 db 3d
       0.05057036 0.05690123 0.014334517 0.10712917
0001b0 ed e4 e6 bb 3c 63 1d be df 8c d9 3d b6 c2 45 3c
       -0.007046333 -0.15369886 0.10622572 0.0120703485
0001c0 df 75 5d bc d6 42 c8 3d b8 ee c8 bd f0 34 a8 bd
       -0.013516872 0.09778373 -0.09811157 -0.08213222
0001d0 52 6e e4 3d 13 f2 c9 bd e1 ad a7 bd d3 07 bc 3d
       0.111538544 -0.09860625 -0.08187462 0.0918118
0001e0 4f ba b9 3d cf c2 23 3e d2 43 c8 3d 82 fc 81 3c
       0.09068739 0.15992282 0.09778561 0.015867475
0001f0 60 1e 3a 3d b9 fb 65 3d 29 1a fc bd 5d 3d 94 bc
       0.045439124 0.056148265 -0.12309677 -0.018095667
000200 67 21 67 bd b8 a6 d7 3d 56 33 9f bd 02 29 24 be
       -0.05642834 0.10529846 -0.077734634 -0.16031268
000210 b9 83 eb bd bd ee fc 3b f0 9b b4 3d 78 74 3c 3c
       -0.114997335 0.0077188895 0.08818805 0.011502378
000220 dd 25 d3 bd 0b f5 9d 3d cb 9b 85 bd 39 60 a3 3d
       -0.10309956 0.07712754 -0.06523856 0.079773374
000230 aa 26 ee 3c 8d 16 b7 3d d5 47 c1 bc 6b d3 dd 3d
       0.02907117 0.08939848 -0.023593822 0.108313404
000240 78 05 05 3e f9 bb b3 3d d0 ae 5c 3d 42 f7 68 3d
       0.12990367 0.08776087 0.05387765 0.05687643
000250 48 02 d8 bd 27 1a aa 3d
       -0.1054731 0.083057694

weight f4 [1, 150]
000000 2f e3 25 3e b2 8c 48 3e 3f a1 a3 bb 0e 6a ed bd
       0.16199945 0.19584921 -0.0049935873 -0.11592494
000010 84 94 20 3e b1 b6 c6 bd 74 ed 0e be 69 54 3e be
       0.15681654 -0.09702814 -0.13957769 -0.18586887
000020 74 91 00 be bb 82 18 3e 05 45 40 bc ed 5d d3 bd
       -0.12555486 0.1489362 -0.011735206 -0.10320649
000030 bb 3a ec 3d 7d 28 26 3e 64 37 79 be 5e 27 23 3d
       0.115346394 0.16226383 -0.24337536 0.039832465
000040 04 94 79 bd 51 44 a4 3e b3 4b 90 3d de 3d a5 3d
       -0.060932174 0.3208337 0.070456885 0.08068441
000050 23 70 3c bd 28 e5 18 3a 3b 32 5e bd 2f 7d e4 bd
       -0.04600538 0.0005832487 -0.054247122 -0.111566894
000060 fa b9 d3 bd 42 54 ab 3d c5 11 93 bd 0b 7a 48 3e
       -0.103382066 0.0836568 -0.07181124 0.19577806
000070 c2 e1 40 be 98 bb 2e be 15 3f 51 3c 6b 94 1b be
       -0.1883612 -0.17063749 0.012771388 -0.15193336
000080 9d 46 a8 bd 89 13 ae bd b0 36 82 3e 73 d8 44 3e
       -0.082165934 -0.0849982 0.25432348 0.19223194
000090 ed b5 35 be 9d 27 22 be b6 4c 89 be 63 27 6f 3d
       -0.1774518 -0.15835424 -0.26816338 0.05838717
0000a0 b1 92 f0 3d 1b f3 ca 3e ee 4e 15 3e c9 d7 c8 3d
       0.11746729 0.396386 0.1458089 0.09806783
0000b0 a1 f6 13 3e 1e 24 52 3c a2 a9 ba 3d 1d a8 87 3e
       0.1444955 0.012825994 0.09114386 0.26495448
0000c0 f1 f9 2e 3e 83 7e c2 3d 31 6c be 3d e6 0b 01 be
       0.17087533 0.094967864 0.092979796 -0.12602195
0000d0 b1 f2 47 3e 40 d6 95 be 8b cc 0e 3e 3b a8 23 bd
       0.19526173 -0.29265022 0.13945214 -0.03995536
0000e0 7f 81 c6 bd 39 74 f1 bd dd 32 08 be 7f 35 12 3e
       -0.09692668 -0.11789746 -0.13300653 0.1427822
0000f0 d1 09 9b bd c9 62 f4 3c 3d 71 51 bd 81 5c dc bd
       -0.07570232 0.02983226 -0.051133383 -0.10759831
000100 b9 62 a7 3e 9c 1e 34 be 8d ff 6d 3e a0 8f 37 3e
       0.32692507 -0.17589802 0.23242016 0.17925882
000110 73 c0 33 3e 5e f2 08 be 82 55 90 3d 34 24 d2 bd
       0.17553882 -0.13373706 0.07047559 -0.102608114
000120 f2 28 1a 3e c9 a9 3a 3e ec bb 6c 3e ed 95 cf be
       0.15054682 0.1822883 0.23118562 -0.40544072
000130 c0 23 e9 be 6a be 09 3e 7c bd ef 3d c7 c8 a5 3d
       -0.45535088 0.13451543 0.11706063 0.08094936
000140 1f 2e 31 3e 9c 25 8e bd e5 cd 64 3d 78 c7 cb bd
       0.1730275 -0.06940767 0.05586042 -0.09950155
000150 e0 c1 99 3a ee f5 2a 3e c1 4e 1e be 46 7a 7a 3d
       0.0011730753 0.16695377 -0.1545973 0.061151765
000160 d2 da 07 be 75 9e 50 3e 57 3f 7c 3e 64 b4 2c be
       -0.13267067 0.20372947 0.24633537 -0.16865689
000170 37 9c 3d 3e 67 b6 f3 3d e0 b3 fc 3d eb 91 e2 bd
       0.18516622 0.11900025 0.12338996 -0.11062988
000180 9e 02 04 3e a6 58 24 3e 0c 41 e4 3e 04 e3 fa bd
       0.12891623 0.16049442 0.44580877 -0.12250331
000190 41 35 00 3e 00 5d 80 be 1a 03 30 3d 9b 96 9d 3d
       0.12520315 -0.25070953 0.042971708 0.07694741
0001a0 a3 d1 cb bc 79 c3 82 bd d9 0b 83 3e b9 7a 18 3e
       -0.024880236 -0.0638494 0.25594977 0.14890565
0001b0 1e 48 5e bd 57 b7 af be d5 1e 06 bd 83 23 16 be
       -0.054267995 -0.34319565 -0.032744247 -0.14661984
0001c0 92 d1 75 3d 88 29 49 be f7 a0 6f 3e 14 80 a6 3d
       0.060014315 -0.19644749 0.23401247 0.08129898
0001d0 3c 5c f9 bd 09 09 c7 3d 80 36 d7 3d 8f 0d 64 be
       -0.121757954 0.0971852 0.10508442 -0.22270797
0001e0 b0 be 6e bd af 41 be bd 57 eb 45 bd 3a 01 5f bd
       -0.058287323 -0.09289872 -0.04832014 -0.05444453
0001f0 d4 b8 23 be f6 83 62 be 62 23 9b 3e bd a3 13 be
       -0.15988475 -0.22120652 0.30300432 -0.1441793
000200 8c 46 76 3d 90 25 e5 3a 04 40 4d 3e 0f c6 2f 3d
       0.060125872 0.0017482508 0.20043951 0.042913493
000210 c2 10 70 3e 0a b3 07 3e 2a 49 5d be 5c cf 86 3e
       0.23443893 0.13251892 -0.21609941 0.26330078
000220 d6 16 58 3e 4b f9 43 3e eb 9a 1e 3e 56 97 be bc
       0.21102461 0.19138066 0.15488784 -0.023265522
000230 9a e3 d8 bc f3 bb aa bc fe b8 b1 3d 1f 5d da bd
       -0.026475716 -0.020841574 0.086778626 -0.10662293
000240 72 65 24 be 9b 12 a1 bc 2b 02 aa be 01 74 ec bc
       -0.16054323 -0.019662192 -0.3320478 -0.028863909
000250 a6 6a 8f 3d 75 52 f5 bd
       0.070027635 -0.11978618
