gym_multirotor(Native PPO)/examples/rl/experiments_from_paper/experiments_data/trained_models/QuadrotorPlusHoverEnv/QuadrotorPlusHoverEnv-4/ppo/QuadrotorPlusHoverEnv-v0.pt (torch, 216272 bytes, 12 tensors)

weight f4 [150, 18]
0	0xbda10ab1	-0.07863367
1	0xbd7a24b6	-0.061070167
2	0x3e4be18a	0.19910255
3	0x3dbffc40	0.09374285
4	0x3d4cafc2	0.049972303
5	0xbbae68c9	-0.00532255
6	0x3d416164	0.04721202
7	0x3d92b09b	0.07162591
8	0x3e091ecd	0.13390656
9	0xbe861159	-0.2618511
10	0xbdb436dd	-0.08799527
11	0xbe1de983	-0.15421109
12	0xbd2a5154	-0.041581467
13	0x3e1eeced	0.15520068
14	0x3e322161	0.17395546
15	0xbdd342d2	-0.10315479
16	0x3c203400	0.009778023
17	0xbd99e0e1	-0.07513595
18	0xbd5af15b	-0.05345283
19	0xbdbddc05	-0.09270481
20	0xbdc36339	-0.095404096
21	0xbd259e1d	-0.04043399
22	0x3d1fb3da	0.03898988
23	0xbd9edcda	-0.07756968
24	0xbd50aee1	-0.050948028
25	0x3e89c204	0.26905835
26	0xbe705d04	-0.23472983
27	0x3a59262e	0.0008283582
28	0x3def050a	0.11670883
29	0xbdb3c2a9	-0.08777363
30	0xbdbcea42	-0.09224369
31	0xbe13df81	-0.14440729
32	0x3da1193b	0.078661405
33	0x3e07cefb	0.1326255
34	0xbd1e6937	-0.03867456
35	0xbe123c5e	-0.14280841
36	0x3e2c2ee4	0.16814762
37	0x3ef67590	0.48136568
38	0xbe111e87	-0.14171802
39	0xbe4bdf81	-0.19909479
40	0xbcc9405f	-0.024566827
41	0x3d120bbd	0.035655726
42	0xbe07937a	-0.13239852
43	0x3e862348	0.26198792
44	0xbe3936d2	-0.18087319
45	0x3df9f61f	0.12205147
46	0x3e28b30c	0.16474551
47	0x3e1468fb	0.14493172
48	0x3d53a008	0.05166629
49	0x3e1c3b64	0.1525703
50	0xbd4ee25d	-0.050508846
51	0xbe4ca635	-0.19985278
52	0xbdd029b6	-0.10164206
53	0xbd82ca16	-0.06386201
54	0xbe525b35	-0.20542605
55	0x3df5c109	0.11999709
56	0x3dc134a0	0.094338655
57	0xbd26c34b	-0.04071359
58	0x3c2f0561	0.010682435
59	0x3d2e43fb	0.0425453
60	0xbdfde3d5	-0.12396971
61	0x3d87e7d1	0.06636012
62	0x3df4435b	0.119269095
63	0x3d877ce8	0.06615621
64	0xbdc3d9e6	-0.09563045
65	0xbe19a995	-0.15006097
66	0xbb1b2b58	-0.0023676958
67	0x3eb8685e	0.36017126
68	0x3e93a655	0.2883784
69	0xbe027e13	-0.12743406
70	0xbe501a3c	-0.20322508
71	0xbd3e5313	-0.046465944
72	0xbe2f8f50	-0.17144513
73	0xbe37ca59	-0.17948283
74	0x3d85053d	0.0649514
75	0xbd210a6c	-0.03931658
76	0x3d2537b2	0.04033632
77	0x3dfb755a	0.122782424
78	0xbe4d988b	-0.20077722
79	0xbe0e7c35	-0.13914569
80	0xbd1f4f8d	-0.038894225
81	0xbdcfa76a	-0.101393536
82	0xbde5768b	-0.11204251
83	0xbd64e0d4	-0.055878475
84	0xbe80a767	-0.25127718
85	0x3e0db4b3	0.13838463
86	0x3c9507ee	0.018192258
87	0x3e75b2c0	0.23993969
88	0xbe909e78	-0.28245902
89	0xbc931710	-0.017955333
90	0x3e8288f4	0.25495112
91	0xbe88d357	-0.2672374
92	0x3e7a751f	0.2445874
93	0xbe0f0fa6	-0.13970813
94	0x3e38452e	0.1799514
95	0x3d8fb719	0.07017345
96	0x3e6d325b	0.2316374
97	0x3d2bbc8f	0.04192787
98	0xbdae5479	-0.08512206
99	0x3d281c13	0.0410424
100	0x3e5277f8	0.20553577
101	0xbda29c97	-0.079400234
102	0xbc106e25	-0.008815323
103	0x3dcd3956	0.100207016
104	0x3dce144b	0.10062464
105	0x3dc772c2	0.09738685
106	0x3d6227ea	0.055213846
107	0x3daffc65	0.08593062
108	0xbe0c1db0	-0.136832
109	0xbd71e0ad	-0.05905216
110	0x3e2ec62d	0.17067786
111	0x3d830bf3	0.063987635
112	0x3e7d1fdd	0.24719186
113	0xbc660df3	-0.014041412
114	0xbb83f5c5	-0.0040271007
115	0xbd47a6e2	-0.048743136
116	0xbe58a488	-0.21156514
117	0xbcf7fce8	-0.030271962
118	0x3d4dd37a	0.050250508
119	0x3d672f78	0.056441754
120	0xbd86175f	-0.065474264
121	0xbe4c1b04	-0.1993218
122	0x3c1a94fd	0.009434936
123	0x3e98e3a5	0.2986118
124	0xbe2d4aca	-0.16923061
125	0xbcde5cff	-0.027143953
126	0xbe2b4b3d	-0.1672792
127	0x3dc69aa5	0.09697465
128	0x3e3c3837	0.1838082
129	0xbdb9a123	-0.090639375
130	0x3dd3ebe0	0.10347724
131	0xbe25b01f	-0.16180466
132	0x3cc8cd47	0.024511946
133	0xbd480e02	-0.048841484
134	0x3dee5b80	0.11638546
135	0x3cb91166	0.022591304
136	0xbe14ce9f	-0.14531945
137	0x3d99727f	0.074925415
138	0xbe07ef17	-0.132748
139	0x3db2a4a5	0.0872281
140	0x3da1b08b	0.07895001
141	0xbe24b46c	-0.1608445
142	0xbe27b3e7	-0.16377221
143	0x3c4c6f36	0.012477687
144	0xbe4bc037	-0.19897543
145	0xbe903387	-0.28164312
146	0xbe36cc94	-0.17851478
147	0x3d6c05ce	0.057622723
148	0xbd368396	-0.044559084
149	0xbdbf12d5	-0.09329764
150	0x3c24bc83	0.01005471
151	0x3da46b29	0.08028252
152	0x3d7ae102	0.06124974
153	0x3e7d9b22	0.2476621
154	0xb9a270ab	-0.00030982992
155	0x3e0dd566	0.13850936
156	0xbc750b4e	-0.0149563085
157	0xbe06b164	-0.13153607
158	0x3e62ed82	0.22160915
159	0xbc7501b8	-0.014954023
160	0xbe1636ce	-0.14669344
161	0xbd9752bc	-0.07388827
162	0xbdba2704	-0.09089473
163	0xbe4fad75	-0.20281012
164	0x3d3b24b6	0.045689307
165	0xbccb9a89	-0.024853962
166	0x3d16cd8c	0.03681712
167	0x3ec1a33e	0.37819856
168	0x3d186996	0.03721007
169	0x3d59c204	0.053163543
170	0xbd4e5ff9	-0.050384495
171	0xbd301b6f	-0.042994913
172	0xbe9e6883	-0.3093911
173	0xbcb605cd	-0.022219563
174	0x3d5f6f8c	0.05454974
175	0xbdb4c25f	-0.08826136
176	0xbc5b573e	-0.013387499
177	0x3d0c3859	0.034233425
178	0x3e01d981	0.12680627
179	0xbe75d185	-0.24005707
180	0xbc037ada	-0.008024896
181	0x3e460dda	0.19341221
182	0xbd72a489	-0.059238944
183	0xbda40fea	-0.08010848
184	0xbd0ecfd3	-0.034866165
185	0xbe18dbeb	-0.14927642
186	0xbd1ebf42	-0.038756616
187	0x3c6a1627	0.014287508
188	0x3dd2c9da	0.102924064
189	0x3ea52f9d	0.3226289
190	0xbe2f0dad	-0.1709506
191	0xbe08f980	-0.13376427
192	0xbe03e26d	-0.12879343
193	0x3dd157ad	0.10221801
194	0x3db492f2	0.0881709
195	0x3d459991	0.048242155
196	0xbdfd22b5	-0.123601355
197	0x3d9a9c68	0.075493634
198	0x3d3783b7	0.044803347
199	0xbd97ada5	-0.07406167
200	0x3d8a31be	0.06747769
201	0x3c27f261	0.010250659
202	0xbd3b272b	-0.04569165
203	0xba7fe012	-0.0009760867
204	0x3d02840b	0.031864207
205	0xbda60f20	-0.081083536
206	0xbe7858e7	-0.24252664
207	0x3df8a2ec	0.1214045
208	0x3e7b4feb	0.24542205
209	0x3e01c481	0.12672617
210	0x3d0c33a7	0.034228947
211	0xbd24594e	-0.04012423
212	0x3d9fcdd2	0.07802929
213	0x3e3b5e3a	0.18297663
214	0xbdab8293	-0.083745144
215	0xbdbcc61a	-0.092174724
216	0xbde5c51e	-0.11219238
217	0xbb7f6cd8	-0.0038974788
218	0xbe163a78	-0.14670742
219	0x3c3f8c0f	0.011691107
220	0xbb893317	-0.0041869986
221	0xbe1ddc74	-0.15416127
222	0x3d9ff8df	0.0781114
223	0x3d2733dc	0.04082094
224	0xbc697866	-0.014249897
225	0x3d84e9a6	0.064898774
226	0xbe3b1bc6	-0.18272313
227	0x3ce7ad7b	0.028280964
228	0xbca96967	-0.020680143
229	0xbdaee1f0	-0.08539188
230	0xbdb11a99	-0.08647651
231	0xbeb58129	-0.35450104
232	0xbddb5644	-0.10709813
233	0x3d8e06c6	0.06934886
234	0x3e978d42	0.2959996
235	0xbe339fc5	-0.17541416
236	0xbdd5641f	-0.10419487
237	0xbd8056e1	-0.06266571
238	0xbdd425f0	-0.103587985
239	0xbe25d2bf	-0.16193675
240	0x3d08ce66	0.033399962
241	0xbddab083	-0.10678198
242	0x3d7925c2	0.060827024
243	0x3e21003f	0.1572275
244	0x3cd11854	0.025524296
245	0x3dfa3c7f	0.1221857
246	0xbb0a4640	-0.0021099001
247	0xbe22ddae	-0.15904877
248	0x3da2a060	0.07940745
249	0x3e35113c	0.17682356
250	0x3e620818	0.220734
251	0x3dda8cc8	0.10671383
252	0xbe0a54c2	-0.13508895
253	0x3e37a284	0.17933089
254	0xbd9950c6	-0.074861094
255	0xbd9f4074	-0.07775965

bias f4 [150]
0	0xbd4dc238	-0.05023405
1	0x3dae29bc	0.08504054
2	0x3d43ea73	0.04783101
3	0x3c7a904e	0.015293194
4	0xbd09ee15	-0.03367432
5	0xbda288b6	-0.07936232
6	0x3bcd3a20	0.0062630326
7	0xbd86b503	-0.06577494
8	0x3e1c4179	0.15259351
9	0x3d02951d	0.031880487
10	0xbdc622b2	-0.09674586
11	0xbcefb72a	-0.029262144
12	0x3cc3d05a	0.02390306
13	0x3c8f17d3	0.017467415
14	0x3db3815b	0.08764907
15	0xbcf593bd	-0.029977674
16	0xbcab8f3e	-0.020942327
17	0x3d38b0ad	0.045090366
18	0x3d91d857	0.07121342
19	0x3d0db629	0.03459755
20	0x3d4d8563	0.050176036
21	0xbbc3dc5a	-0.0059771957
22	0x3e20e0a1	0.15710689
23	0x3dd3d1dc	0.10342762
24	0xbe30b5d7	-0.17256866
25	0x3dc2cc30	0.09511602
26	0xbc5cd119	-0.013477587
27	0xbd22c173	-0.03973527
28	0x3c5ee9f1	0.013605581
29	0x3deb0d2f	0.11477124
30	0x3d33271a	0.043738462
31	0x3ddc04c8	0.107430995
32	0x3df222f8	0.11823076
33	0x3db8ee31	0.090298064
34	0x3c69e723	0.014276299
35	0x3de62505	0.1123753
36	0xbd1a7433	-0.037708472
37	0xbd324466	-0.04352226
38	0x3d96bfe9	0.07360823
39	0x3dce3f19	0.10070629
40	0xbd7955f0	-0.060872972
41	0xbd56792e	-0.05236166
42	0x3df8aa8b	0.121419035
43	0xbdd14cab	-0.102197014
44	0xbdf3a5c4	-0.11896852
45	0xbd7c88f3	-0.061654042
46	0xbd5509ab	-0.052011173
47	0x3da841db	0.08215686
48	0x3dbd1e64	0.09234312
49	0xbd17ee98	-0.037092775
50	0xbcbf14aa	-0.023325283
51	0x3d849431	0.06473578
52	0x3be8b09d	0.007101132
53	0xbdc9242c	-0.09821352
54	0x3e13dc50	0.14439511
55	0xbdaf8563	-0.085703634
56	0x3e0a284f	0.13491939
57	0xbd0456bb	-0.032309275
58	0xbd841b45	-0.06450514
59	0xbddd432c	-0.10803828
60	0xbd9d4c12	-0.07680525
61	0x3c411324	0.011784349
62	0x3e2450f2	0.16046503
63	0x3d795bf9	0.060878728
64	0xbd6a8940	-0.057259798
65	0xbd2c442e	-0.04205721
66	0x3db6afc0	0.089202404
67	0x3d91beb8	0.07116455
68	0x3bc1d2a6	0.005915004
69	0xbd859cda	-0.06524058
70	0xbd7a90ac	-0.061173126
71	0x3ddeeebe	0.1088538
72	0xbd8425df	-0.06452536
73	0xbd1e1356	-0.03859266
74	0xbd22a189	-0.039704833
75	0x3d9b4687	0.075818114
76	0x3dceae21	0.10091806
77	0x3cc00c81	0.023443462
78	0xbc42881d	-0.011873272
79	0xbd8a5a73	-0.06755533
80	0xbd39e3b6	-0.045383178
81	0x3cde717e	0.027153727
82	0xbde5e3c5	-0.11225084
83	0x3d31216a	0.043244757
84	0xbd1a98b7	-0.037743296
85	0xbd081645	-0.033224363
86	0xbc84e15e	-0.016220745
87	0x3d454128	0.04815784
88	0xbddc0240	-0.10742617
89	0xbcc052d5	-0.023476997
90	0xbcd246ad	-0.025668466
91	0xbe0964e6	-0.13417396
92	0xbc9ca1e9	-0.019120174
93	0xbbbd8d07	-0.005784634
94	0xbd98d786	-0.07462983
95	0x3db91b6f	0.09038436
96	0x3e09d032	0.13458326
97	0xbc953be3	-0.018217033
98	0xbb5f506f	-0.0034075042
99	0xbd9f5f61	-0.07781864
100	0x3d0db04f	0.03459197
101	0xbd1eef65	-0.038802523
102	0xbdd0aa33	-0.10188713
103	0x3c9fd6a2	0.019511525
104	0xbda807ab	-0.082045875
105	0x3d31392f	0.043267425
106	0x3ce9c3f3	0.028535819
107	0x3ca016a4	0.019542046
108	0xbd43720b	-0.04771618
109	0x3c8979cf	0.016781716
110	0x3d38338c	0.044971034
111	0x3e6f60c7	0.23376761
112	0x3cb47126	0.02202661
113	0xbe0072ed	-0.1254384
114	0xbdf2f50f	-0.118631475
115	0x3d1a392f	0.03765219
116	0x3d54b909	0.051934276
117	0x3cb75bff	0.022382734
118	0xbbd9bf21	-0.006645099
119	0xbd92b94a	-0.07164247
120	0x3b9fd762	0.0048779706
121	0x3db2c61e	0.08729194
122	0x3c4e0e7e	0.012576697
123	0xbdbeceed	-0.09316812
124	0xbd0575e5	-0.032583136
125	0x3db12fbb	0.08651682
126	0xbd3e2d82	-0.04643012
127	0x3bc387c6	0.005967113
128	0xbe9c62bf	-0.30544087
129	0xbd30116a	-0.042985357
130	0x3ceba4aa	0.028765041
131	0x3dd14281	0.10217763
132	0xbdc06fed	-0.09396348
133	0x3d3b6e14	0.045759276
134	0x3df1a371	0.11798752
135	0xbd6a8e42	-0.057264574
136	0x3e021f58	0.12707269
137	0xbcc66c4d	-0.024221564
138	0xbbefb842	-0.0073156664
139	0x3d82d04e	0.06387387
140	0xbd219e0c	-0.039457366
141	0xbd807619	-0.06272525
142	0x3cee2340	0.029069543
143	0xbd921678	-0.07133192
144	0x3d038ed6	0.03211864
145	0xbc59b200	-0.013287067
146	0x3cc6cf82	0.02426887
147	0xbdc34329	-0.09534294
148	0x3c5a5e71	0.013328181
149	0xbbaa22d1	-0.0051921387

weight f4 [150, 150]
0	0x3e4a7533	0.1977127
1	0x3debdaf3	0.115163706
2	0xbc1099be	-0.0088257175
3	0xbe11c05d	-0.14233537
4	0xbdae9f6e	-0.085265025
5	0x3e047e5d	0.12938829
6	0x3e36143b	0.17781155
7	0xbe61520a	-0.22003952
8	0xbe309cca	-0.1724731
9	0x3d2d36cf	0.042288598
10	0x3caabc03	0.020841604
11	0x3dad427a	0.08459945
12	0xbe8e41c2	-0.27784544
13	0xbadd0a28	-0.0016863989
14	0x3e1da3a6	0.15394458
15	0x3e5a76cc	0.2133438
16	0xbe40c949	-0.18826784
17	0xbe056753	-0.13027696
18	0x3e0b7184	0.13617522
19	0xbe296f92	-0.16546467
20	0xbdacea71	-0.08443154
21	0xbda36b2a	-0.07979424
22	0x3e0267c0	0.1273489
23	0x3e2efe79	0.17089261
24	0xbea4f7e2	-0.3222037
25	0x3d1250ca	0.035721578
26	0xbe17a21d	-0.14807935
27	0xbe190e7d	-0.14946933
28	0xbba71e49	-0.005100046
29	0x3daf8bee	0.08571611
30	0xbc5b550b	-0.013386975
31	0xbde830be	-0.11337422
32	0xbd1f23c1	-0.038852457
33	0x3e3e563f	0.18587588
34	0xbe44652c	-0.19179219
35	0xbc364bd9	-0.011126482
36	0x3d0da393	0.034579825
37	0x3d9b6989	0.075884886
38	0x3ddef95e	0.10887407
39	0xbe2da7ae	-0.16958496
40	0xbd4e0c01	-0.050304417
41	0x3c323a1b	0.010878111
42	0x3e0abf02	0.13549426
43	0xbd2a26f6	-0.041541062
44	0x3d25553c	0.04036449
45	0xbd51fe15	-0.051267702
46	0xbda9f917	-0.08299463
47	0xbda97e33	-0.08276024
48	0x3c9e18c7	0.019298924
49	0x3df8e964	0.12153891
50	0xbd291b51	-0.041285817
51	0x3cbde7ee	0.023181882
52	0x3d207832	0.039177127
53	0x3e31c699	0.17360915
54	0xbd06e23c	-0.032930598
55	0x3d5383a5	0.051639218
56	0x3e475eef	0.19469808
57	0xbd2f4a4c	-0.042795464
58	0x3e23850d	0.15968724
59	0xbdff1356	-0.1245486
60	0xbdf42f14	-0.11923042
61	0xbe84c617	-0.2593238
62	0xbd6d762e	-0.057974033
63	0xbe53c165	-0.20679243
64	0xbd87243e	-0.065987095
65	0xbd73fa54	-0.059564903
66	0xbe6aef2d	-0.22942801
67	0xbe3e42e7	-0.18580209
68	0xbd91432b	-0.070928894
69	0x3c169a9d	0.009192136
70	0xbd73c779	-0.059516404
71	0xbd948837	-0.072525434
72	0xbe0cf877	-0.13766657
73	0xbde4a929	-0.11165077
74	0x3d1a4215	0.037660677
75	0xbd1663f6	-0.036716424
76	0xbe0e675f	-0.1390662
77	0xbcb486b2	-0.022036884
78	0xbe1a0394	-0.15040427
79	0xbd68144c	-0.05665998
80	0xbd3a6eb6	-0.04551574
81	0xbc80d362	-0.015725795
82	0x3dfb2e3e	0.12264679
83	0xbaad8810	-0.0013239402
84	0xbe4400b1	-0.19140889
85	0x3d79907c	0.060928807
86	0xbd4d132f	-0.050067123
87	0x3d020186	0.031739734
88	0x3ddfadea	0.10921843
89	0xbd8e4791	-0.06947244
90	0xbd41e99b	-0.047341924
91	0x3e44ddb0	0.19225192
92	0x3d83f723	0.06443622
93	0x3cd9470c	0.026523136
94	0xbe0b25a8	-0.13588583
95	0xbe32c994	-0.17459708
96	0xbe131e71	-0.14367081
97	0x3daf7ad0	0.085683465
98	0x3d7d4112	0.061829634
99	0x3e6591dd	0.22418924
100	0x3d8124e5	0.06305865
101	0x3d28fbd8	0.041255802
102	0xbe4b4f8f	-0.19854568
103	0x3dc84b9a	0.09780045
104	0x3ec054e8	0.37564778
105	0xbd2a18f2	-0.041527696
106	0x3bb4f874	0.005522782
107	0x3df1dd86	0.1180983
108	0xbde5d15b	-0.11221572
109	0x3da73054	0.08163515
110	0xbe0ce6a9	-0.13759865
111	0x3dcbf043	0.09957936
112	0x3dd3919d	0.10330508
113	0x3d83b0b0	0.06430185
114	0x3d818246	0.06323676
115	0xbdc2ca80	-0.0951128
116	0xbd12dd29	-0.035855446
117	0x3cba22e4	0.022721715
118	0x3ce0e9c1	0.027455213
119	0x3db07658	0.08616322
120	0xbcb7bea4	-0.022429772
121	0xbbca07bb	-0.0061654723
122	0xbda227d5	-0.079177536
123	0x3e729021	0.23687793
124	0x3e26db18	0.16294515
125	0x3dc835ea	0.09775908
126	0xbb335461	-0.0027363526
127	0x3dc332d4	0.09531179
128	0x3e20d982	0.15707973
129	0xbd59f8ee	-0.053215913
130	0xbcf98c79	-0.03046249
131	0xbdff604c	-0.12469539
132	0x3df40d22	0.119165674
133	0xbeb6e1f1	-0.35719255
134	0xbe141fb5	-0.1446522
135	0x3e92ecb4	0.28696215
136	0xbe57fe30	-0.21093059
137	0xbccbf01c	-0.024894767
138	0xbe3b304f	-0.18280147
139	0x3d817456	0.063210174
140	0x3d01d77f	0.031699654
141	0xbe3c8856	-0.18411383
142	0xbe836a6b	-0.25667128
143	0xbc586ee0	-0.013210028
144	0xbe41fa81	-0.18943216
145	0x3e640f44	0.22271448
146	0x3d52c75c	0.051459655
147	0xbcf5a8ee	-0.029987779
148	0xbd9794ab	-0.07401403
149	0xbd1ce744	-0.03830649
150	0x3dfee051	0.12445129
151	0xbe1503c8	-0.14552224
152	0xbc08349e	-0.008313326
153	0xbcbbde8f	-0.022933273
154	0x3df78324	0.1208556
155	0x3e3e9f9a	0.1861557
156	0x3e8ba880	0.27276993
157	0xbd735f3b	-0.05941699
158	0x3e137122	0.14398625
159	0xb9388b1a	-0.00017599427
160	0x3df11102	0.11770822
161	0xbcc91ad7	-0.024548931
162	0xbc19cedb	-0.009387697
163	0x3ecdd44f	0.4020104
164	0xbdde6b56	-0.108603165
165	0x3e603e1e	0.21898696
166	0xbdae91c2	-0.08523895
167	0xbe5cdea5	-0.21569307
168	0xbd28a28e	-0.04117065
169	0x3e5aba69	0.21360172
170	0x3d2228b0	0.039589584
171	0xbcd296fa	-0.025706757
172	0xbe1fb1ec	-0.15595216
173	0xbe5da391	-0.21644427
174	0x3dc4dc3f	0.09612321
175	0xbd843d15	-0.06456963
176	0x3d6c5293	0.057695936
177	0xbe0ae757	-0.13564812
178	0x3e086910	0.13321328
179	0x3da9a3e6	0.08283214
180	0xbd109d68	-0.035306364
181	0xbe82e118	-0.25562358
182	0x3dad3b1d	0.084585406
183	0x3e87cfd9	0.26525763
184	0xbb0127dd	-0.0019707598
185	0xbe1a16bb	-0.15047733
186	0x3da6b949	0.08140809
187	0xbe69aacf	-0.22819065
188	0xbc8f6676	-0.017504912
189	0xbd3fe817	-0.046852197
190	0xbd3bca58	-0.045847267
191	0x3e02cde5	0.12773855
192	0x3d56fd74	0.052487805
193	0x3dae8f0d	0.085233785
194	0xbc896ddc	-0.016776018
195	0xbdd89639	-0.10575528
196	0x3e10f951	0.14157607
197	0x3cda67d3	0.026660835
198	0xba452b03	-0.0007521363
199	0xbda6238d	-0.081122495
200	0x3e80fef1	0.25194505
201	0x3c8219ed	0.015881503
202	0x3db635db	0.08896991
203	0x3c97de7a	0.018538702
204	0x3e193f38	0.14965522
205	0xbdf378e7	-0.11888295
206	0xbc5a3708	-0.013318785
207	0x3e3cce4c	0.18438071
208	0x3d4e5ceb	0.050381582
209	0xbe404c00	-0.18778992
210	0x3e814f3f	0.25255772
211	0xbcf5edae	-0.030020561
212	0xbc983df8	-0.018584237
213	0xbe383fc4	-0.17993075
214	0x3e78b629	0.24288239
215	0x3cbe845a	0.02325647
216	0xbe9e19a9	-0.30878952
217	0xbe2a534f	-0.16633342
218	0x3d91f4ae	0.07126747
219	0xbdc7e82f	-0.097610824
220	0xbe02e164	-0.12781292
221	0xbe4d6cff	-0.2006111
222	0xbd2b2a80	-0.041788578
223	0x3d8e2221	0.06940103
224	0x3e34dc1a	0.17662087
225	0xbe71a6d8	-0.23598802
226	0xbe13204f	-0.14367794
227	0x3d666e14	0.056257322
228	0xbda19d11	-0.07891286
229	0xbcfbe2dc	-0.030747823
230	0xbc8f4ba6	-0.017492127
231	0x3dced92f	0.10100018
232	0x3e2ae48d	0.16688748
233	0xbdc05efa	-0.09393115
234	0xbeade07e	-0.33960336
235	0x3d1a4136	0.037659846
236	0xbce73a69	-0.028226094
237	0x3da767bf	0.08174085
238	0x3c6ceb8d	0.014460457
239	0x3da0c18d	0.07849417
240	0x3e10f3a4	0.14155442
241	0xbc42fb0f	-0.011900677
242	0xbd944b97	-0.0724098
243	0xbdd9e530	-0.10639417
244	0x3e33cb53	0.17558031
245	0xbcf316d1	-0.029673966
246	0xbbc04f28	-0.005868811
247	0x3d2504c6	0.040287755
248	0xbbe0059e	-0.006836607
249	0xbc740070	-0.014892682
250	0x3dcaf02e	0.09909092
251	0x3e1d1032	0.1533821
252	0xbd9eb154	-0.077486664
253	0xbd0a001f	-0.03369152
254	0x3df1db41	0.118093975
255	0xbc535d9b	-0.012900735

bias f4 [150]
0	0xbd9b9af4	-0.07597914
1	0xbda031c6	-0.078219935
2	0xbdad40e9	-0.08459646
3	0xbdcb41d4	-0.09924665
4	0x3c801536	0.015635114
5	0xbd0bde5f	-0.034147616
6	0x3e1f2c14	0.15544158
7	0xbceb64e2	-0.028734628
8	0xbc61eb56	-0.013789019
9	0xbd841d76	-0.06450932
10	0x3c8308bc	0.015995376
11	0x3da89290	0.082310796
12	0xbdd9760e	-0.1061822
13	0x3e42c27f	0.19019507
14	0xbb136e8f	-0.0022496318
15	0x3e2fd6b0	0.1717174
16	0x3e0b0c2e	0.13578865
17	0x3d611c05	0.054958362
18	0xba82d191	-0.0009980669
19	0x3d03487c	0.03205155
20	0xbb5c7cd2	-0.0033643735
21	0xbc5b640a	-0.01339055
22	0xbcb29c74	-0.021803118
23	0xbd965075	-0.07339565
24	0xbb829152	-0.0039846087
25	0x3e648b6e	0.22318813
26	0x3cd2dc26	0.02573974
27	0x3db4b30e	0.088232145
28	0x3e3bf662	0.18355706
29	0xbc2b52ef	-0.010456785
30	0x3ca53aca	0.020169634
31	0x3de3df1f	0.11126541
32	0xbe2735c0	-0.16329098
33	0xbc89a1fe	-0.016800877
34	0xbe1a58ae	-0.15072891
35	0x3d8b9ce2	0.068170324
36	0x3d0b5e01	0.034025196
37	0xbe06fa4d	-0.1318142
38	0x3c984b0c	0.018590473
39	0xbd99d7d3	-0.07511868
40	0x3d43d5d1	0.047811333
41	0x3dc6e742	0.09712078
42	0xbc69d113	-0.014271039
43	0x3c543561	0.01295218
44	0x3d877da6	0.066157624
45	0xbd27672a	-0.04086987
46	0xbd345861	-0.044029597
47	0x3e3a370a	0.18185058
48	0x3d8c67fd	0.06855772
49	0x3dfce4e5	0.12348346
50	0xbda2333b	-0.07919928
51	0x3cd21f61	0.025649728
52	0xbd1642c3	-0.036684763
53	0x3d787e18	0.060667127
54	0x3d9fe43c	0.07807204
55	0xbd86e84c	-0.06587276
56	0x3dc7525a	0.09732504
57	0xbd13922f	-0.036028083
58	0xbe700383	-0.2343884
59	0xbc7a6347	-0.015282459
60	0xbd987f8d	-0.074462034
61	0x3e30dcf0	0.17271781
62	0x3d717f24	0.05895914
63	0x3da08b1e	0.078390345
64	0x3d0951ef	0.033525404
65	0xbdd3fd63	-0.10351064
66	0xbd269582	-0.040669926
67	0x3d713987	0.058892753
68	0xbb9acf05	-0.0047243857
69	0x3da3c0a8	0.07995731
70	0x3d9325c9	0.07184941
71	0x3d5975b3	0.053090762
72	0x3b3f91a6	0.00292311
73	0x3d298851	0.041389767
74	0x3e638ae4	0.22220951
75	0x3db7aa28	0.089680016
76	0xbcb79ab3	-0.022412634
77	0xbd313bf0	-0.04327005
78	0x3df0de30	0.11761129
79	0xbd79f663	-0.06102599
80	0x3dee24a5	0.11628083
81	0x3a337e66	0.0006847143
82	0x3e12b922	0.14328435
83	0x3d859508	0.06522566
84	0x3e15cd53	0.14629106
85	0x3c9b2884	0.018940218
86	0xbda2970d	-0.07938967
87	0x3de39608	0.111126006
88	0xbe1a34cf	-0.15059207
89	0x3c14f3d5	0.009091337
90	0x3d5643c8	0.052310735
91	0x3dd44e29	0.1036647
92	0x3e0f65bd	0.14003654
93	0x3e544c19	0.20732154
94	0xbde0b561	-0.10972095
95	0xbdc18865	-0.09449843
96	0xbba7c701	-0.0051201587
97	0xbdeb15b6	-0.114787504
98	0xbd345a0e	-0.044031195
99	0xbcee0d79	-0.029059159
100	0x3d3c1fb4	0.045928672
101	0xbc941b12	-0.018079314
102	0xbbd1f45f	-0.006407305
103	0x3d56dd60	0.052457213
104	0xbdbda858	-0.09260625
105	0xbd157b17	-0.03649434
106	0x3c76a78c	0.015054595
107	0xbe076584	-0.13222319
108	0xbda7afbc	-0.081878155
109	0xbe64b186	-0.22333345
110	0x3d1713fa	0.036884286
111	0xbd34aa87	-0.04410794
112	0xbdb112bd	-0.08646152
113	0x3d12cc49	0.035839353
114	0x3b036c03	0.0020053394
115	0x3de8680b	0.113479696
116	0x3d5b749c	0.053578004
117	0x3d913342	0.07089855
118	0xbdc507aa	-0.096206024
119	0xbd1c2cf3	-0.038128804
120	0x3e029f52	0.12756088
121	0xbc60e7ca	-0.013727138
122	0x3e13a017	0.14416538
123	0x3dcdc768	0.10047799
124	0x3a84d070	0.001013292
125	0x3bd25e5f	0.0064199413
126	0x3da50850	0.08058226
127	0xbd1473f0	-0.03624338
128	0xbd1e925c	-0.038713798
129	0x3b9cce76	0.0047853542
130	0xbcaff188	-0.021477476
131	0x3ddcb7f8	0.10777277
132	0xbcce5075	-0.02518485
133	0xbcd5e5bd	-0.026110524
134	0x3e2cc07e	0.16870305
135	0xbd089b1f	-0.03335106
136	0xbd0c52cb	-0.034258645
137	0xbdfe04fa	-0.12403293
138	0x3dfa2acc	0.12215194
139	0x3ce54089	0.027984874
140	0xbd13f6e2	-0.036124118
141	0xbd0e98ca	-0.03481368
142	0x3cd104ad	0.025514925
143	0x3ca66e54	0.02031628
144	0xbda956a4	-0.082684785
145	0x3da0b205	0.078464545
146	0xbc63a640	-0.013894618
147	0x3e192a29	0.14957489
148	0xbca7684c	-0.020435475
149	0x3e460745	0.1933871

weight f4 [150, 18]
0	0x3d4594e1	0.048237685
1	0x3e3ab25e	0.18232104
2	0xbde582d8	-0.11206597
3	0x3d9e44ab	0.07727941
4	0x3d8f5ed7	0.07000511
5	0xbd9c36aa	-0.07627614
6	0x3d37ccda	0.044873096
7	0xbe100af4	-0.14066678
8	0xbbaf6adb	-0.0053533143
9	0x3d3cfc3c	0.046138987
10	0x3e2a0e82	0.16607097
11	0xbdb2e7b6	-0.087356016
12	0x3d8f8a45	0.07008795
13	0xbd6259e1	-0.055261496
14	0xbe712f6d	-0.23553248
15	0xbc373259	-0.011181437
16	0xbe204bad	-0.15653868
17	0xbca59120	-0.020210803
18	0xbd641986	-0.055688404
19	0xbe55f2f4	-0.2089346
20	0x3e5090cc	0.20367736
21	0xbc8a646b	-0.016893586
22	0xbdaaa900	-0.083330154
23	0x3e01e56e	0.12685177
24	0xbd8dac0d	-0.06917582
25	0x3dfd7cf3	0.12377348
26	0x3dcb5217	0.09927767
27	0xbd8fc020	-0.07019067
28	0x3d1c2d6e	0.038129263
29	0xbdfd32a2	-0.12363173
30	0x3c4856ca	0.012227723
31	0xbe935157	-0.28772995
32	0x3dad200e	0.084533796
33	0xbe74833b	-0.23878185
34	0x3e6195b2	0.2202976
35	0xbe9f386c	-0.31097734
36	0x3df11237	0.11771052
37	0x3c9252d5	0.017861763
38	0xbe5be5a0	-0.21474314
39	0x3dd7a083	0.10528662
40	0xbdff9886	-0.124802634
41	0xbccb7eb9	-0.0248407
42	0xbe268755	-0.16262563
43	0xbc65eeea	-0.014034012
44	0x3de35238	0.11099666
45	0x3d17ef89	0.037093673
46	0x3d959965	0.07304648
47	0x3cdd50f9	0.02701615
48	0xbd3ffbe6	-0.04687109
49	0x3d668b81	0.056285385
50	0x3d8e6eca	0.06954725
51	0x3e2c78e2	0.16842988
52	0xbc2bd898	-0.010488652
53	0x3ca2b48d	0.019861484
54	0x3b76b35b	0.0037643525
55	0xbd9608e6	-0.07325916
56	0x3e9468c5	0.28986183
57	0x3dbe94a1	0.093056925
58	0x3dee5cf2	0.11638822
59	0xbb0f0098	-0.0021820422
60	0xbd8af4fb	-0.067850076
61	0x3d0af0eb	0.033921164
62	0xbceda348	-0.029008523
63	0xbe15ae8b	-0.14617364
64	0x3e138427	0.14405881
65	0x3e091fd4	0.13391048
66	0xbde3cfc6	-0.11123614
67	0xbe34154a	-0.17586246
68	0x3dcef813	0.1010591
69	0xbd258a94	-0.04041536
70	0xbdba62fe	-0.091009125
71	0xbe8a3d0c	-0.269997
72	0xbd6157ae	-0.05501526
73	0xbdfdd4cd	-0.12394104
74	0x3baf931e	0.005358114
75	0x3de58630	0.11207235
76	0x3e3e01be	0.18555352
77	0x3a32cf9e	0.00068210985
78	0x3c895148	0.01676239
79	0x3d97dc6f	0.07415091
80	0xbda21324	-0.07913807
81	0x3cc1ffb9	0.023681508
82	0xbdf54804	-0.119766265
83	0x3d15e31b	0.036593538
84	0xbd5205c5	-0.051275034
85	0xbd9c8a12	-0.07643522
86	0xbbbbffe7	-0.005737293
87	0x3dd4ad40	0.10384607
88	0x3e8f4c47	0.27987882
89	0xbc9d7e7f	-0.019225357
90	0x3c00e838	0.007867865
91	0xbd514516	-0.051091276
92	0x3e0f1f07	0.1397668
93	0x3d2bbac4	0.04192616
94	0xbd96f4d4	-0.07370916
95	0xbce54f3f	-0.027991889
96	0xbd905998	-0.07048339
97	0x3e7f9837	0.24960409
98	0x3d9b106d	0.07571492
99	0xbe3345a3	-0.17507033
100	0x3e15489f	0.14578484
101	0x3e1dc578	0.1540736
102	0x3dc7f5ab	0.09763654
103	0x3d5fe920	0.054665685
104	0x3d0c545a	0.03426013
105	0x3d119489	0.035542045
106	0x3e397f84	0.1811505
107	0xbe50480f	-0.20339988
108	0x3ce64c67	0.028112603
109	0xbb163d24	-0.0022924626
110	0x3cfe339d	0.03103047
111	0x3c884a49	0.016636984
112	0x3cea8c0d	0.028631235
113	0xbcd83bab	-0.02639564
114	0xbe0e6500	-0.13905716
115	0xbe8ea1c5	-0.27857795
116	0x3e31dfc6	0.17370519
117	0x3aee9ca1	0.0018204638
118	0xbd96461d	-0.07337592
119	0xbe3c5520	-0.18391848
120	0x3de5754b	0.112040125
121	0xbd8c6683	-0.0685549
122	0x3cbfea5e	0.023427185
123	0xbe02d633	-0.12777023
124	0x3d99740a	0.07492836
125	0xbe5dfde2	-0.2167888
126	0xbcef155c	-0.02918499
127	0xbdacc9d6	-0.08436935
128	0xbcde3312	-0.027123962
129	0xbd8f74a1	-0.07004667
130	0x3c0b3844	0.0084973015
131	0xbd8afe25	-0.067867555
132	0x3dc63d8c	0.09679708
133	0xbddd6226	-0.10809736
134	0xbd190205	-0.03735544
135	0x3d6a89ab	0.057260197
136	0x3da1cfbe	0.07900952
137	0xbe3793e1	-0.17927505
138	0x3dae994b	0.08525332
139	0xbc9b322a	-0.018944819
140	0xbe6f1952	-0.23349503
141	0x3d5f883d	0.054573286
142	0xbd10d6cb	-0.035361093
143	0xbd388dfc	-0.04505728
144	0x3d861ddd	0.06548665
145	0xbdc78d6f	-0.09743773
146	0x3cca088a	0.024662275
147	0x3e1cdd08	0.15318692
148	0xbc6adabf	-0.01433438
149	0xbe2fd40f	-0.17170738
150	0xbdca88c6	-0.09889369
151	0xbd780bb0	-0.06055802
152	0xbdf913ee	-0.121620044
153	0x3da4f5de	0.08054708
154	0x3cfcf3e9	0.030878024
155	0xbe27eea2	-0.16399625
156	0xbd3edd1f	-0.046597596
157	0xbc914677	-0.017733796
158	0x3dac43ac	0.08411345
159	0xbd7b71a0	-0.061387658
160	0x3df32f58	0.118742645
161	0xbad50b5f	-0.0016253999
162	0x3de4c46a	0.111702755
163	0xbe3bada3	-0.18327956
164	0xbbebf93d	-0.0072013424
165	0xbe0c391c	-0.1369366
166	0x3de1f427	0.110328965
167	0x3e10aec5	0.1412917
168	0x3d09c882	0.033638485
169	0xbd818f7e	-0.06326197
170	0x3d8702fe	0.065923676
171	0x3e85cb32	0.26131588
172	0xbd956a7e	-0.072957024
173	0xbe57b4d5	-0.21065076
174	0xbe468b2c	-0.19389027
175	0x3c974236	0.018464189
176	0xbe7e8e24	-0.2485891
177	0xbd644af5	-0.055735547
178	0x3b59dd7e	0.0033243592
179	0x3d943028	0.072357476
180	0xbcb8004c	-0.022461079
181	0xbd679a85	-0.056543846
182	0x3ac20694	0.0014802986
183	0x3d6aafe8	0.057296664
184	0x3c99a4e5	0.018755386
185	0x3e0c4a00	0.13700104
186	0x3cf3ccd7	0.029760761
187	0x3d563faf	0.052306827
188	0x3e20db40	0.15708637
189	0xbcde8945	-0.027165065
190	0x3e12bb13	0.14329176
191	0x3d910afa	0.07082172
192	0xbca18b1a	-0.01971965
193	0x3d188132	0.037232585
194	0x3dd16577	0.10224431
195	0x3da11574	0.0786542
196	0xbdeb9c8e	-0.1150447
197	0x3ea774f7	0.32706425
198	0x3e169db6	0.147086
199	0x3e9dc53e	0.30814546
200	0xbe113617	-0.1418079
201	0x3dba2740	0.090895176
202	0xbd90fb10	-0.07079136
203	0x3e3e5e8e	0.18590757
204	0xbde49c46	-0.11162619
205	0xbd8eebcc	-0.069785684
206	0xbcb6ec0b	-0.022329351
207	0x3ddb7e4a	0.10717447
208	0xbdfb77bd	-0.12278698
209	0xbd1328c8	-0.035927564
210	0x3d53d16f	0.051713403
211	0xbdeded68	-0.11617547
212	0xbecd8f39	-0.40148333
213	0xbd3b2cb3	-0.045696925
214	0x3dabadda	0.08382769
215	0xbc564a28	-0.013079204
216	0xbd623f75	-0.0552363
217	0xbdfc1e3c	-0.12310454
218	0x3c93b543	0.018030768
219	0xbb4f9dd1	-0.003167976
220	0xbd8a6ffc	-0.067596406
221	0xbdefe41f	-0.117134325
222	0x3e24ce2b	0.16094272
223	0x3c5944b4	0.013261009
224	0xbe471903	-0.19443135
225	0x3dabe2f9	0.08392901
226	0x3e0d9935	0.13827975
227	0x3dc736b0	0.09727228
228	0xbdb4ff55	-0.08837763
229	0x3c780559	0.015137994
230	0x3c8b5597	0.017008586
231	0x3e0caabc	0.13737005
232	0xbe2f9cb0	-0.17149615
233	0x3eb380f1	0.35059312
234	0xbcd811cb	-0.026375672
235	0x3c0c8ff8	0.008579247
236	0x3d4544e0	0.048161387
237	0x3e259ba4	0.16172653
238	0xbdfb10cc	-0.12259063
239	0xbd449e8f	-0.048002776
240	0xb9c6cb32	-0.00037916895
241	0xbdaead5d	-0.0852916
242	0xbd8013c3	-0.06253769
243	0xbe056e44	-0.13030344
244	0x3d4d4957	0.05011877
245	0x3e337602	0.17525485
246	0xbd908bfa	-0.070579484
247	0xbcceb505	-0.025232801
248	0x3ddfd2d5	0.10928885
249	0x3d327c3e	0.043575518
250	0x3d361d58	0.044461578
251	0xbe3c01be	-0.1836004
252	0xbe4a9662	-0.19783929
253	0xbde19b87	-0.110159926
254	0x3d73da2d	0.05953424
255	0x3c84c6ac	0.016208015

bias f4 [150]
0	0xbea038c5	-0.31293312
1	0xbdd73482	-0.10508062
2	0x3cc72fc5	0.02431477
3	0x3e2ebf39	0.17065133
4	0x3d14893a	0.036263682
5	0x3e108d39	0.14116372
6	0x3d082e58	0.03324732
7	0x3b492fe2	0.0030698706
8	0x3da62130	0.08111799
9	0xbe4f65b9	-0.20253648
10	0x3e2b68a0	0.1673913
11	0xbe825971	-0.25458863
12	0xbb8c91da	-0.004289848
13	0x3d8e06cf	0.069348924
14	0xbeb2311c	-0.34803092
15	0xbd43c110	-0.04779154
16	0xbead06da	-0.3379429
17	0x3c5d3ffe	0.013504026
18	0xbe0f604e	-0.14001581
19	0x3c9a177f	0.018810032
20	0x3eb5215e	0.3537702
21	0xbd835d92	-0.064143315
22	0xbeec1125	-0.4610683
23	0x3d8178a6	0.0632184
24	0x3e9fd61b	0.31218037
25	0xbe28fa41	-0.16501714
26	0x3d8d728c	0.06906614
27	0x3e80791b	0.25092396
28	0x3e32c65b	0.17458479
29	0x3d85f6b9	0.06541199
30	0x3dc7a08e	0.0974742
31	0xbafe3c29	-0.0019396591
32	0xbd38490c	-0.044991538
33	0x3e5580cd	0.20849915
34	0x3d4668d3	0.048439812
35	0xbd5591ae	-0.052140884
36	0x3db69bbf	0.08916425
37	0xbd77f2e1	-0.06053436
38	0xbdf240ed	-0.1182879
39	0x3d1d2619	0.03836641
40	0x3df47528	0.11936408
41	0xbdc9714a	-0.09836061
42	0x3ea18109	0.3154376
43	0xbe1f5fdf	-0.15563916
44	0xbe81cb36	-0.2535035
45	0x3e061540	0.13094044
46	0x3e61a4ed	0.2203557
47	0x3e68d188	0.2273618
48	0xbe9d2864	-0.30694878
49	0x3e88b9f3	0.26704368
50	0xbd8aec94	-0.06783405
51	0x3de8fd1c	0.11376402
52	0x3ebb863d	0.36625853
53	0x3db15c95	0.08660237
54	0xbd58fb65	-0.052974124
55	0xbdf007e7	-0.11720257
56	0xbd110461	-0.035404567
57	0xbca189e5	-0.019719074
58	0x3e0ba053	0.13635378
59	0x3e809c4b	0.25119242
60	0xbc09cb7b	-0.00841033
61	0xbdb67e01	-0.08910752
62	0xbe1543ee	-0.14576694
63	0x3e25526f	0.16144727
64	0xbe3e87c9	-0.18606485
65	0x3e6f93d5	0.23396237
66	0x3d6391c7	0.055558946
67	0xbda40813	-0.080093525
68	0xbed66e30	-0.4188094
69	0x3dbc24df	0.0918672
70	0x3e37e51b	0.1795849
71	0x3e5f73ce	0.2182152
72	0xbe3156a9	-0.17318214
73	0xbd755823	-0.059898507
74	0xbe0aeeec	-0.13567704
75	0xbd2929bb	-0.041299563
76	0xbdb0ffed	-0.08642564
77	0xbd3dbd77	-0.046323266
78	0x3e99b52c	0.30021036
79	0x3bd63489	0.0065370244
80	0xbdfb48d9	-0.12269754
81	0xbd9545d4	-0.07288709
82	0x3b9b7ff7	0.004745479
83	0xbe69b415	-0.22822602
84	0xbdb6f26a	-0.089329556
85	0x3dec68e7	0.11543446
86	0xbe2988d2	-0.16556099
87	0x3d5ca945	0.053872366
88	0x3dbc7593	0.09202113
89	0x3c3dd891	0.011587278
90	0xbdf1c83f	-0.11805772
91	0x3e0c020b	0.13672654
92	0xbe13528f	-0.14386962
93	0x3d5c129f	0.053728696
94	0xbe6acb56	-0.22929129
95	0xbde681e0	-0.112552404
96	0xbe72f18c	-0.23724955
97	0x3e2410dc	0.16022056
98	0xbe2d6a14	-0.16934997
99	0xbe2c86b0	-0.16848254
100	0xbd2438a0	-0.040093064
101	0x3e5acf99	0.21368255
102	0x3ccecbc7	0.025243653
103	0xbc1a117d	-0.009403584
104	0x3e32a0a4	0.17444092
105	0x3ee34ca0	0.44394398
106	0xbe809e24	-0.25120652
107	0xbe63be64	-0.22240597
108	0x3dc135c1	0.09434081
109	0x3d8651df	0.065585844
110	0x3dd3acab	0.10335668
111	0x3bdbf8e2	0.0067130188
112	0x3ed38f94	0.4132048
113	0x3e7d6625	0.24745996
114	0xbd87ec96	-0.06636922
115	0x3e3bdd81	0.18346216
116	0xbdd1491f	-0.10219025
117	0x3d3ed77e	0.046592228
118	0x3ed77f73	0.42089424
119	0x3a39cea4	0.0007087982
120	0xbe0d9c31	-0.13829114
121	0x3e72fcac	0.23729199
122	0xbe18a8c9	-0.14908136
123	0xbcdddc69	-0.027082639
124	0xbb8f97b7	-0.0043820995
125	0x3e095cce	0.13414308
126	0xbe0a1c4d	-0.13487358
127	0x3eb7dc09	0.3591006
128	0xbc1b12c2	-0.009464921
129	0x3e0fd7cc	0.14047164
130	0x3e604053	0.21899538
131	0x3ce5880c	0.028018974
132	0x3df9071e	0.121595606
133	0x3e75c49e	0.24000785
134	0x3e95fc00	0.29293823
135	0x3f036a41	0.51334006
136	0xbdb0f94e	-0.08641301
137	0xbdc76747	-0.097364955
138	0x3dbfefe6	0.09371929
139	0x3eb51ef4	0.35375178
140	0x3c81f702	0.015864853
141	0xbea0ddd5	-0.31419244
142	0xbe4282ea	-0.18995252
143	0x3d22ff3f	0.039794203
144	0xbe2f3b4d	-0.17112465
145	0x3ce8eab1	0.028432222
146	0x3cd897a0	0.026439488
147	0x3d3f49cc	0.046701238
148	0x3c4e83d5	0.012604673
149	0xbd384ebd	-0.044996966

weight f4 [150, 150]
0	0x3db35b96	0.08757703
1	0x3d8286e0	0.063733816
2	0x3dac4544	0.08411649
3	0xbe1e0124	-0.15430123
4	0xbd89e590	-0.06733239
5	0x3e1e8a07	0.15482341
6	0x3dc5c26d	0.096562244
7	0x3ce0b898	0.027431771
8	0x3d9a9cb0	0.07549417
9	0x3c8302cf	0.01599255
10	0xbeb8a388	-0.36062264
11	0x3e07991f	0.13242005
12	0xbe557b32	-0.20847777
13	0xbe62b681	-0.22139932
14	0xbe01a14f	-0.1265919
15	0xbcd078c6	-0.025448214
16	0x3e9b1dbb	0.3029612
17	0x3d9a1e3a	0.075252965
18	0x3ea058a1	0.31317618
19	0xbe2b3006	-0.16717538
20	0xbe1233d5	-0.14277585
21	0xbdd6b656	-0.104839966
22	0xbe2e1ac1	-0.17002393
23	0xbd17431d	-0.03692924
24	0xbdeaf04f	-0.114716165
25	0xbd9bc4c3	-0.07605889
26	0x3cefc73e	0.02926981
27	0x3e0ca2f4	0.13734037
28	0xbd905187	-0.070468
29	0x3d986593	0.07441249
30	0xbe177ec1	-0.14794447
31	0xbd4b499a	-0.04963074
32	0x3e8e2818	0.27764964
33	0xbdc7fcac	-0.0976499
34	0x3dcb61b8	0.09930748
35	0xbda17f52	-0.078856125
36	0xbdd668c8	-0.10469204
37	0xbe0005cb	-0.1250221
38	0x3e817550	0.25284815
39	0xbe00c3f2	-0.12574747
40	0x3e3074c0	0.17232037
41	0xbdbba2cf	-0.09161913
42	0xbd2e6b17	-0.042582598
43	0x3dc50d8f	0.09621727
44	0xbe910da9	-0.28330734
45	0xbdc11d58	-0.09429425
46	0xbba23001	-0.00494957
47	0xbe609d7e	-0.21935079
48	0x3d666e12	0.056257315
49	0x3d5d565a	0.05403743
50	0x3de7df4c	0.113218874
51	0xbdbeb267	-0.09311371
52	0x3da9a064	0.08282545
53	0x3e0c9358	0.13728082
54	0x3d6ef409	0.0583382
55	0x3d1b0f33	0.037856292
56	0x3e03d532	0.12874296
57	0x3c417ab4	0.01180904
58	0x3cc8eb92	0.024526391
59	0x3dd1b2bc	0.10239169
60	0x3d5fb8c7	0.054619577
61	0xbe28ae22	-0.16472676
62	0xbcd6a540	-0.026201844
63	0x3d43b729	0.047782097
64	0x3d287676	0.0411286
65	0xbd4c11ac	-0.04982154
66	0x3e1bc13b	0.1521043
67	0x3e26f13d	0.16302963
68	0xbe04380d	-0.12912007
69	0x3dc737cb	0.097274385
70	0x3de3ee2e	0.111294135
71	0x3d6bba06	0.057550453
72	0x3e452ce1	0.19255401
73	0xbd451340	-0.04811406
74	0xbdca34f8	-0.09873384
75	0xbce059fb	-0.027386656
76	0x3be93b35	0.0071176537
77	0xbd894e46	-0.067043826
78	0xbe5a52c5	-0.21320637
79	0xbe594ee1	-0.21221496
80	0xbe86107f	-0.2618446
81	0x3e1ccf91	0.15313555
82	0xbe208d42	-0.15678886
83	0x3e454d66	0.19267806
84	0xbe0647c3	-0.13113312
85	0xbd5c0461	-0.053715114
86	0x3ccd403d	0.025055045
87	0x3dbc3308	0.09189421
88	0x3e4461d8	0.1917795
89	0xbc874fa6	-0.016517472
90	0xbdc8823b	-0.097904645
91	0xbced27ed	-0.028949702
92	0x3d23fa66	0.04003372
93	0x3cc66815	0.024219552
94	0x3e4030aa	0.18768564
95	0xbe3ceec2	-0.18450454
96	0xbe30bfd3	-0.17260675
97	0xbe1e1934	-0.15439302
98	0x3e9a8c22	0.30185038
99	0x3e1a1e03	0.15050511
100	0x3e0f3547	0.13985167
101	0x3e649052	0.22320679
102	0xbe350557	-0.17677818
103	0x3dbd1dda	0.09234209
104	0x3e6c45c5	0.2307349
105	0xbda87685	-0.08225731
106	0xbe6c9fff	-0.23107909
107	0xbe35d212	-0.17755917
108	0x3d2f2c4d	0.042766858
109	0x3cd6a920	0.026203692
110	0x3e4ecde0	0.20195723
111	0xbddf35cc	-0.10898933
112	0x3d233862	0.039848693
113	0x3c5c0ade	0.013430325
114	0x3de03936	0.10948412
115	0xbd2da858	-0.042396873
116	0x3c7911d4	0.015202004
117	0x3db5c2a6	0.08875017
118	0x3d1427f8	0.03617093
119	0x3d3d2eb4	0.046187118
120	0x3e0464e9	0.12929119
121	0x3dc25e30	0.09490621
122	0x3d9f4405	0.077766456
123	0x3d163d67	0.03667965
124	0x3d1c8750	0.03821498
125	0x3d367d35	0.044553
126	0xbd616734	-0.055030063
127	0x3d1281ec	0.035768434
128	0xbd95333b	-0.07285162
129	0xbe2a9583	-0.16658597
130	0x3dc15d9c	0.09441683
131	0x3d214b83	0.039378654
132	0x3c7fadfe	0.015605448
133	0xbcb067b4	-0.021533825
134	0xbe589d35	-0.2115372
135	0xbda8e128	-0.0824607
136	0xbdb81116	-0.08987634
137	0x3dcecfe0	0.10098243
138	0x3dffe8a1	0.12495542
139	0xbd5733df	-0.052539703
140	0xbdb01ea9	-0.08599598
141	0xbde16ca0	-0.11007047
142	0x3e290c69	0.1650864
143	0xbebdc012	-0.370606
144	0xbcab1e62	-0.020888511
145	0xbde5488f	-0.1119548
146	0xbca0d458	-0.019632503
147	0x3d84d8a5	0.06486634
148	0x3de294c4	0.11063531
149	0x3d951c9d	0.07280848
150	0xbd337a3e	-0.04381775
151	0xbe02be39	-0.12767877
152	0xbe2b4f63	-0.16729502
153	0x3d69bf2f	0.057067093
154	0xbc858410	-0.016298324
155	0xbe1132f4	-0.14179593
156	0xbd43f305	-0.047839183
157	0x3e2a29b3	0.1661747
158	0x3cf0df5a	0.029403377
159	0x3ea44914	0.32087004
160	0x3d44f1fa	0.04808233
161	0x3db63be6	0.088981435
162	0x3d51f4b5	0.05125876
163	0xbe04cfa9	-0.12969841
164	0xbe9df6f2	-0.30852467
165	0xbe592566	-0.21205673
166	0xbe1c1e61	-0.15245964
167	0x3d4577da	0.048210002
168	0x3e43fb3f	0.19138812
169	0x3ca6c3b5	0.020356992
170	0x3dc61357	0.096716575
171	0x3d4e81d6	0.05041679
172	0xbe45d440	-0.19319248
173	0xbce1fe33	-0.027587032
174	0xbcc0cbb0	-0.023534626
175	0xbd9e3609	-0.0772515
176	0xb806bda4	-3.2124706e-05
177	0x3e03659b	0.12831728
178	0xbcc7d52d	-0.024393642
179	0x3daa171d	0.0830519
180	0xbd15df92	-0.036590166
181	0xbd1f19f8	-0.038843125
182	0xbd3e68fb	-0.046486836
183	0x3a704f13	0.00091670564
184	0x3e26111d	0.16217466
185	0xbc2ee5f6	-0.010674944
186	0xbd2af498	-0.04173717
187	0x3e3838cb	0.17990415
188	0xbe586cdb	-0.21135275
189	0x3e24d964	0.16098553
190	0x3d29f5e4	0.041494265
191	0x3d9079cf	0.07054483
192	0x3da7238a	0.081610754
193	0xbe6b9c02	-0.23008731
194	0xbc849acb	-0.016187092
195	0xbe0270e6	-0.1273838
196	0x3e9bd3a5	0.3043491
197	0x3d9dbd7b	0.07702156
198	0xbd175750	-0.036948502
199	0xbce936e3	-0.028468555
200	0x3dd8560b	0.105632864
201	0x3dd4d05e	0.103913054
202	0x3e4d366e	0.20040295
203	0xbcc3a140	-0.0238806
204	0xbdb08406	-0.086189315
205	0x3daf61ad	0.08563552
206	0x3d81188d	0.06303511
207	0x3e2574b3	0.16157798
208	0xbd64241f	-0.05569851
209	0x3d082aa0	0.033243775
210	0xbe0caa66	-0.13736877
211	0xbd2df14a	-0.04246644
212	0xbd8a0cf5	-0.067407526
213	0x3d63f888	0.05565694
214	0x3be6e89b	0.0070467717
215	0x3e2df036	0.16986164
216	0x3d0dd27e	0.03462457
217	0xbca12a2b	-0.019673428
218	0xbe4709a0	-0.19437265
219	0x3ddc7b68	0.107657254
220	0xbe139866	-0.14413604
221	0x3d46ccfa	0.048535325
222	0xbd35f017	-0.04441842
223	0xbe03cc3d	-0.1287088
224	0xbdd6f198	-0.10495299
225	0xbcf277e4	-0.029598184
226	0x3d8e5e76	0.06951611
227	0x3e46c3cb	0.19410627
228	0x3ccd7712	0.025081191
229	0xbd6028c3	-0.054726373
230	0x3e62e935	0.22159274
231	0x3dff9ad4	0.12480703
232	0x3d93c1a8	0.072146714
233	0x3bfc75a2	0.0077044526
234	0xbdaf13b4	-0.0854868
235	0x3d749f77	0.05972239
236	0xbde3fd9e	-0.11132358
237	0xbe37b381	-0.17939569
238	0x3e863440	0.2621174
239	0x3e84ed6e	0.25962394
240	0xbda4d34c	-0.08048114
241	0xbe0b82f2	-0.1362417
242	0x3d2c6308	0.04208663
243	0xbd0e739e	-0.03477823
244	0xbe83fe1b	-0.25779805
245	0x3d0fa239	0.035066817
246	0xbc90cfb8	-0.017677173
247	0x3da1a248	0.07892281
248	0xbd38a71a	-0.045081235
249	0xbe02dc67	-0.1277939
250	0xbdb14664	-0.08656004
251	0x3e0c3bff	0.13694762
252	0xbe352d16	-0.1769298
253	0x3de05552	0.109537736
254	0x3df8779e	0.1213219
255	0x3ebbd2e5	0.36684337

bias f4 [150]
0	0x3c0d3afe	0.008620022
1	0x3dfda405	0.123848
2	0x3c54fefb	0.013000245
3	0xbd92d72d	-0.07169948
4	0xbdd76bf8	-0.1051864
5	0x3d4186a4	0.047247544
6	0x3c6dcd3d	0.014514265
7	0x3e0c6de6	0.13713798
8	0x3e1616b4	0.14657098
9	0x3d8fdfca	0.07025106
10	0xbbb14558	-0.0054098777
11	0x3e0910d3	0.13385324
12	0xbd0a3bca	-0.033748426
13	0x3e2338ae	0.1593959
14	0x3e35b9b5	0.17746623
15	0xbbf2bcd7	-0.0074077654
16	0x3dd0d380	0.101965904
17	0x3d9e77a1	0.07737661
18	0x3de4d63c	0.111736745
19	0x3e4135d6	0.18868193
20	0x3dadbe9b	0.08483621
21	0x3cf3e132	0.029770467
22	0x3d9127f7	0.07087701
23	0x3dac0632	0.08399619
24	0xbcf00cbf	-0.029302953
25	0x3db74f1f	0.08950638
26	0x3d4c1a33	0.049829673
27	0x3d87a329	0.06622917
28	0x3d77d0f8	0.060502023
29	0x3d1ec4a7	0.03876176
30	0xbdee0c2d	-0.11623416
31	0xbd83418d	-0.06408987
32	0xbdb03c6b	-0.08605274
33	0x3e1ea758	0.15493524
34	0xbd5dba8b	-0.05413298
35	0x3dca6844	0.09883168
36	0x3e047f60	0.12939215
37	0x3e0b1313	0.13581495
38	0xbe700455	-0.23439153
39	0x3d955a0d	0.072925664
40	0xbd815cc0	-0.06316519
41	0x3e0b6a0c	0.13614672
42	0xbdadfecb	-0.084958635
43	0x3c737131	0.01485853
44	0xbdf29334	-0.11844483
45	0x3e80f1a8	0.2518437
46	0xbd5967cd	-0.053077508
47	0xbdeae195	-0.114688076
48	0xbe0a544b	-0.13508718
49	0xbd107a24	-0.035272732
50	0xbe294d98	-0.16533506
51	0xbd262374	-0.040561154
52	0x3dc5694f	0.09639227
53	0x3d67e7ed	0.056617666
54	0x3e054c03	0.13017277
55	0x3d01d22a	0.03169457
56	0xbd63107e	-0.05543565
57	0x3d9c7814	0.076400906
58	0x3dc86484	0.09784797
59	0x3ddfd216	0.109287426
60	0xbd544d4a	-0.05183152
61	0x3d0ad481	0.033894066
62	0x3c983637	0.01858054
63	0x3cce7ed0	0.025206953
64	0xbdae9909	-0.08525283
65	0x3c9c4741	0.019076945
66	0x3daa437a	0.083136514
67	0x3d7f1f1a	0.06228552
68	0x3dcd19a0	0.10014653
69	0xbe473928	-0.19455397
70	0xbe7465c1	-0.23866941
71	0xbd9d4b9f	-0.07680439
72	0xbcc6f6a4	-0.02428753
73	0x3e006d44	0.12541682
74	0xbcc01fa3	-0.023452586
75	0x3d2df455	0.04246934
76	0xbcef2e8d	-0.029197002
77	0x3df41dfb	0.11919781
78	0x3dca8d67	0.098902516
79	0xbd454bf8	-0.048168153
80	0x3bb3fe1c	0.0054929387
81	0x3ce299ec	0.027661286
82	0x3cc76aa7	0.024342848
83	0x3d616206	0.055025123
84	0xbd46af35	-0.048506934
85	0xbe133f2e	-0.1437957
86	0x3dbeb25d	0.09311364
87	0xbbfa4d77	-0.007638629
88	0xbd822338	-0.06354374
89	0x3d6cb600	0.057790756
90	0xbd999d48	-0.07500702
91	0x3d27ad76	0.04093691
92	0xbdb48d60	-0.08816028
93	0x3dd0e721	0.10200334
94	0x3d8f84b7	0.07007735
95	0xbda95956	-0.082689926
96	0xbd9bb1ca	-0.0760227
97	0xbd624060	-0.055237174
98	0x3dcc1f03	0.099668525
99	0xbcb26f4c	-0.021781586
100	0xbdf7160f	-0.12064754
101	0xbd4c0d76	-0.049817525
102	0xbdd89246	-0.105747744
103	0x3da04b92	0.07826914
104	0x3db09103	0.08621409
105	0xbd98be8b	-0.07458218
106	0x3dd760ce	0.10516511
107	0x3da3e07d	0.08001802
108	0x3dc04e51	0.09389938
109	0xbc94efca	-0.018180747
110	0xbac9342d	-0.0015350633
111	0xbe019f09	-0.12658323
112	0xbdc2f081	-0.09518529
113	0xbba143cc	-0.004921412
114	0x3d4921ef	0.049104627
115	0x3daa1e7e	0.08306597
116	0x3dee6853	0.11640992
117	0xbdb4e226	-0.08832197
118	0x3de1563c	0.11002776
119	0xbc930187	-0.017945064
120	0xbd97432d	-0.0738586
121	0x3db98f23	0.09060504
122	0x3df1a6f9	0.11799426
123	0xbdd8701b	-0.105682574
124	0xbd3ee543	-0.04660536
125	0xbe849fbd	-0.2590312
126	0x3c318b25	0.010836397
127	0x3dbdfb7e	0.09276484
128	0x3d3292f1	0.043597165
129	0x3dbeb21b	0.09311315
130	0xbd7c2974	-0.06156297
131	0xbd9eb61f	-0.077495806
132	0xbd98b038	-0.07455486
133	0x3dab878e	0.083754644
134	0xbd51ae18	-0.05119142
135	0xbc2976fd	-0.01034331
136	0x3dc6e84a	0.097122744
137	0xbd461590	-0.048360407
138	0xbd9748bd	-0.073869206
139	0xbda65352	-0.08121361
140	0xbdcd1589	-0.10013873
141	0xbd86a974	-0.06575289
142	0xbde44544	-0.11146024
143	0x3dc8b234	0.097996145
144	0xbdb04d78	-0.08608526
145	0xbd7a61d7	-0.061128464
146	0x3de0be8a	0.109738424
147	0xbcea3f61	-0.028594675
148	0x3dd1138d	0.10208807
149	0xbdb650ed	-0.08902154

weight f4 [1, 150]
0	0xbd99a5c8	-0.075023234
1	0x3e8f832a	0.28029758
2	0x3de072e6	0.10959415
3	0x3d9cdf95	0.076598324
4	0x3ddbcd5c	0.107325286
5	0x3e83742f	0.2567458
6	0x3e1225ab	0.14272182
7	0xbdb4f26b	-0.088353
8	0x3e02028b	0.12696283
9	0xbdbee914	-0.093218
10	0xbe762a2c	-0.24039525
11	0xbe986173	-0.29761848
12	0xbc920424	-0.01782424
13	0xbe8262e3	-0.2546607
14	0xbe36e9a3	-0.17862563
15	0xbe0b6ad0	-0.13614964
16	0xbd973bb4	-0.07384434
17	0x3e3f58f9	0.18686284
18	0xbd9d35b9	-0.076762624
19	0x3e83bf70	0.25731993
20	0xbd29630d	-0.041354228
21	0xbe4f66e3	-0.20254092
22	0x3e45352e	0.19258568
23	0x3b962b69	0.0045828116
24	0x3d8adc83	0.067803405
25	0xbd158042	-0.03649927
26	0xbdefd2b1	-0.11710108
27	0xbe8569a6	-0.26057166
28	0x3ef05f40	0.4694767
29	0x3e336e13	0.17522459
30	0x3e7d6b8c	0.24748057
31	0x3dd43bf3	0.10362997
32	0x3d0b82d9	0.034060333
33	0x3e69cce3	0.22832064
34	0x3d419b4b	0.04726724
35	0xbcf1c952	-0.029514942
36	0xbdc37901	-0.09544564
37	0xbd65739f	-0.056018468
38	0x3e710e6b	0.23540656
39	0xbcc02deb	-0.023459395
40	0x3dab6a67	0.08369904
41	0x3e6b0dca	0.22954479
42	0x3e5e9f15	0.21740372
43	0x3e15cf77	0.14629923
44	0x3e3b5e6c	0.18297738
45	0xbe085566	-0.13313827
46	0x3d998db2	0.07497729
47	0xbe24c65c	-0.16091293
48	0x3e1d9ce0	0.15391874
49	0x3da63b95	0.08116833
50	0xbe662da6	-0.22478351
51	0x3ca13f02	0.019683365
52	0xbddc0d41	-0.107447155
53	0xbd067b29	-0.0328323
54	0xbdb819bc	-0.089892834
55	0xbe50da75	-0.20395835
56	0x3e47a8c0	0.19497967
57	0xbe17a9f4	-0.14810926
58	0xbe3cca3c	-0.18436521
59	0xbd8f23c3	-0.06989243
60	0x3e46f16f	0.19428037
61	0xbe258061	-0.16162254
62	0x3e4096e2	0.18807557
63	0xbde51b26	-0.11186819
64	0x3e3d7cc2	0.18504623
65	0xbe09f613	-0.13472776
66	0xbcefb61e	-0.029261645
67	0xbe02f5fb	-0.12789147
68	0xbe116052	-0.141969
69	0xbe41fc93	-0.18944006
70	0x3dd99b4f	0.10625326
71	0x3e6c238d	0.23060437
72	0xbd421652	-0.047384568
73	0xbe394dfc	-0.18096155
74	0xbe6724b1	-0.2257259
75	0xbdc9e783	-0.098586105
76	0x3dd66e58	0.10470265
77	0xbd6be5cb	-0.057592195
78	0xbe10def0	-0.14147544
79	0x3df4d5d6	0.119548485
80	0x3e124ba6	0.1428667
81	0xbdf14d24	-0.117822915
82	0xbdbcc612	-0.092174664
83	0x3e0b1600	0.13582611
84	0xbd7b7c62	-0.061397918
85	0xbe35f170	-0.17767882
86	0xbe6f7fb6	-0.23388562
87	0x3d88a3a0	0.06671834
88	0x3ebdfa0b	0.3710483
89	0x3e141753	0.14462022
90	0x3d1abc49	0.03777722
91	0xbdfb9939	-0.12285084
92	0x3de6ea9b	0.11275216
93	0xbb833b6a	-0.0040048854
94	0x3e7affcd	0.24511643
95	0xbe3c38b6	-0.18381009
96	0x3dc4be12	0.096065655
97	0x3e4bd2e9	0.19904675
98	0xbcd1f15c	-0.025627784
99	0x3e835a2e	0.2565474
100	0x3da1ef6c	0.07906994
101	0x3d86e2e3	0.06586244
102	0x3e1962bd	0.14979072
103	0xbe2e2d9f	-0.1700959
104	0xbd87118d	-0.065951444
105	0x3c3d3b09	0.01154972
106	0xbd8d11f0	-0.06888187
107	0xbe489411	-0.19587733
108	0xbd4163eb	-0.04721443
109	0x3e766892	0.24063328
110	0x3e3c234d	0.18372841
111	0x3e1802aa	0.14844766
112	0x3e1f7fc4	0.15576082
113	0x3e304351	0.17213179
114	0xbdc9f643	-0.09861424
115	0x3d8455ce	0.064616784
116	0xbe42a6a3	-0.1900888
117	0x3cd0b0ec	0.025474988
118	0xbe0a820c	-0.13526171
119	0x3d25204a	0.040313996
120	0x3e4e74ed	0.20161791
121	0xbe1b9c74	-0.15196401
122	0x3e74177b	0.23837082
123	0x3e2669c4	0.16251284
124	0xbe361bfc	-0.17784113
125	0xbea2526b	-0.31703505
126	0x3e361d43	0.177846
127	0xbe0a562a	-0.13509431
128	0xbe43ddeb	-0.19127624
129	0xbd090d7f	-0.033460137
130	0x3d943601	0.07236863
131	0xbe18c263	-0.14917903
132	0x3c77252a	0.015084544
133	0xbdd9f43e	-0.106422886
134	0x3d7a6c8a	0.061138667
135	0x3d8bcb5e	0.068258986
136	0xbd7b9ea5	-0.061430592
137	0xbe840676	-0.2578618
138	0x3d7b9c68	0.061428457
139	0x3d2089ad	0.039193798
140	0x3d97c294	0.0741016
141	0x3e65864c	0.22414511
142	0x3e515ad0	0.20444798
143	0xbe2e3a65	-0.17014463
144	0x3dafab2b	0.085775696
145	0x3e7b4912	0.24539593
146	0xbd037150	-0.032090485
147	0x3e5a8f3c	0.21343702
148	0xbe09437c	-0.1340465
149	0x3dd8f08a	0.10592754
