gym_multirotor(Native PPO)/examples/rl/experiments_from_paper/experiments_data/trained_models/QuadrotorPlusHoverEnv/QuadrotorPlusHoverEnv-2/ppo/QuadrotorPlusHoverEnv-v0.pt (torch, 216272 bytes, 12 tensors)

weight f4 [150, 18]
00000000: b058 4fbe 57c3 103e c15c 043e 7592 833d
00000010: c70e e33d ee3e cabe 5ac1 f53d 2a08 12be
00000020: 7c69 983d 907a 553e df75 f63d 4101 c63d
00000030: 4ba3 b5be 38a2 d3bb 094a 27be 9f96 68bc
00000040: 2011 153e ca86 c5bb 0a70 74bb 17fc 643c
00000050: 0bd0 023f 734d 0b3e 82bc f3bc 79e6 02bd
00000060: 9b75 00be c86e 5cbd c04f a73d 3963 493e
00000070: 2ac1 92bd a97d f03d 023b c13c e594 073e
00000080: 8532 c93d 29e9 44bd 25d4 c1be 8575 74bb
00000090: cfe8 d13c 75d4 5dbe acd3 8f3d b3b2 67bd
000000a0: aebf 463d e358 313e 8489 153e ba81 1abd
000000b0: 8559 5bbd afe7 c7bd dd51 2d3e 65cd 0ebe
000000c0: c011 383e 06d4 ddbd 9568 74bd 2d46 2fbe
000000d0: 742e fa3d b3d7 e13d 6582 2dbd 7d15 f0bd
000000e0: 35fe 4a3e 0644 4ebe 9977 d8bc 53b9 dc3d
000000f0: 9e99 e53c 3809 1d3d b738 63bd a8bb 29bc
00000100: 3697 b03e 6832 88be 0dfc f53d dffb b83a
00000110: b648 83bd 76d2 e43d 3180 893d 29de e6bd
00000120: b2c4 ec3b 1254 953e d09c d6bb 0047 0bbe
00000130: f46c c2bd a1c7 c63d 024f 1d3c a66b 31be
00000140: 0170 803b 37b7 ae3b c086 a0bc c0a5 ffbd
00000150: 03a3 013e 40ca 1e3d bdaa a5be ad75 9cbd
00000160: b8c8 d3bd 0d7e 3cbe fcae d23d f5b6 e5bd
00000170: c9cc 0fbe af74 9abd a6eb ea3d 283f 3ebd
00000180: 79de 893d f401 6abe bb40 333e f1b4 0fbe
00000190: 4a2c 29be bca7 96be b1a8 fcbd d94f 51be
000001a0: a95d 17be a118 8abd dd06 6c3e 5a9e dd3d
000001b0: e84b 083d c72b fbbd bea5 583d e095 883d
000001c0: a6bc e03b 6521 463e daad 09bd 7cb1 313d
000001d0: 7876 20be c97e d33b d523 563d e3b9 e23c
000001e0: 49db 0c3d 02f4 c33d d718 4ebd 332c 29bd
000001f0: 3478 263e 4d0f e7bc a346 a43d 58d5 1d3e
00000200: 22b3 653e c446 14be 73c2 623c fd7f 8b3d
00000210: b3e0 243d f274 a03d 3363 943c 1913 3ebe
00000220: 8239 803e b55d 093e c14c 753d 5624 f63d
00000230: b64b acbb 6b6c 79be b672 44be 1342 3cbd
00000240: 9772 8c3d bff5 913b 95ea 98bd 6a5a 01bd
00000250: 75e6 2cbc ac9c c9bd 9868 0a3d 3fcf 7fbd
00000260: 5274 bfbd a7f7 d93d cc5b 293d 0ed0 b23d
00000270: 5d91 cbbb 97d1 9b3e 97a4 3a3d 2f8d 513d
00000280: 3b7c 8e3e 3071 3ebe 6394 d53d 9cc8 92be
00000290: 1d13 613d 9e40 2a3d 201e 0fbe 0007 4a3c
000002a0: 1eb8 86bd abe8 163d 8761 663c 3a15 26be
000002b0: 1421 293e c3ba 323e 12f8 eb3c 87ed 5abe
000002c0: cbc4 383e 812d 743d f8a4 4bbd 4b4f 77be
000002d0: 83e2 203d b025 0d3e e433 90bb fa81 60bd
000002e0: eb28 113e 02ed f83d f672 73be 5921 323d
000002f0: c370 cd3c 9beb 42be 6277 8f3d c7af 37bd
00000300: 9912 afbc 83a9 7f3d 78d5 94bd fb15 3f3e
00000310: b3a8 b13d 6b7e 58be 398b e83d 6562 8b3e
00000320: fb37 b7bc 0e5a a6be e9a2 63bc 2417 f9bd
00000330: 2b49 25be e8e0 993e ee52 4e3e 7eb3 613d
00000340: 7155 14be 4b93 a6bd 4402 21be cd30 fc3d
00000350: 9795 a63d 991a 10be 2fb7 17be 199d 60be
00000360: 9449 02bc a206 cbbe a4fb 2dbd 60eb 90bd
00000370: 0d4b b13d fe26 3e3c a3fd f1bd 006d 093e
00000380: 17fe 1a3e a7c4 d2bb ecf9 4fbe 1778 5abe
00000390: e279 8e3d aac8 b9bd 6067 20be da53 cdbd
000003a0: 923f 863d 2709 8d3d a8f6 24be 1b34 6dbe
000003b0: 331a 6abe 35c7 fd3d 910a 2a3d 1756 dbbd
000003c0: cc9e f1bb f0f1 263d 46a9 30be 4205 bcbd
000003d0: 0dd2 60bc 7b07 643e b7cd 79bd 0405 9abd
000003e0: 81e8 3fbc 6eff d0bc 2cc2 b83d e6cc 83bd
000003f0: eebb 633e a18e 85bd cdb9 273e 5d53 74bc
-0.20248675 0.14137016 0.12926008 0.06424419 0.11086803 -0.39501137 0.119997695 -0.14260927
0.074419945 0.20847535 0.12034201 0.09668208 -0.35476145 -0.006458547 -0.16336836 -0.014196067
0.14557314 -0.006028031 -0.0037298226 0.0139761185 0.510987 0.13603763 -0.029752973 -0.031958077
-0.12544863 -0.053816587 0.08169508 0.19666757 -0.07165749 0.11742718 0.023587707 0.13240393
0.09824089 -0.04807392 -0.37857166 -0.0037301492 0.025623707 -0.21663077 0.07022795 -0.056566905
0.048522644 0.17319064 0.1460324 -0.037721373 -0.05355217 -0.09760987 0.1692576 -0.1394554
0.17975521 -0.10831456 -0.05967005 -0.17116614 0.122158915 0.110274695 -0.042360682 -0.117228486
0.19823535 -0.20143136 -0.026424216 0.10777535 0.028027352 0.03833887 -0.05547401 -0.010359682
0.34490365 -0.26600957 0.120109655 0.0014113149 -0.06410353 0.11172955 0.06713904 -0.112728424
0.0072255963 0.29165703 -0.006549455 -0.13601303 -0.094934374 0.09706045 0.009601356 -0.17326221
0.003919602 0.0053318995 -0.019595504 -0.12482786 0.1265984 0.0387671 -0.32356825 -0.076396324
-0.103410184 -0.1840746 0.10287282 -0.11216537 -0.14042963 -0.07541787 0.114707276 -0.04644695
0.067318864 -0.22852308 0.17505161 -0.14033867 -0.16520801 -0.29424846 -0.12336863 -0.20440616
-0.14781822 -0.06742979 0.23049493 0.10821219 0.033275515 -0.12264209 0.05289244 0.066692114
0.006858426 0.19348677 -0.033613063 0.043382153 -0.15670192 0.006454323 0.052280266 0.027676528
0.034388814 0.09568025 -0.050316658 -0.041301917 0.16256791 -0.028205538 0.080212854 0.15413415
0.22431615 -0.1448012 0.013840306 0.06811521 0.040253352 0.078348055 0.018113708 -0.18561973
0.25043875 0.13414653 0.05988765 0.12018649 -0.005258049 -0.24357764 -0.19184384 -0.04596145
0.06857794 0.004454344 -0.07466618 -0.031580366 -0.010552992 -0.09844336 0.033791155 -0.062453505
-0.09348358 0.10642939 0.04134731 0.087310895 -0.006212397 0.30433342 0.04556712 0.051160034
0.27829155 -0.18597865 0.10428693 -0.28668678 0.05494987 0.04156553 -0.13976336 0.0123307705
-0.06578086 0.036842983 0.014061338 -0.16219035 0.16516525 0.17454056 0.028804813 -0.21379672
0.1804382 0.05961371 -0.049717873 -0.24151342 0.03927852 0.13783908 -0.004400717 -0.054811455
0.14175765 0.12154581 -0.23774323 0.043488834 0.025078183 -0.19035189 0.07005192 -0.04484537
-0.021371173 0.06241752 -0.072672784 0.18660729 0.08674755 -0.21141975 0.113546796 0.27223507
-0.02236556 -0.3249058 -0.013893821 -0.12162617 -0.16141193 0.30054402 0.20148823 0.055102818
-0.14485718 -0.08133563 -0.1572352 0.123139955 0.08134001 -0.14072646 -0.14815973 -0.21934928
-0.007952113 -0.39653498 -0.04247631 -0.07076144 0.08656893 0.011605976 -0.118159555 0.13420486
0.1513599 -0.006432134 -0.20310181 -0.21334873 0.06956841 -0.09071477 -0.15664434 -0.10025759
0.06555094 0.06886511 -0.16109717 -0.23164408 -0.22861557 0.12391511 0.041513983 -0.1070978
-0.0073736664 0.040758073 -0.17252073 -0.0918069 -0.013721955 0.22268479 -0.0609872 -0.07520488
-0.011713148 -0.025512423 0.0902141 -0.06435566 0.22239658 -0.06521345 0.16379471 -0.0149124535

bias f4 [150]
00000000: 85bc 2fbb 115e 8b3c 0575 5e3d 70c6 9abd
00000010: b996 42be 09bf 81bd fa0e 873c b792 943c
00000020: ef27 a63d 1852 94bd c5ef 413d 80b1 07bd
00000030: 5c62 4abd 51db 4a3c ecf3 3ebd f6e6 723d
00000040: 96ba d03d ec5b 153d 3277 f73c 6add bebd
00000050: d48f 033d 723f 143d 5dcc 29bd accf 9bbd
00000060: c13a 913d 8a75 a2bd 604e 523c 01e1 1abd
00000070: 76d1 15bc 7ea5 013d c582 8abd 768c 103d
00000080: 9ae7 2f3a 77f7 bc3d 2d04 da3c f5cf b03d
00000090: 65db ca3d f3cb a1bd a54f 02be a856 bc3d
000000a0: 501f 37bd a9d1 9bba 206f 10bd fbd9 e13c
000000b0: 27ac d93c 5890 21bd 3722 c13d bc37 90bd
000000c0: b6ef 98bd 297e f6bd d6bb df3c 7574 b2bd
000000d0: edb1 233e 6deb 023e 9d07 063b 6242 0e3d
000000e0: b96c a63d b9b6 40bd 2934 4b3c c565 06be
000000f0: ccdf 983d 2769 0c3d deec 9a3c da78 03bd
00000100: 5fc6 bcbc aead ae3a 019b 2fbc 0fa5 50be
00000110: fba2 15bd 60d2 94bd 738d 923c c929 03be
00000120: 7ed5 84bd 2d73 ba3d df7f 77bd 2d53 963d
00000130: 1682 2abd 210a c33d d0f1 aebd c565 c1bd
00000140: da01 a5bd 85ff 09b9 f3b0 6ebd 9ad5 3dbc
00000150: a82c 113e ef0a fc3b 84d9 133e eed3 89bc
00000160: 1d02 e83c 2b2f e7bd a401 6f3d eae5 f2bc
00000170: 2c25 833d 51d3 08bd 3a86 d73d bfa1 1abc
00000180: 2df8 72bd a9a8 843d afd9 92bd bb63 c3bc
00000190: cd7a ee3d 326c debd cbd5 1ebd c1fe 9bbd
000001a0: 4ad4 6bbd 0c0a 093c 6398 aabd 1129 a3bd
000001b0: c838 963d 2c8b 0a3d 1ea0 58bc 60e5 07be
000001c0: 19d6 18bd a748 96bd afd6 3c3e 14d9 97bd
000001d0: 52c0 55bd e5ee 783d 13c2 9a3d 5b04 f23d
000001e0: 74e0 8fbb f827 57bd 7447 4b3d 2a2c 833d
000001f0: d351 bebc 908c 813d e625 bcbc 8152 933c
00000200: 0415 a3bd d008 043e 0113 15bd 9104 b1bd
00000210: 96cb bf3d d865 9ebb 2e0d ad3d b9e5 573e
00000220: ddca f4ba 0770 bcbc 1781 383d 2b22 5f3c
00000230: 2008 acbd f343 47bd ed59 4e3c 8761 9dbd
00000240: ceb3 b83d ce2f e4bd 0b3c ed3d 6dc2 e0bd
00000250: 2146 ab3d 2aad d6bd
-0.0026815247 0.017012628 0.054310817 -0.0755738 -0.19002809 -0.06335265 0.016486634 0.018136365
0.081130855 -0.07242221 0.047347803 -0.03312826 -0.04941021 0.012381391 -0.04661934 0.059302293
0.101918384 0.036464617 0.030208204 -0.09319575 0.032119587 0.03619332 -0.04145466 -0.0760797
0.070912845 -0.07932575 0.012836069 -0.037812237 -0.009144178 0.031651966 -0.067632236 0.035290204
0.00067102315 0.09226888 0.02661332 0.08633415 0.099051274 -0.07900228 -0.12725694 0.09196216
-0.044707596 -0.0011888045 -0.035262227 0.027569761 0.026571346 -0.039444298 0.09430354 -0.070418805
-0.07467596 -0.12035782 0.027311247 -0.08713619 0.15985842 0.1278512 0.0020451315 0.034731276
0.08126206 -0.047049258 0.012402573 -0.1312476 0.07464561 0.03427997 0.018911775 -0.032097675
-0.02304381 0.0013326907 -0.010718108 -0.20375465 -0.036532383 -0.07266688 0.017889714 -0.12808909
-0.06486033 0.09103999 -0.06042468 0.07340083 -0.041627966 0.09523416 -0.08542216 -0.09443239
-0.08056994 -0.00013160527 -0.05827422 -0.011586571 0.14177191 0.007691733 0.14438444 -0.016824689
0.02832132 -0.112882935 0.058351174 -0.029650647 0.06403574 -0.033404652 0.105236486 -0.009437977
-0.05931871 0.06477482 -0.07170426 -0.023851266 0.11644516 -0.1086048 -0.038778108 -0.0761695
-0.0575755 0.008364212 -0.08329847 -0.07966817 0.07335049 0.03382413 -0.013221769 -0.13271093
-0.037313554 -0.07338076 0.1844127 -0.07414451 -0.052185364 0.060774703 0.07556548 0.11817237
-0.0043907706 -0.05252835 0.04962869 0.06404908 -0.023232376 0.06325638 -0.02296729 0.017983677
-0.07962993 0.12893987 -0.036395077 -0.08643449 0.09365003 -0.004833918 0.084497795 0.21083726
-0.0018676181 -0.023002638 0.045044985 0.013618986 -0.08399987 -0.048648786 0.012594682 -0.076846175
0.0901867 -0.111419305 0.11583718 -0.10974584 0.083629854 -0.10482247

weight f4 [150, 150]
00000000: d9e8 e73c 3002 733c 5f70 e6bc 6bfd 133e
00000010: 6134 4b3e af50 16be 4744 3ebd 8205 cc3d
00000020: 9462 183c 50d6 79be 8404 683e 97a2 31be
00000030: a982 433d ace8 7a3d 0b69 cbbd b5b8 8c3e
00000040: cf5a 25be 57fb 1c3d 71dd ddbc 09b6 183d
00000050: bc79 6bbd c3f4 043c ffa3 8bbe eb11 e03c
00000060: c0d1 6ebe 4757 a43d db60 ae3d 360c ca3e
00000070: eadb b93d 4267 21bd 62ab 503e 934d d63d
00000080: 8009 bc3d fc76 103d 2119 c03c 84ca b53e
00000090: 6901 fb3b d580 91bd 17ee 51bd 1fee 143e
000000a0: 3eea 7b3e 3b59 17be 9546 c43c 8b78 bfbd
000000b0: 2196 af3d c2ff 353d a4fa 7bbd d882 ca3d
000000c0: d484 cc3d f3e1 803d 755c 01bd d6f4 8d3d
000000d0: 7252 a4be e1b8 65be b696 a43d aacf 313e
000000e0: 970c 2bbe 1562 603e ae25 7bbd d849 07be
000000f0: 6ef8 15be 2403 033e 710f b4bd 3020 1abd
00000100: d4d3 ee3c 0309 03be ad82 cb3d 7ba1 073e
00000110: 8c2f 86be 5d1e 703e 429c 20be 9a2d 1dbe
00000120: 0c64 923d 81b5 78bd 41c9 1dbc 9863 9d3c
00000130: cfc1 eabd 6ca9 d3bd 41c0 d63d 3d94 78bd
00000140: be78 953d f92f a23c 41dc b23d 7921 2dbd
00000150: 1be9 97be 679e a13d dabc 21bb 33cb 9ebb
00000160: 2a55 a2be 048e a13e 67e6 41be 00d0 bbbe
00000170: e7dc 47be 56f0 5d3e a0cb a2be 1913 0bbd
00000180: b2ab 103d 8ded 613c f6be 423e 2fa5 293e
00000190: 1134 78be 565b 39be 0a62 773d 96b1 24be
000001a0: cf7e 673e c4c7 be3e 9a2b e53d 37fe 923e
000001b0: 60e0 4abd 0ffb 9abd 2c8d 863d 254f 0c3d
000001c0: 68be 553e ac86 193d 190a 89be 21d8 aa3d
000001d0: 56ba 6a3e 86a9 50be b63b 0b3e af61 91be
000001e0: ac59 e0bc 65fc 11bc 22b7 9e3d cf56 a63d
000001f0: 0ca5 6bbe 8b40 8fbd 8ba8 053e 3c11 833e
00000200: 4610 ceba 1626 aabc 8817 343e 7c2e 04bd
00000210: 3dec afbe 587f 0dbe 372b 8a3e bf77 43be
00000220: 6e47 edbd 3196 84be 9f2a 8dbe 546a f43c
00000230: 27ab bb3d f7c5 4b3e ddad 1c3d 66ec ef3d
00000240: 408c 7c3e 7383 8c3d 650e f23d 2d3d e93c
00000250: 6ef3 b93d c2c5 523e 9232 c1bc 49e2 af3e
00000260: 0577 30bd 906c e33d 0517 5a3d 971c a3be
00000270: 36c1 0c39 b14f a03e 1cfb bbbd 0e7c 033e
00000280: f698 55bc 85be 3fbd 4f3a 54bd 8702 37be
00000290: 649e 8c3d 8cd4 eb3d 0576 183e fd00 78be
000002a0: eb58 aa3c bd99 4a3b d9fb 93bd 7383 0a3d
000002b0: 21b9 7f3d 32a4 8fbe 34a3 343d f760 a4bc
000002c0: f1d7 c73d 43ce 2abe 2cbb 133e 5e53 a3bd
000002d0: 493c 5ebb caa4 dc3d 6767 7abe 7fbf 84bc
000002e0: 4472 4abe c810 b6ba d502 b6bd 2b52 263e
000002f0: f938 b93d 11e1 2fbe 7d75 213e 61ae 6b3c
00000300: 50c6 c6bc 9ae5 09bd 0039 da3c e6b0 cd3c
00000310: d7bc e83d 8282 5e3d fa93 083d 4c01 ae3e
00000320: 3506 673e 778c d63d c31d fc3c 183b 26be
00000330: 72cd 44be 2a23 9bbe 97a4 93bd ef9e f43d
00000340: 651e 6fbe 4582 9bbd 0298 633d 1f28 22be
00000350: 9d2b dfbd 5603 e33c 60f6 dcbd 195f 65bc
00000360: 71b9 663d 920b a83d 52e0 013e 15f9 47be
00000370: 5e13 673d b411 0c3f e79c 84bd 5ec5 223d
00000380: b0c8 a03e 9643 f23d 933f 6cbd 9d76 e73d
00000390: 80aa 643d ca7d f0bc 416f cd3e 5194 403e
000003a0: 8e8b 1c3d 34f7 7c3e c7e0 2ebe f005 19bd
000003b0: a13c da3d af16 34bd 718d 723e 9c46 423e
000003c0: e3de 563d 8309 a5bd c5f9 60bd 86d6 653d
000003d0: caa3 d0bd e97f eabd 5096 773e d8f9 053e
000003e0: 1761 0f3d 0f79 21be 0102 c2bd d698 043e
000003f0: 4240 0bbe b9c0 fc3d 9397 a9be 3a2b f4bc
0.028309273 0.0148320645 -0.028129755 0.1445214 0.198442 -0.14679216 -0.046451833 0.09961988
0.009300847 -0.2439816 0.22657973 -0.1734718 0.04773203 0.06125705 -0.09932145 0.2748467
-0.16147922 0.038325634 -0.02708313 0.037282977 -0.05748914 0.008114996 -0.27273557 0.027352294
-0.23322201 0.08024459 0.085145675 0.3946244 0.090751484 -0.039405115 0.20377877 0.10464015
0.091814995 0.035269722 0.023449482 0.3550607 0.00766008 -0.07104651 -0.05125245 0.14543961
0.24601075 -0.14780132 0.023959437 -0.093491636 0.08573557 0.044433363 -0.061518326 0.09888238
0.099862725 0.062930964 -0.031582315 0.069314644 -0.3209415 -0.22433807 0.08036558 0.17364374
-0.16704021 0.21912415 -0.06131523 -0.13211763 -0.1464555 0.12794167 -0.08792008 -0.037628353
0.029153742 -0.12796406 0.09937034 0.13245194 -0.2620815 0.23449083 -0.15684608 -0.15349427
0.07147989 -0.06071997 -0.009630502 0.019212529 -0.11462747 -0.10335049 0.10485888 -0.060688246
0.0729842 0.019798266 0.08733416 -0.04226825 -0.29670033 0.07891541 -0.0024679215 -0.0048460006
-0.317056 0.31553662 -0.18935548 -0.3668213 -0.19517861 0.21673712 -0.3179598 -0.03395376
0.03531999 0.013789547 0.19018158 0.16566919 -0.24238612 -0.18101248 0.06039623 -0.16083369
0.22606967 0.37261784 0.11189957 0.28709576 -0.049530387 -0.07567417 0.06569895 0.034255166
0.20873415 0.03748195 -0.26765516 0.083420046 0.22922644 -0.20377168 0.13596997 -0.2839484
-0.027386509 -0.008910273 0.077497736 0.08122026 -0.23012179 -0.069947325 0.13052575 0.25599086
-0.0015721403 -0.020770114 0.17587101 -0.032270893 -0.34359923 -0.13818109 0.26986095 -0.19088648
-0.1158589 -0.25895837 -0.2757158 0.029835857 0.09163504 0.19899736 0.038251746 0.11715011
0.24662876 0.068610094 0.11819152 0.028471554 0.09079634 0.20583251 -0.023583684 0.3435233
-0.043082256 0.11104691 0.05324461 -0.3185775 0.00013423417 0.313108 -0.09178755 0.12840292
-0.013036957 -0.046812553 -0.05181342 -0.17872058 0.06866148 0.115151495 0.14888771 -0.24219127
0.020794353 0.003091439 -0.072257705 0.033816766 0.062432412 -0.2805496 0.044100955 -0.020065768
0.097579844 -0.16680245 0.14426869 -0.079748854 -0.0033910444 0.107736185 -0.24453507 -0.016204594
-0.19770151 -0.0013890499 -0.08887259 0.16242282 0.0904407 -0.171757 0.15767474 0.014384837
-0.024264485 -0.03366623 0.026638508 0.025108766 0.11364143 0.05432368 0.033344246 0.33985364
0.22560962 0.1047601 0.03077591 -0.1623348 -0.19218996 -0.30300266 -0.072091274 0.11944377
-0.23351438 -0.07593206 0.055564888 -0.15835617 -0.108969904 0.027711552 -0.1078918 -0.013999724
0.056329194 0.08205332 0.12683228 -0.19528611 0.056414954 0.5471451 -0.06475239 0.039739005
0.31403112 0.11829297 -0.057677817 0.113019206 0.055826664 -0.029356856 0.40123942 0.18806578
0.038219027 0.24703676 -0.17077933 -0.037359178 0.10656095 -0.043966945 0.23686768 0.18972248
0.052458655 -0.08058455 -0.0549257 0.05611279 -0.1018749 -0.11450178 0.24178433 0.13083589
0.0350047 -0.15768836 -0.094730385 0.12948927 -0.13598731 0.123414464 -0.33123454 -0.029805768

bias f4 [150]
00000000: c788 73be 7b9b c6bd 785b 023d fc4c b63d
00000010: 60eb ce3d 5a5a 1c3c df02 e4bc 1213 563e
00000020: d2de 7b3c 18c7 5b3e deaa 9f3d ab5a 55bd
00000030: 45e0 6cbd d9d9 3bbd ede7 2fbd ce09 273e
00000040: 8c82 c53d b835 c23d bb78 79be 726f cc3d
00000050: 21de 4abe 64a7 0bbe d4f3 033d 3ace b7bd
00000060: 3f3e 003e c5dc d43d 2a97 2ebe a11a 96bd
00000070: c8a0 283d 5dfa 6abd 054f 4abd b2b6 a5bd
00000080: 7d7d 96bd fc01 003e 1528 303d f5d9 aabd
00000090: aa96 b0bc 1788 8c3c 054b d3bd d83d c3bd
000000a0: 16df 173d 032b ab3d 432a eebd 3a27 f9bd
000000b0: a7c4 ad3d 3450 813d 5f80 14bd f767 d3bd
000000c0: 61bc 68bb a67f 64bd 143b 5f3d 892c 113d
000000d0: 80fc 803d c45e bebd 9b06 2cbd 6835 88bd
000000e0: ef66 083e 2cce 903c 3739 ea3d c115 4abd
000000f0: 6f49 bf3d 826f c9bd db6c 9f3d c54d b43c
00000100: ae9d 8a3d d772 8e3d 1145 183e 29d3 193d
00000110: 6ef5 d13c 9b53 823d 4909 06bc 3ec3 5a3d
00000120: e07b 3abd af1f 53be 2988 3a3b ca2a 0abe
00000130: 2925 c53d b150 663d 6cdc a9bd 5dfe c9bd
00000140: 6e37 0f3e 0765 f43c e821 e53c 0e01 a3bd
00000150: 05a2 e9bc db87 a0bc 61be efbd 8bb1 05bc
00000160: 0310 33bd 8910 873d 4772 0abe 2ff7 2e3d
00000170: a430 bbbc 670a 363d 4ae7 e83d 89b9 cabd
00000180: 5c6c e83d d48f 913a 6758 a83d c9e8 32bc
00000190: 7457 6e3e 12a6 953c 96cc c7bc ac30 1ebd
000001a0: 1aac 3bbd 7759 48bd 07e0 eb3d c219 05bd
000001b0: 1a91 e13c 9e50 b2bd 4fb8 23bd 6df4 ee3d
000001c0: 878e 1dbc 6571 f43d 4734 bd3d 7e91 7e3d
000001d0: fb5d 62be bac7 82bd 280a e03c 00b8 773c
000001e0: 104a 83bd b95f 933d 392d ffbd 05a5 31bd
000001f0: c827 313d 0b01 e8bd d1df 1abe 9a6a d0bd
00000200: e9e9 e63b 73dd 8f3d 588d a03d c0ba dfbd
00000210: 8636 253e 4b06 803e aa86 3ebd f0ea 34bd
00000220: 99a9 c63d 5c17 d1bc 4c54 4cbd 3f88 183c
00000230: ba4e 2ebc 732d b93c 89fb 1cb8 f8ad 32be
00000240: 939f ea3d 8f0d 9fbd 2ca9 73bc 1f9b 95bb
00000250: 9d15 6abd de90 d73c
-0.23782645 -0.09697624 0.031825513 0.08901402 0.10103488 0.009543026 -0.0278334 0.20905712
0.015372949 0.21462667 0.07796262 -0.05208842 -0.057831068 -0.045862053 -0.04294579 0.16312334
0.096440405 0.09482902 -0.24362461 0.09982194 -0.19811298 -0.13638073 0.032214954 -0.089748815
0.12523745 0.10393671 -0.17049852 -0.07329298 0.041168958 -0.05736767 -0.049391765 -0.08091487
-0.07348154 0.12500757 0.043006975 -0.08342353 -0.021556217 0.017154736 -0.10317043 -0.0953328
0.037077986 0.08357813 -0.116291545 -0.12165685 0.08484774 0.06314126 -0.036255237 -0.10322564
-0.0035512673 -0.055785798 0.0544997 0.035442863 0.062981606 -0.09295419 -0.041998487 -0.066508114
0.13320516 0.017676435 0.11436694 -0.049337152 0.09340178 -0.098357216 0.077844344 0.02200974
0.06768356 0.06955498 0.14870097 0.037554894 0.025629725 0.06363603 -0.008180925 0.053408854
-0.045528293 -0.20617555 0.0028462505 -0.13492885 0.09626228 0.056229297 -0.08293995 -0.09862969
0.13985988 0.02983333 0.02797027 -0.079591855 -0.02851964 -0.019596031 -0.11706234 -0.008160005
-0.04371644 0.06594951 -0.13520156 0.0427162 -0.022850342 0.044443514 0.1137224 -0.09898669
0.11348793 0.0011105486 0.082199864 -0.010919758 0.23275548 0.018267665 -0.024389546 -0.038620636
-0.045818426 -0.048913445 0.11517339 -0.032495268 0.02753501 -0.08706783 -0.039970692 0.11667714
-0.009616501 0.11935691 0.09238487 0.06215047 -0.22106163 -0.06385751 0.027348593 0.015119553
-0.06410611 0.07195992 -0.124597974 -0.043370266 0.04325083 -0.11328324 -0.15124442 -0.10176583
0.007046927 0.0702466 0.07839459 -0.109242916 0.1613408 0.250048 -0.046515144 -0.044169366
0.09700317 -0.025523834 -0.04988508 0.009309827 -0.010638887 0.02260468 -3.742756e-05 -0.17449176
0.114562176 -0.07766258 -0.014871877 -0.004565611 -0.05714952 0.026314195

weight f4 [150, 18]
00000000: 76c6 1ebd bf00 9ebb bc21 df3d 7a84 203d
00000010: ce18 c83d aa41 12be 4961 71bd bead b53d
00000020: b50f 1ebb 6cd3 aab8 889e 3f3e faab ea3d
00000030: 82ae a3bd 6a37 5fbd c07d 4b3e 1450 493d
00000040: 5271 833c a6f0 f4bd 1917 5fbe 6d89 3dbe
00000050: d058 acbc 2598 55bd f432 33be 75b4 c4bd
00000060: c153 86bc a86c 17be 6a65 09be 085a cc3d
00000070: 61ed af3d 9a33 8bbd c041 c1bd 90f6 bbbd
00000080: 74b1 babe 0f76 673e 86e5 babd 8fd2 a73e
00000090: 8f1d 0ebe 5481 073c 058a 7b3e 920a 6bbe
000000a0: 1fae 07be 13d5 913e 8f77 d53c 56e6 0d3d
000000b0: c577 e93d 5432 16be 1b41 063e e209 afbd
000000c0: aade e3bd b84f debd eecd ecbd e44e 27bd
000000d0: b356 533d e3ed 9a3c 7427 a0ba a5f5 673e
000000e0: 4a54 053d 94b1 11be e876 49be 45e8 a93d
000000f0: b50e 7fbe 1995 08bd 095f 43bd 550f 593d
00000100: a0b8 8ebd 0344 1cbd 750f 093e c6fc c13d
00000110: e099 cbbd eec9 45be 1791 ec3c d8ad 82be
00000120: 63a7 113e ce8a 18be bbdd 983d 24f7 0abe
00000130: 1f30 663d d4c4 843d 2d62 d73d b488 6abe
00000140: 3c75 eb3a 8bcf 64be 18a1 7d3d bb08 8ebc
00000150: 558f 4b3d 5743 90bb 1bed 02bd 8166 9abe
00000160: f112 253e 970f dfbe a1d8 703c f7d7 8ebc
00000170: c168 6bbe 2798 b03d 309f 853d 6704 febc
00000180: 2fa0 64bd 3df8 05be 6873 6ebd 0a8d 21bd
00000190: e489 2cbd 637f 42bd d978 513d f04c 0cbc
000001a0: 1bf7 a73c 2534 e83b 4911 923c 4803 973d
000001b0: 595d 9c3d c03c 1d3d 2a5e a03d 82b0 f0bc
000001c0: f458 2a3c 022a c5bd 0dd1 bd3d a7e8 5b3d
000001d0: f4df 8f3d c0a2 2cbc 06ec 163d 2bde 583e
000001e0: 608b dd3c ed13 4b3d 55c7 263e 2048 c7bd
000001f0: 56b0 1d3d 5cd6 82be 9fb0 cf3d 93db 21be
00000200: dabe f53d 7384 913d a675 c93c f61a df3d
00000210: 1110 43bd 0624 f5bd 1be4 40be eaa0 043e
00000220: 816d ffbd 5509 b3bd 5142 873d b5a9 ffbc
00000230: d94b 06be 4912 8e3c c265 8f3d e074 81be
00000240: 448b bcbd 2944 fa3d db23 a0bd b2c4 edbd
00000250: 9971 3f3e 635b d8bb c0f9 d23d dd66 99bd
00000260: 6517 fa3c b9ed e43c 0fdc fabd e5c8 12be
00000270: 3f68 04bd bf39 3bbd 6655 b4bd 6c99 edbd
00000280: 26ab a33d 7fbe 8fbe 51eb d039 82a1 44bd
00000290: 2f23 45bc 6e80 9a3b bd18 0d3e 24dc 28be
000002a0: 97e0 173e d692 85bd 18f6 dd3c 27ea febd
000002b0: 0d92 17bd 1e33 ffbd a918 debd 8546 f83d
000002c0: e6a5 e4bd 1313 b7bd 13e3 2bbe a0f1 4c3d
000002d0: 31ce 423d ab82 21bd 807e 0bbd f8eb 8cbd
000002e0: ef7e 6bbd 5c75 dbbd 3d1c 153d 93fe 38bc
000002f0: aa71 7abe 3177 cdbd bdc2 7ebd 1f66 b2bd
00000300: deda ad3d 3043 69bd 23bf d9be 9e00 d0bb
00000310: 9660 77bc bb85 963c 3b1b ddbd ae01 25bb
00000320: 1b32 0cbd 7d12 183e 6ce5 52be 52b8 23be
00000330: ea81 b6bc 5ffa bf3e 1b06 3d3d e1c2 51bd
00000340: ffe1 29bd 5345 f83d d05d 87be ea28 1e3e
00000350: 514b 013e 7ffe 183e 6346 1a3d 6860 6a3e
00000360: 93fd 50bc dcdb c13d 2d7d a7bd e6e9 47bc
00000370: 43f2 88bd 0c28 b5bd 6822 fabc deb6 f8bd
00000380: c49a afbd 8457 b73c c6a6 78bc 9d61 75be
00000390: 5bf7 223d dc8b 9a3d 8d0a 01be 602a 7bbe
000003a0: 9d04 8c3d 8a31 eebd df3f 63bd d0e6 87be
000003b0: f994 cb3c 4fe8 103d 762e f93d 07e7 313c
000003c0: c3ef b13d 9d13 08be a784 44bd 7ff2 f43b
000003d0: b306 7dbd c9aa d33c 12a7 babd d16d a9be
000003e0: e13c 15bd e428 fd3d 29e9 b4bc 5e7a fe3d
000003f0: 92ad d6be 6e41 8a3e 7f42 23bb 82f3 09be
-0.038763486 -0.0048218663 0.10895106 0.03918884 0.09770356 -0.14282861 -0.05893067 0.08871029
-0.002411825 -8.145612e-05 0.18712819 0.11458583 -0.07992269 -0.054496206 0.19872189 0.049148634
0.016045246 -0.119599625 -0.21786155 -0.18509455 -0.021038443 -0.05214705 -0.17499906 -0.09604732
-0.016397359 -0.14787543 -0.13417593 0.099781096 0.08590198 -0.067969516 -0.09436369 -0.091778874
-0.3646351 0.2260363 -0.09125809 0.3277783 -0.13878463 0.00827058 0.24564369 -0.22953251
-0.13250016 0.28482875 0.026057987 0.034643494 0.11399797 -0.14667636 0.13110773 -0.08546807
-0.11126454 -0.10855049 -0.115627155 -0.04084672 0.051596355 0.018912261 -0.0012218789 0.226523
0.032551087 -0.14227897 -0.19674265 0.08296255 -0.24907954 -0.033345316 -0.047698054 0.052993137
-0.06968808 -0.0381508 0.13384803 0.09472041 -0.09941459 -0.19315311 0.028877778 -0.25523257
0.14224009 -0.148967 0.07464167 -0.13570839 0.056198236 0.064828545 0.105167724 -0.2290371
0.0017964016 -0.22344796 0.06192121 -0.017338147 0.04969724 -0.004402559 -0.031964403 -0.3015633
0.16120507 -0.43566582 0.014700086 -0.017436964 -0.22989179 0.08622771 0.06524503 -0.031007959
-0.055816825 -0.13082977 -0.05821553 -0.039441146 -0.04212369 -0.047484767 0.05114064 -0.008563265
0.020503571 0.0070862942 0.017830508 0.07373673 0.07634992 0.038388014 0.0783046 -0.02938104
0.010397185 -0.09627153 0.09268389 0.05368867 0.070251375 -0.0105368495 0.036846183 0.211785
0.027043998 0.04957955 0.16286977 -0.097305536 0.038498245 -0.25554168 0.1014111 -0.15806417
0.11999293 0.07105341 0.024592232 0.10893814 -0.047622744 -0.119697616 -0.18837015 0.12952009
-0.12472058 -0.08742014 0.06604446 -0.031208852 -0.13114871 0.017342703 0.07001831 -0.2528448
-0.0920625 0.12220032 -0.07819339 -0.11609782 0.18695678 -0.006602691 0.10301542 -0.07490323
0.030528734 0.027945386 -0.12249004 -0.14334448 -0.03232598 -0.045709368 -0.08805351 -0.116015285
0.07991628 -0.28075024 0.00039848176 -0.04800559 -0.012032314 0.004715017 0.13778968 -0.16490227
0.14831768 -0.06522147 0.027094886 -0.12447005 -0.03700452 -0.12460922 -0.10844547 0.121228255
-0.11164455 -0.08939185 -0.1678584 0.05003512 0.04755992 -0.039431255 -0.034056187 -0.06880945
-0.0574941 -0.10715744 0.036403883 -0.011291164 -0.24457422 -0.100324996 -0.062197436 -0.08710884
0.08489011 -0.05694884 -0.42528638 -0.00634773 -0.0150987115 0.018374315 -0.107962094 -0.0025178003
-0.03422747 0.14850803 -0.2059533 -0.15988281 -0.022278745 0.37495705 0.0461484 -0.05121124
-0.041475292 0.121225975 -0.2643876 0.15445295 0.12626387 0.14940833 0.037664782 0.22888339
-0.012755769 0.09465763 -0.08178172 -0.012201762 -0.06686833 -0.08845529 -0.030533984 -0.12144254
-0.08574441 0.022380598 -0.015176481 -0.23963018 0.039786678 0.07546207 -0.12601681 -0.24527884
0.068368174 -0.116305426 -0.055480834 -0.26543283 0.02485131 0.035377797 0.12167065 0.010858304
0.08688309 -0.13288732 -0.04797807 0.007475197 -0.061773967 0.025838273 -0.091138974 -0.33091596
-0.03643501 0.12361315 -0.022083836 0.124256834 -0.419293 0.27003044 -0.002491146 -0.13471797

bias f4 [150]
00000000: 497e c6be afb0 1dbe f859 92bd 000f cfbd
00000010: 2ed3 bcbd 2f45 84bd 4059 30bd f332 063d
00000020: 84d6 33be c913 c9bd 760d 9a3e b1a8 753e
00000030: fdfa d1bc f1b3 94be 0485 e43d 2b2e 21be
00000040: cc86 ab3b a2d8 6f3d aadb 42be 57e8 03be
00000050: b956 a1be 254f d1bd 299f 03bc 5f48 88be
00000060: 41b5 1f3d b36b 5c3b 4982 c83d 9e9c 81bd
00000070: 1df9 dd3c 536c 4cbd fa60 81be 6421 353e
00000080: 20b8 b8bd 9eba c1bd 08db 8abe af07 ed3e
00000090: b75c a63d 7e75 663e 80ef 59be 961a 7d3d
000000a0: 6f74 a4be 8422 72bb db7e 043e ae6a b23d
000000b0: a051 2b3c 823c b43d 3fee c8bb be17 6cbc
000000c0: 43f2 17be d0f7 a73d a9d8 b03d 32b4 ba3e
000000d0: e234 a83d 4a6b 06bd 0ba6 a63e 9817 183e
000000e0: 1518 da3d c632 d1bd aa96 c13d 03b8 a63e
000000f0: 19bb 943e 40a0 c93d 9c06 83bd 7ab5 843e
00000100: 29a8 493d c7ab adbd 07f9 053e b3a9 0e3e
00000110: 5086 e2be 37b2 ddbe b7c0 033e 9a49 f43d
00000120: 2b6b eabc e16b 0b3d bacf cdbd 991a 253e
00000130: f05d ff3d 7cac 50be 4f82 3fbe eb1f 523e
00000140: e903 e8bd 7f1c 833e f60c 7ebe 176f 6ebd
00000150: e899 f63d b15d a63e 0be1 093d b401 03be
00000160: 5d25 01bd e4c0 c53e 81f1 063e 8054 72bc
00000170: 227b 46bd 7ff9 093e 7bd9 82bd d937 61be
00000180: d94f 3b3d c50b 92bc 2773 f0bd 133a 22bd
00000190: 0151 03be 7a47 afbd ed1e 543c 5a82 c2be
000001a0: e941 56bd 04b5 34bc 6401 5dbe ba6a 143e
000001b0: 8899 f7bd 0f2d 5cbe 7913 f13c df29 83be
000001c0: b99f 873c 8566 33be 67bb a23c d264 abbd
000001d0: cb40 89bd 9588 8cbe 88b4 663e f58f 23be
000001e0: 855a f43c 1f47 6c3c 7690 1f3e a798 6e3c
000001f0: 20c4 f63e bffa f9bc 9625 d2bd 5266 b03e
00000200: 42ec e7bd 5599 913e 3bfe febd cf36 0c3e
00000210: 48ba 953e 0bc1 eabd 08b6 6fbe d44c 2e3e
00000220: 24f3 f7bd 7684 673d 1d84 753e dc4a 823c
00000230: 646e 8cbe d31d c3bd 05e0 09be 4456 3ebe
00000240: c56d 933d 4fa3 813d 6750 a23d 7737 f63e
00000250: 4640 e23e 2345 143e
-0.38768223 -0.1539943 -0.071460664 -0.10110283 -0.09219967 -0.06458508 -0.043053865 0.032763433
-0.175623 -0.09818227 0.30088395 0.23990132 -0.025632376 -0.29043534 0.11158183 -0.15740268
0.005234575 0.058556207 -0.19029108 -0.128816 -0.31511477 -0.10220174 -0.008033552 -0.26617715
0.038991217 0.003363353 0.09790475 -0.063287005 0.027096326 -0.049907994 -0.252693 0.17688519
-0.09019494 -0.094594225 -0.27120233 0.46294925 0.08123153 0.22505757 -0.21282768 0.061792932
-0.32120082 -0.0036946842 0.12939017 0.08711754 0.010456473 0.088006034 -0.006131917 -0.014409957
-0.1483851 0.08201563 0.08635075 0.36465603 0.082132116 -0.032817163 0.32548556 0.1485275
0.106491245 -0.102147624 0.09452565 0.32562265 0.29048994 0.098450184 -0.06397745 0.25919706
0.049232636 -0.084800296 0.13083278 0.13931923 -0.44243097 -0.4330003 0.12866484 0.11928101
-0.028615555 0.03403843 -0.10049386 0.16123427 0.12469089 -0.20378298 -0.18702053 0.20519988
-0.11328871 0.25607678 -0.24809632 -0.058211412 0.12041074 0.32493356 0.033661883 -0.12793618
-0.031529773 0.38623726 0.13178064 -0.014790654 -0.048457272 0.13474081 -0.06389137 -0.2199396
0.045730446 -0.017827878 -0.117407136 -0.039606165 -0.1282387 -0.08558555 0.012946826 -0.37990075
-0.05230895 -0.011029486 -0.21582562 0.14493838 -0.12089831 -0.21501563 0.02942823 -0.25617883
0.016555654 -0.17519577 0.019864751 -0.08368839 -0.067018114 -0.27447954 0.22529805 -0.15972884
0.02982832 0.014421253 0.15582451 0.014562762 0.48196507 -0.030515073 -0.10261075 0.34453064
-0.113243595 0.28437296 -0.12450834 0.13692783 0.29243684 -0.11462601 -0.23409283 0.17021495
-0.12106922 0.05652281 0.23976178 0.015904836 -0.2742797 -0.09527173 -0.13464363 -0.18587595
0.07198671 0.06329977 0.07925492 0.4808919 0.44189662 0.14479499

weight f4 [150, 150]
00000000: e755 c13c 5bd0 28be f41f 0c3e 2fa4 1b3e
00000010: 2b6b 303d 6eb8 bbba 3960 9a3d cb32 083e
00000020: 120b 0a3e ab45 c93c a8c8 143e 7ec9 d3bd
00000030: a887 16be df78 6c3c 21ee 08bd 2f58 c03d
00000040: ca65 213e c0da 083d 3321 d43d be20 a7bd
00000050: 6b68 1f3e e51d 5fbd 29ad 833d 11f6 d1bd
00000060: 8614 03be e7ac 38be 2d4f 5abd 5fd5 0f3d
00000070: def1 fcbd 8705 1ebd fefe 923d 7932 123e
00000080: 9a4f 3dbe 5a9c 5ebe cf3a be3b 9383 f1bd
00000090: 12a0 493b 4529 bcbd 4920 5c3e 00b8 f93d
000000a0: 1cf5 0ebe e4be a3bd 40ed 4f3d e975 003e
000000b0: 41f1 023e f481 8ebd c405 1ebe 2e10 963c
000000c0: 5b49 a0bd 1772 a53c 3a27 5f3c c1bb e13d
000000d0: 8b3e 05be f7c4 363e 5ff4 9d3e 1832 203e
000000e0: 5a65 103d 44cc e3bd f856 373d 190d 28be
000000f0: e1e1 c73c 0484 06be e822 51bd e9a0 1fbe
00000100: d477 18bd 42ad f8bc 6cb6 b93d 5661 d03d
00000110: 4e03 b8bb 88f3 f23d ac69 2dbe dc4d f3bd
00000120: 2af2 c13c 6b02 09be 3c2c 6f3e c550 253e
00000130: c426 1e3a 62e7 c9bd a3cf 0b3e 53c4 123d
00000140: c3e3 55be acd3 cd3d 90fe 6b3d eca4 52bd
00000150: 9975 9e3d aa78 f13d 5202 253e 8412 9dbc
00000160: 07af 1dbd 2320 a73c c8ba dabb 7f4f 953d
00000170: 53b9 a2be f910 223e 1f07 dabd e160 933c
00000180: 1108 d63c f9e9 edbd a82c 3abe c423 b23d
00000190: c62e 77bb 353b fabd 1afa f1bd 3f3e 62be
000001a0: a28c 54be bc95 89be a38e 9ebc fa34 243d
000001b0: 8f2b d7bd 3e23 f4bd 1526 39bc 3e89 40be
000001c0: b2b8 d23d 213e 89bd 7e7b 113d 0011 d13d
000001d0: 2d9c 81bd f8e3 8e3d 66df 1f3e 240f 2bbe
000001e0: 333c 773d 8235 703c 9e75 193e 8b0b 5e3d
000001f0: dbb0 df3d 6db7 c33c 4a8a 4bbe 0d3e 673e
00000200: 72af c1be d3fa 8bbc 80e1 a0bd 9f52 a63d
00000210: c388 d23c 052d f7bd 35ba 4bbd ee51 edbc
00000220: 407d 52be bab3 60bd f579 26bd bd77 95bc
00000230: b2e0 cebd 951a 123d 7533 5ebd 50ae 8bbd
00000240: d9e8 ab3d 4cfb 17bc cf41 2b3d 9018 dd3b
00000250: 95dd 2e39 6278 523d 7489 1e3e 55bd b53d
00000260: 4fdf dfbd f9f0 69bd a421 1c3e 1687 7e3d
00000270: c2cc 3d3e ff04 2abe 8fab f1bc 3a07 b73d
00000280: b34e f43d 4328 813d 62d2 03be 5bdd b73d
00000290: c836 fc3d 7a19 d93c 0fe4 7abd b65c 293e
000002a0: ed49 aebc a426 2abe 5e36 ba3d d536 1d3e
000002b0: c3e7 c4ba b59d ddbc 4790 48be f1bf 8dbc
000002c0: 19ef 9bbd 4015 c23d 4143 873c cc95 6ebe
000002d0: 73e5 96bd cf92 debd 2252 2a3d addf 613d
000002e0: e848 1f3d a0e1 bebd c502 2f3e b316 6cbd
000002f0: 782d 1f3c b9ab b5bc 7667 15bd bdbe 963c
00000300: ce78 63bd c1b9 dbbc abaa ce3d 9dea 593d
00000310: 8055 7fbd f74e 55bc 7885 3ebd b69c 4b3e
00000320: 7c92 4fbd 7603 013d a195 dfbd efc9 15be
00000330: 4171 dfbd 0d34 303e 26d0 6c3e 6598 963b
00000340: 4921 16be e082 efbd 9f70 11bc 1b83 4fbe
00000350: 5e03 f33d 8023 f73d 2099 013e 488d 533c
00000360: 9006 053e 39b9 fdbd a97d 47be 28fd a7bd
00000370: 50d6 47bd 450b 263e 6b58 593e 727c 0c3e
00000380: 69cc e0bc 74c0 a9bd c2e2 f23c bcf0 da3d
00000390: 1374 90bd 492c f63c 9916 263e e4e2 0b3d
000003a0: 21d2 ad3c aa1d 023d 3d4c 13bd 950a f0bd
000003b0: b3ce c93d 4aca 973c 2c8a b6bd 86f9 1dbd
000003c0: 167e 5abe ae48 b9bd 0c1d ab3d 5abd 8d3d
000003d0: c44c 38bd 48c8 9c3e 1a59 1bbe fd05 a83c
000003e0: 3982 d93b ab61 88bd 43c8 9dbd eed6 a6bd
000003f0: f61a 253e e50c cbbe 3e7d 983d 80be c3bd
0.023600532 -0.16485731 0.13684064 0.1519935 0.043070953 -0.0014321932 0.07537884 0.13300626
0.13480785 0.024569353 0.1452967 -0.10341166 -0.14700186 0.014433115 -0.033430222 0.0939182
0.15761486 0.03341174 0.10357895 -0.08160542 0.15567176 -0.05447187 0.06429512 -0.102520116
-0.12800798 -0.18034707 -0.053298164 0.035115596 -0.1235082 -0.03857949 0.07177542 0.14277066
-0.18487397 -0.21739331 0.0058053504 -0.11792674 0.0030765575 -0.09187559 0.21496691 0.12193298
-0.1396069 -0.07995394 0.05076337 0.12544979 0.12787344 -0.0695838 -0.15431887 0.018318262
-0.078264914 0.020196004 0.013620192 0.11022139 -0.1301214 0.17848574 0.30850503 0.15644109
0.035252906 -0.11122945 0.044760674 -0.16411246 0.0243997 -0.13136297 -0.05105868 -0.15588726
-0.037223652 -0.030356053 0.09067997 0.10174815 -0.0056156283 0.11862856 -0.16934842 -0.11880085
0.023675043 -0.13379829 0.23356718 0.16144092 0.0006032998 -0.09858586 0.13653426 0.03583176
-0.20887665 0.10050139 0.057615817 -0.051426813 0.07737274 0.11790593 0.16114166 -0.019173868
-0.038496997 0.020401066 -0.006675098 0.07290553 -0.31782016 0.15826787 -0.106458895 0.017990531
0.026126893 -0.11616892 -0.18181098 0.08698228 -0.0037717088 -0.12218324 -0.11815281 -0.22094058
-0.20756772 -0.2687205 -0.019355124 0.040089585 -0.10506355 -0.119207844 -0.011300583 -0.18802354
0.10289134 -0.06701303 0.035518162 0.102083206 -0.06328616 0.06977075 0.15612563 -0.16704994
0.060360145 0.014661195 0.14986274 0.054210227 0.109224044 0.023891175 -0.19876972 0.22582264
-0.37829167 -0.017087376 -0.07855511 0.081212275 0.025699979 -0.12069134 -0.049738128 -0.028969731
-0.20555592 -0.0548589 -0.04064365 -0.018245572 -0.10101451 0.03566988 -0.054248292 -0.06820357
0.083940215 -0.009276222 0.041810807 0.006747313 0.00016676479 0.051384337 0.15482122 0.08874003
-0.109312646 -0.057114575 0.15247208 0.062140547 0.1853514 -0.16603468 -0.02950075 0.08936925
0.11929073 0.063065074 -0.12873223 0.08977767 0.12315136 0.026501406 -0.06125265 0.16539273
-0.021275485 -0.16616303 0.09092401 0.15352948 -0.0015022684 -0.02705274 -0.19586287 -0.017303439
-0.07613964 0.09476709 0.016511561 -0.2329933 -0.07367983 -0.10867845 0.041582234 0.055144954
0.03888789 -0.09320378 0.170909 -0.057638835 0.00971543 -0.02217661 -0.03647562 0.018401498
-0.05553513 -0.026821973 0.10091146 0.05320226 -0.0623374 -0.013019315 -0.046514004 0.19883999
-0.050676808 0.03149744 -0.10917211 -0.14627813 -0.10910273 0.17207356 0.23126277 0.0045958036
-0.14661135 -0.11694884 -0.008876949 -0.20264857 0.118658766 0.12067318 0.12656069 0.012912102
0.12990785 -0.12388844 -0.1948153 -0.082025826 -0.04878837 0.16215236 0.21225135 0.13719347
-0.02744122 -0.08288661 0.029649142 0.10690448 -0.070533894 0.030050414 0.16219558 0.034151927
0.021218361 0.03176657 -0.03596138 -0.11720768 0.09853878 0.018529076 -0.08913073 -0.038568042
-0.2133716 -0.09047066 0.083551496 0.069208816 -0.044995084 0.30621552 -0.15170708 0.020510668
0.006637838 -0.06659254 -0.077042125 -0.08146463 0.16123566 -0.39658275 0.07445763 -0.09557819

bias f4 [150]
00000000: 29c3 1bbc 8d1e 4f3d c8b6 4bbd c288 ce3d
00000010: 4549 bfbd 3809 e7bd d56a bcbd e7ea a03d
00000020: b784 d33c 9584 e8bc 9f9d 013e a29c d7bd
00000030: 1c97 e13d 9302 b43d d868 633d 45b7 b5bd
00000040: ac58 bfbd 91c3 f73c 150b 043d 06e7 a2bd
00000050: bb55 03bc 59e6 92bd 86df afbd a96c c63d
00000060: f4dc d0bd 8330 adbd ab99 8bbd ad66 8a3d
00000070: da9e c6bd 1c5d 43bd 5fa3 03bd c928 debd
00000080: e14b 81bd 8abf 4cbe 34b3 963d 55b5 9cbd
00000090: 38dd d8bd f546 eabd 593b 8dbc c895 3f3d
000000a0: 0f8b de3c 8f57 3b3e 8e87 1dbd b297 1f3e
000000b0: 8273 0fbd 3e11 86bd 95b6 193c d154 503d
000000c0: 39d9 323d 4059 d6bd 7480 63bd 37a2 10be
000000d0: ec71 313d 02d4 273d 03b0 acbd 830c bebd
000000e0: 1a1f cebd 1060 1abe 4475 e8bd 7c5a 873d
000000f0: 8206 cd3d bfb3 d43d ce56 b4bd 544b d93c
00000100: de10 ba3d 3a3b 793d 6529 0a3e 1e50 b0bd
00000110: f5c8 05bb b9ac ecbb 0d5d 943d b6a3 82bd
00000120: a7f8 9f3d a890 9a3b 0cc0 dc3d f009 f93d
00000130: 85a6 853d 0d9d 07be 8f57 13be fa73 253e
00000140: d445 dd3d ff03 b0bd 195b 273e c3c1 aa3d
00000150: 6a44 65be feaa 663d 20d1 bbbd 80bc 8cbd
00000160: 9ad3 243e f986 64be bdf5 07bd 962e fa3d
00000170: 0103 153e 76c1 c4bd 30e6 953d dfba aa3d
00000180: 2417 243d 40d2 bdbd fe01 d6bc 0038 a93c
00000190: bc49 1e3b 52e6 adba e076 99bd 03c8 613d
000001a0: 6cfa 883d 567c e5bc 1e7f d5bc 3806 ad3d
000001b0: dc06 c2bd c4c1 49bd c651 16bc a07b ae3d
000001c0: ca35 60bd 2599 9abd d6fd a43d b19b 4b3d
000001d0: be5d 27bd 8b0d 533d 5259 463e b63a aebd
000001e0: 3404 e73d a353 3b3e 98b5 cd3d 9ae7 c9bc
000001f0: f819 f83d c272 8b3d 3d05 983d e648 f13d
00000200: 9a78 bbbd c62e 3ebd 18e8 693e dea8 293d
00000210: 6f58 f13d 65d8 bebd bc80 d4bd 5cef f8bc
00000220: 695c 60bd ce7c 31be 8314 003d e215 f1bd
00000230: 4420 ca3d 6388 75bd b190 1e3e 0b10 64bc
00000240: 7283 a9bd 8d42 743d 31fd b73d 3773 c9bd
00000250: 2947 22be dc77 ccbd
-0.009506979 0.050566245 -0.04973486 0.10084678 -0.09340147 -0.11281055 -0.09200064 0.07857304
0.02582012 -0.028383533 0.12657784 -0.10527922 0.1101515 0.087895535 0.05551991 -0.088728465
-0.09343085 0.03024462 0.03223713 -0.079542205 -0.008016045 -0.071728416 -0.085875556 0.09688694
-0.101983935 -0.084565185 -0.06816419 0.06757865 -0.09698267 -0.047696218 -0.032138225 -0.10847623
-0.06313301 -0.19994941 0.07358399 -0.07651774 -0.10589069 -0.11439315 -0.017240213 0.046773702
0.027165918 0.1829512 -0.038459353 0.15585211 -0.035022266 -0.065462574 0.00938191 0.050862137
0.04366419 -0.10466242 -0.055542424 -0.1412438 0.043321535 0.04097367 -0.08432009 -0.0927973
-0.10064526 -0.15075707 -0.11350492 0.066090554 0.10011007 0.10385846 -0.08805619 0.026525177
0.090852484 0.0608475 0.13492353 -0.08609031 -0.002041397 -0.0072227386 0.072443105 -0.06378882
0.078110985 0.0047169514 0.107788175 0.121600986 0.06525902 -0.13243504 -0.1438887 0.16157523
0.10804334 -0.08594512 0.16343345 0.08337738 -0.22389379 0.056315415 -0.09170747 -0.06871891
0.16096345 -0.22317113 -0.03319334 0.12215917 0.14551927 -0.09607212 0.073192954 0.08336424
0.04006113 -0.09268618 -0.026123997 0.020656586 0.0024152836 -0.0013267493 -0.07493377 0.055122387
0.06688389 -0.02801339 -0.02606159 0.08448452 -0.094739646 -0.049257055 -0.00917477 0.08519673
-0.054738797 -0.07548741 0.08056228 0.049709026 -0.040860884 0.051526587 0.1937001 -0.08507292
0.112800986 0.18293624 0.10044402 -0.024646569 0.12114328 0.06808998 0.07422874 0.117814824
-0.09153862 -0.046431325 0.22842443 0.04142081 0.117844455 -0.09318618 -0.10376117 -0.030387573
-0.05477563 -0.17332765 0.03126956 -0.11771752 0.098694354 -0.05994452 0.15484883 -0.013919841
-0.08277024 0.05963378 0.08983839 -0.098364286 -0.15847458 -0.09983799

weight f4 [1, 150]
00000000: ed33 503e ba9c 63bd 9651 ce3d f06f a6bd
00000010: 93ad a23c 02e6 d43e 0f46 343e 5fb0 66be
00000020: d142 513e 0af4 423e fc5e 6d3e 769b cc3d
00000030: 3dc8 95bd 4cc0 91bd c3dc e1bc 0d15 0c3e
00000040: 45f8 2bbe 6fbc 663e 8cfb 1b3e 9b3a ed3d
00000050: 9294 fd3d 8eb1 513d d21d 393e 90c3 77bd
00000060: c7dd 743d 7b9f aa3d 630a 5fbe 98ce c1bd
00000070: 6aba 113d 0d09 333d 3cfd 1f3e d208 2ebe
00000080: 94b5 8cbe 5a6a 643e 0d08 443e e76e e33d
00000090: 645b 843e 03b5 253e a888 aebd 5530 babd
000000a0: 7f8e 203e 69a8 3dbe 6a05 1d3e e2a2 65be
000000b0: bcec 0c3d 509d 023e 93cf dabd 046e 85bd
000000c0: f5e2 8fbd 4475 f33d cbd2 f03d 934f 223e
000000d0: a46c e13d 9c03 71be 9cec d03d 34d8 943d
000000e0: c9ec b43d 6db2 53be 201a 883d 563d 9cbe
000000f0: 0ec2 03be 0d86 8ebe e4f4 b73c 73a2 083e
00000100: a877 f3bd 15c4 7b3e 6d98 34bd ebbb 893d
00000110: fb24 e43d f34b 3fbe 49df 0fbe fb22 26be
00000120: 991a 42bd 094e 3f3e 29b5 41bd aeb7 d3bd
00000130: bf48 68be ace5 5d3e b149 7cbe 04a8 44be
00000140: 7f7d 27be 2934 073e a740 433e 8782 17bd
00000150: ba64 6cbe 6c2b 313e c2d9 863d 397b 193d
00000160: fbc1 37be e76d 54be 2ed7 4a3d dd57 43bd
00000170: 153d 553e 2293 033e b79f 543e 85fd 22be
00000180: 0a2b 1abe a2a4 8c3e bd7a 243e c160 42be
00000190: f460 343e 44b4 52be 7b22 413e d995 8fbd
000001a0: eeaf 273e cb88 c6be fecc 043e 344f 34bd
000001b0: 9b41 133e 8e7e 833d aa62 5abe 14fb e8bd
000001c0: 199f ef3d dd7d e53d 478b bdbd f55d b7bc
000001d0: d0b7 0ebe 3e28 2bbe 2dc6 91be 3e57 2fbe
000001e0: e7a7 b5bd a3fd a23e 61ce 333e 69eb e83d
000001f0: a81a 8fbd 497c 83bd bc9d 0bbe cb36 e8bd
00000200: ab68 503e 861a f33d 482e 2a3e 8cbe dbbc
00000210: b8af 7ebe eef2 70be 871b 39be c425 0e3d
00000220: 60ec 97be 360c 44be 2fbc 32be 53b9 883d
00000230: 07a6 aebd fca6 173e cf43 6d3e 5816 673e
00000240: df00 4b3d eb27 abbd babe dabd 1fe6 6b3e
00000250: ea33 823e 6af9 053d
0.20332308 -0.055569388 0.10074155 -0.08126819 0.019858157 0.41581732 0.1760485 -0.22528218
0.20435645 0.19038406 0.23180765 0.09990589 -0.07313583 -0.07116756 -0.027571088 0.13679905
-0.16793926 0.22532819 0.15232676 0.11583444 0.12381853 0.05119472 0.18077782 -0.060489237
0.059781816 0.083312 -0.21781306 -0.09463233 0.03557817 0.043709803 0.15623945 -0.16995552
-0.27482283 0.22306195 0.19143696 0.11105137 0.25850976 0.16182332 -0.08522159 -0.0909125
0.15679358 -0.18521275 0.15334097 -0.22425416 0.034405455 0.12755322 -0.10684123 -0.065151244
-0.070257105 0.11887601 0.117589556 0.15850668 0.1100705 -0.23536533 0.1020138 0.072678
0.08834226 -0.20673533 0.06645608 -0.30515546 -0.12866995 -0.27836648 0.02245564 0.1334322
-0.11888057 0.24586518 -0.044090677 0.06725296 0.11139866 -0.18681316 -0.1405002 -0.16224281
-0.047388647 0.18682112 -0.04729191 -0.103377685 -0.22684 0.21669644 -0.24637486 -0.19204718
-0.16356467 0.13203491 0.19067632 -0.036989715 -0.23085299 0.1730172 0.06584503 0.03747103
-0.17945091 -0.2074505 0.049521618 -0.047691215 0.20824082 0.12849095 0.20764051 -0.15917023
-0.1505548 0.27469355 0.16062446 -0.18982221 0.1761511 -0.20576578 0.1886081 -0.07011003
0.16375706 -0.3877624 0.12968823 -0.044020846 0.14380495 0.06420623 -0.213267 -0.11376014
0.11700267 0.11205647 -0.09255081 -0.02238367 -0.13937306 -0.1671457 -0.2847151 -0.17123124
-0.088699155 0.31834134 0.17559196 0.11373026 -0.06987506 -0.0642019 -0.1363439 -0.11338576
0.20352428 0.11870293 0.16619217 -0.026824258 -0.24871719 -0.2353017 -0.18076907 0.034703985
-0.29672527 -0.19145283 -0.17454599 0.06675973 -0.08527761 0.14809793 0.23170398 0.22567117
0.049561378 -0.08357223 -0.106809095 0.23037003 0.25430232 0.032708563

weight f4 [4, 150]
00000000: 22d4 fbbd 9270 3ebe bbde 803a 5110 8ebd
00000010: 3a16 5d3d 2b75 513d 5d17 2dbc 1d65 d83d
00000020: 82e8 f8bd f4e6 113e 864e ea3d ddd1 99bd
00000030: 2054 c8bb 6ccc a4bd 6086 e33c 88ae d4bc
00000040: 1c62 973e 7ba4 473d 6014 87be 45af 1c3d
00000050: bca9 aebc f75d 3dbd 094d ce3d c037 2dbd
00000060: 358c 00be 6029 d23c 3460 76bd 2bf2 4abd
00000070: d8cd b33c 5923 01be ae05 80bd bc67 363d
00000080: 54b5 b3bd a399 f7b9 2b20 f4bd ad8a d3bd
00000090: 02ee 173e 4e2b b0bd 33b6 5bbd 44e5 27be
000000a0: 412e f8bd 28fb 15be f9bb 64be a7a0 eabd
000000b0: c7cb 0d3e 99cc 283e ccf3 403e 83a9 86be
000000c0: a948 68bc 8cc8 30be 5bb1 e2bc 7669 97bb
000000d0: f60a 6d3d 768d e93c 81b7 8dba b574 c03c
000000e0: e984 323e 6094 c83d c4d3 f43d 41e0 5bbe
000000f0: f8b7 b83a 1982 60be 8a35 3dbd 11af 9abc
00000100: fd6b 0c3e 7e87 d43d 2d3b e23d 7f82 26be
00000110: 5282 1b3e 0d50 ea3d 953e a73d 1a0b c5bd
00000120: e371 f3bd a022 39be 642c 17be 6fb9 60bd
00000130: 75f0 893c f837 3f3e de13 68bc e9d1 ffbb
00000140: 3cb7 9b3d d73d b93c 0313 053e 574b ecbd
00000150: 9d6a 3c3e 6a24 d33d cb3e 26be 4d80 583e
00000160: 7016 e3bd 1eac b33c 7964 8cbd 4c7a 953d
00000170: c4dc 81be b7d5 373d a884 e93d a334 91be
00000180: 9bb9 513e b887 abbc e334 1e3e 380b d63b
00000190: 4125 383d b7b5 6d3c ca73 20be a3c3 7cbd
000001a0: 73a0 2abd fd8e dc3d ab0f 4d3e adf7 893d
000001b0: ecaf 843c f40d 253d dab8 203e b4b8 ed3d
000001c0: 82ce 853e 0218 863d 16de f23d 3a62 b53e
000001d0: 4df3 66bd 97c1 cfbd 2081 13bd 38b1 c7bd
000001e0: 3e5c 0c3e 6b91 363e 6ccf bcbd a221 26bd
000001f0: c9e0 63bd 2050 b23d 7074 e73d 6d9b 04be
00000200: a02e 2cbd 921a 2b3e 73b4 b63d 5340 c53b
00000210: 1f72 503e 0487 e4bc fd26 edbb db1d 21bd
00000220: 7180 df3d 1783 66bc c7c4 0ebe d01a 02be
00000230: f89b 1f3d d60b 2e3e d2e5 0e3e a0be 45be
00000240: 93fb 5f3d 4a19 b63d 0544 71be b985 6a3d
00000250: c014 1c3d efb3 c63b c1c2 49bd 8ef4 8dbe
00000260: f7af 1c3e 46c2 1a3e 906a 153e bcac 46be
00000270: 2a78 6f3d 96eb 3d3e adfb 453e 5ecc 0a3d
00000280: 165e 093e cf54 4ebd cb4c 72be cfc1 653e
00000290: 9f61 0c3d a382 763e a956 3d3e 3a42 ac3d
000002a0: 5236 cabd 5d1c b03d d29b ce3b ec57 67bd
000002b0: 2e9d 08bd 6f8f aebd 1213 c33d 62e3 fe3d
000002c0: a61a 25be af95 e9bd 8554 033e ea2c 4ebd
000002d0: f8a5 d6bc f33a 47be 2605 09be 0795 953d
000002e0: b368 283e 1783 933c c58d c6bd 11f6 113e
000002f0: 5b21 8ebd dfa7 afbd 392a 373e 5c36 d4bc
00000300: cdab 253b 82f5 aabd 59f6 5dbc 6562 5a3e
00000310: d62b dcbd d8e0 073d 355b 0f3d bda2 9ebd
00000320: 8d94 313e 8779 103d 1ff7 3ebc 9ab9 26be
00000330: 7c67 62bd dca1 3ebe c276 aa3c 2db0 f9bc
00000340: df7f 973e 8a05 0f3e 7553 aa3d 7382 a5bc
00000350: a93e a23d f058 713e 4fe2 82bd f505 2fbe
00000360: 979d f43d 1de0 343e 03e2 a6bd 87f1 69bd
00000370: 8c0f fcbb eca2 503d ad06 91bd d8fa 05be
00000380: e899 2f3e 4389 6ebe bcd5 c53d 29c4 76bd
00000390: 56b3 343c 17eb 20be 211f 0c3e 861e 64bd
000003a0: a8a9 273d 0a63 78bd e4e1 febd e6df 5fbc
000003b0: b9e4 19be 0997 c8bd 0447 96bd 2fd7 48bb
000003c0: b213 b1bd 0d67 21bd ce48 ab3d f2be ddbd
000003d0: 96ab 063e ec1c cd3c 9b25 e73d 2e51 53bc
000003e0: 62cb 3bbd dbc4 743e c846 313e f0d5 df3d
000003f0: e3cd fb3c 3511 a9bd b4fd f7bc 0274 51be
-0.122963205 -0.1859763 0.0009832004 -0.06936706 0.053976275 0.05113713 -0.010564652 0.10566161
-0.12153722 0.14248258 0.114407584 -0.07510731 -0.006113544 -0.08046803 0.027774036 -0.02596213
0.2956704 0.048740845 -0.26382732 0.038253088 -0.02132117 -0.04623219 0.10073287 -0.042289495
-0.12553485 0.025654495 -0.06015034 -0.049547356 0.02194874 -0.1261114 -0.06251083 0.044532523
-0.0877482 -0.0004722598 -0.11920198 -0.10329185 0.14836887 -0.0860201 -0.053640556 -0.16396052
-0.12118197 -0.1464659 -0.22337331 -0.11456423 0.13847266 0.16484298 0.18843001 -0.26301202
-0.01417748 -0.17264003 -0.02767246 -0.004620726 0.05787178 0.028509837 -0.0010812135 0.02349315
0.17433514 0.09793925 0.119544536 -0.21472265 0.0014092913 -0.21924628 -0.046193637 -0.018882306
0.1371307 0.103774056 0.11046443 -0.16260718 0.15186432 0.1144105 0.081662335 -0.09621258
-0.118869565 -0.18079615 -0.14763027 -0.054864343 0.016838292 0.18673694 -0.014164893 -0.0078070057
0.076033086 0.022612495 0.12995534 -0.115378074 0.18400045 0.1030968 -0.16234891 0.21142693
-0.11088264 0.021932658 -0.06855101 0.07298717 -0.25363743 0.04488155 0.11402255 -0.2836047
0.20480959 -0.02093874 0.15449862 0.006532099 0.044957403 0.014508656 -0.1566917 -0.06171001
-0.041656923 0.1076946 0.20025508 0.067366935 0.016197167 0.04029651 0.15695515 0.11607495
0.26134115 0.06547548 0.11858766 0.35426503 -0.056384373 -0.10144346 -0.036011815 -0.09750599
0.13707063 0.1782891 -0.0921925 -0.04055942 -0.055634294 0.08706689 0.113015056 -0.12949915
-0.042036653 0.16709355 0.08921137 0.006019631 0.20356034 -0.027896412 -0.007237314 -0.039335113
0.1091317 -0.01406934 -0.13942252 -0.1270554 0.038967103 0.16996703 0.13954857 -0.19310999
0.05468328 0.08891542 -0.23561104 0.057256434 0.038105726 0.00606393 -0.049257997 -0.27725643
0.153015 0.15113172 0.14591432 -0.1940183 0.058464207 0.185469 0.19334288 0.033886306
0.13414797 -0.05037385 -0.23662107 0.22437213 0.034272786 0.24073271 0.1849009 0.08411069
-0.09873642 0.0859916 0.0063051963 -0.056480333 -0.033353023 -0.085234515 0.09525122 0.124457136
-0.16123447 -0.11405503 0.1282521 -0.050335802 -0.026202187 -0.19456081 -0.1338087 0.07303815
0.1644619 0.018006844 -0.09695009 0.14254023 -0.06939956 -0.08576941 0.178872 -0.025904827
0.0025279403 -0.08347608 -0.013547503 0.21326597 -0.107505485 0.033173412 0.03499909 -0.077458836
0.17341824 0.035272148 -0.011655598 -0.16281739 -0.05527447 -0.18616432 0.020808581 -0.030479515
0.29589745 0.13966957 0.083166994 -0.020203805 0.07922108 0.23569083 -0.06390821 -0.17092116
0.119441204 0.17663617 -0.08148577 -0.057115104 -0.007692283 0.050936624 -0.070813514 -0.1308397
0.17148554 -0.23294549 0.09659907 -0.060245667 0.011029085 -0.1571468 0.1368375 -0.055693172
0.04093328 -0.060641326 -0.12445429 -0.013664221 -0.15028657 -0.09794433 -0.07337764 -0.0030645838
-0.08646335 -0.039404918 0.08363496 -0.108274356 0.13151392 0.025038205 0.112864695 -0.012897773
-0.045848258 0.2390322 0.17312157 0.10929477 0.030737823 -0.08255235 -0.030272342 -0.2045441

bias f4 [4]
00000000: 64cb 893d aecb 953d ae4e b23d 8bc1 363a
0.06728247 0.073142394 0.08706413 0.0006971589

_bias f4 [4, 1]
00000000: 1d60 8dbe 4feb b3be 910f b4be 3cdf cabe
-0.2761239 -0.35140464 -0.35168126 -0.3962344
