gym_multirotor(Native PPO)/examples/rl/experiments_from_paper/experiments_data/trained_models/QuadrotorPlusHoverEnv/QuadrotorPlusHoverEnv-1/ppo/QuadrotorPlusHoverEnv-v0.pt (torch, 216272 bytes, 12 tensors)

weight f4 [150, 18]
000000 dd db 73 bd e1 93 90 3e 0a 76 a4 be 3a c9 1a bb
       -0.05953585 0.28237823 -0.32121307 -0.0023618476
000010 bd 46 22 bd 50 45 95 3d 7c b3 41 bc e8 22 68 3e
       -0.039618243 0.07288611 -0.011822578 0.22669566
000020 8f 41 35 bc 82 69 b2 bd 1b ef bd ba 57 ca 35 bb
       -0.011062994 -0.0871153 -0.0014490815 -0.0027739012
000030 c1 c7 e7 bd ac 3e 0b 3e 20 02 1d be a3 53 37 be
       -0.11317397 0.13598126 -0.15332842 -0.17902999
000040 75 4b 48 be 2b ed eb bc 71 2a 33 3e 0e a4 1c 3e
       -0.19560035 -0.028799614 0.17496659 0.15296957
000050 07 87 11 3e 20 a4 6b bd ff 14 ef bb 03 98 9b 3c
       0.14211665 -0.05752957 -0.007296204 0.018993383
000060 16 6a 0a 3e d7 d3 1d 3e a0 aa b8 3d bf b8 9a 3e
       0.13517031 0.15412842 0.09016919 0.30219075
000070 dc 49 20 3d 10 8e 92 3d 05 8d eb 3c f8 07 a6 3d
       0.039132938 0.071560025 0.028753767 0.08106989
000080 d0 c9 06 3e bd ae 34 be 23 32 da ba 85 7e 8d bd
       0.13162923 -0.17644782 -0.0016647022 -0.06908897
000090 f1 03 26 3e 20 3d f3 ba b3 9d 9e bd 69 c4 9e 3c
       0.16212441 -0.0018557645 -0.077449225 0.019380765
0000a0 ed db 9d bb 24 e8 61 3d 73 b2 31 be cb ba 43 bb
       -0.004817477 0.055153027 -0.17353229 -0.0029865976
0000b0 18 e0 2f be 83 5a cb 3c 5c ac 09 3e a6 94 8f bc
       -0.17175329 0.024823433 0.13444656 -0.017526936
0000c0 0c fd 5a 3e 8c 88 5a 3e 07 dd f6 bd c1 cd 63 bd
       0.21385592 0.21341151 -0.12053876 -0.055616144
0000d0 bf 1e 47 3e 1b 34 a9 3d a9 7a 88 3d d6 8e a4 3e
       0.19445322 0.082618915 0.066640206 0.32140225
0000e0 c4 fe a4 be fe 82 0c bd 4a 16 23 be df 5a 2a 3c
       -0.3222562 -0.03430461 -0.15926471 0.010397642
0000f0 0e ae 87 3d 2b 83 0d 3e 65 29 6d be 40 76 fc bd
       0.06624995 0.13819568 -0.23160322 -0.12327242
000100 73 6b 31 3c 8a 46 22 bd 93 43 10 be d8 1f bd 3d
       0.010828841 -0.039618053 -0.14088278 0.09234589
000110 1e ca ac be d5 04 49 3e e2 9c 4e bd 72 b3 35 bd
       -0.33747953 0.1963075 -0.050442584 -0.044360586
000120 bc 70 58 bd 7c 68 a6 3d 3e 3c 27 3e 88 89 40 bd
       -0.052841887 0.081253976 0.16331574 -0.04700616
000130 68 24 9b bd 95 36 83 3b 32 d7 d2 3c 29 ba d2 3d
       -0.07575303 0.0040043094 0.025737379 0.102894135
000140 c5 17 49 bd d2 4f fa 3d ab 8e e3 3d 10 c8 38 be
       -0.049094934 0.12222256 0.11111196 -0.18045068
000150 3d ed f8 3c 4f 50 a3 3c 4e e8 60 3e d9 ee a8 3d
       0.030386562 0.019935755 0.21963617 0.082486816
000160 84 77 03 3e 90 e6 43 3e 23 30 11 bd e0 79 6e be
       0.1283856 0.19130921 -0.035446297 -0.23288679
000170 5d dd 31 3d c3 f2 46 be b6 41 85 3d f5 8d 22 bd
       0.043424 -0.19428544 0.06506674 -0.039686162
000180 d2 6a f0 3b f8 09 b0 bd ce c6 29 bd 79 f7 56 3d
       0.0073369527 -0.085956514 -0.04144936 0.052482102
000190 0c 72 89 3d 81 f0 63 be 16 fc bf bc 01 1e 96 be
       0.06711206 -0.22259714 -0.023435634 -0.29319766
0001a0 25 3f 77 3b 01 0a 17 bd c0 d1 60 bd bf 2d bf bd
       0.0037726846 -0.036874775 -0.054887533 -0.09334897
0001b0 c2 5c 2e be 49 88 18 3e 7c a4 66 be f7 d1 8c 3d
       -0.17027572 0.14895739 -0.22523683 0.06875985
0001c0 2f a1 99 3d 6a 30 21 3d 24 d9 9d bc 9b 52 85 3e
       0.075014465 0.039352812 -0.01926858 0.26039585
0001d0 ee be 17 3e b5 99 06 be b5 2e 98 3d e9 f5 92 be
       0.14818928 -0.13144572 0.07430784 -0.2870324
0001e0 e1 ed d1 bd bd cc 6f bd 74 94 32 be 53 6a 90 3d
       -0.1025045 -0.058544863 -0.17439443 0.0705153
0001f0 5c a1 d9 3c f8 66 3c 3e 79 22 36 3e c4 b9 7e bd
       0.0265662 0.18398654 0.17786588 -0.06218888
000200 86 fb 8a 39 10 d2 35 be 68 9d 78 3d 51 5f ff 3c
       0.0002650881 -0.17755914 0.06069699 0.03117338
000210 65 28 27 3e 59 3c e5 bc 04 57 8f 3c 8d 15 3a 3d
       0.16324003 -0.027982878 0.017497547 0.04543071
000220 5d 8f b2 bd 3c 1b 5a be b1 4c 4d bc 8f b3 04 be
       -0.087187506 -0.21299452 -0.012530492 -0.12959121
000230 12 68 2b bd c7 92 a3 bd cc dd 35 3d 31 06 6a 3d
       -0.041847296 -0.0798698 0.044400975 0.05713481
000240 25 64 fc 3d cf d1 7e 3e 36 84 8e 3c 11 96 6d 3e
       0.123237886 0.24884723 0.017397027 0.23201777
000250 a3 f7 1d be 84 3d 6c be 0d f7 7b bd dd 78 cf bd
       -0.15426497 -0.23070341 -0.061514903 -0.10130475
000260 18 cd 51 bb 9e 40 0f 3c 3e 3e fe bd e0 04 39 be
       -0.0032013115 0.008743433 -0.124142155 -0.18068266
000270 1c e2 a1 bd 59 96 cf 3c 71 84 03 bd 32 75 05 be
       -0.07904455 0.025340246 -0.032108728 -0.13032988
000280 10 2b d9 3b 2b 57 6c be 89 77 b9 3c 47 b2 77 be
       0.006627448 -0.23080127 0.022640007 -0.24189101
000290 fc 55 80 3b 52 97 52 be 70 58 4f 3d 5c ab 8a 3d
       0.0039165 -0.20565537 0.05062145 0.067709655
0002a0 41 85 a9 3e e9 8d 0e be a6 39 c5 bd 76 f8 bb bc
       0.33109477 -0.13921322 -0.09630136 -0.022945624
0002b0 0a 49 8e 3e 04 e3 6e 3d 39 20 43 be 89 e6 b3 3d
       0.277901 0.058321968 -0.1905526 0.087842055
0002c0 12 68 c8 3d 30 66 60 3e e7 16 41 3e dc 55 57 be
       0.09785475 0.21913981 0.18856393 -0.21028847
0002d0 50 60 96 be 1b be 2b be fd 0b ab 3e 34 ef cc bd
       -0.29370356 -0.16771738 0.33407584 -0.10006562
0002e0 74 34 34 be 46 19 08 be fb 08 ef 3c 2b 4a a8 3e
       -0.17598134 -0.13290891 0.029179087 0.32869086
0002f0 3a d7 ec 3c ef 84 d6 bd 66 ca 67 bd d0 95 cb bd
       0.028911222 -0.10474574 -0.056589507 -0.09940684
000300 28 c0 de bd 19 fb 81 3d 0f c2 f2 3d d0 c2 67 3e
       -0.10876495 0.06346721 0.1185342 0.22632909
000310 ff 8c 1f be 3d bc 0f 3e bb 72 d7 bd 5a 44 7d 3e
       -0.1558113 0.14036651 -0.1051993 0.24733105
000320 37 3e 37 3d 18 c9 b1 3d c9 cc 7a 3e bf 07 c2 bd
       0.044737067 0.08680934 0.24492182 -0.09474134
000330 f0 60 25 bd 1f db 53 3d 99 85 05 bd 5d 47 ac 3b
       -0.04037565 0.051722642 -0.03259811 0.0052575306
000340 dc 22 cc be e3 a6 f5 3c ba 4b 1b 3c 1e 33 46 3d
       -0.39870346 0.029986804 0.009478504 0.048388593
000350 87 14 ee bd d5 83 e7 bc ac 95 53 3e c9 49 cc bd
       -0.11625009 -0.028261105 0.20662564 -0.09975011
000360 2a 89 f2 3d f6 34 0c bd e2 3f 8f be de f0 e6 bd
       0.11842568 -0.034230195 -0.27978426 -0.112764105
000370 99 af 02 3d 95 39 0f be 64 d5 b7 3d 4b ee 2d be
       0.031905744 -0.1398681 0.08976248 -0.16985433
000380 e0 b3 02 be 6d 2d b1 3d 4c d2 88 3d 9b ba 7a bd
       -0.1276393 0.086512424 0.06680736 -0.061213117
000390 73 bc ba 3d ea d9 15 bd c7 8f 76 be 33 0b ee bd
       0.09117975 -0.036584772 -0.24078284 -0.1162323
0003a0 14 1f 10 bc cf f8 e8 3d 65 ba 6f be a2 84 0e be
       -0.008796472 0.113755815 -0.23410948 -0.13917783
0003b0 13 60 6d bd 64 cf 9b ba af 88 88 bd b3 35 15 be
       -0.05795295 -0.0011887369 -0.06666695 -0.14571266
0003c0 0f 5d 26 bc 54 40 e9 3c a5 6d 41 be 4d c0 a9 bd
       -0.010154023 0.028473057 -0.18889482 -0.082886316
0003d0 ae 55 2c be 75 c2 2f be db 67 3e be bc 3b 8c 3d
       -0.16829559 -0.17164023 -0.18594305 0.06847331
0003e0 88 8b a9 bc b3 83 7f 3d 4c 14 d4 3d 70 43 91 3c
       -0.020696416 0.062381458 0.10355434 0.017732352
0003f0 ba eb ab 3d 74 2a ef 3d 4c 9b 82 bd 2a 86 31 bc
       0.08394571 0.11678019 -0.06377277 -0.01083521

bias f4 [150]
000000 34 96 04 3b 02 1e 15 3d 54 6f d4 3c d9 99 d8 3d
       0.002023113 0.03640557 0.025931992 0.10576219
000010 b3 5f 02 be 81 91 1c be 9d bf d9 bc 97 d2 27 be
       -0.12731819 -0.1528988 -0.026580626 -0.16388927
000020 fa 90 18 3c 89 58 5d bd a5 a3 7c bd 4d a1 57 3d
       0.009311909 -0.05403951 -0.0616795 0.052644063
000030 de 4b 77 3d 13 23 a4 bd fb 39 7c 3d 71 fe 87 3d
       0.060375087 -0.080145024 0.061578732 0.06640328
000040 77 f2 bd 3d 9e 67 da bd 8a c4 be bc 54 0b 41 3c
       0.09274762 -0.10664295 -0.023287077 0.011782486
000050 35 bd ba bc 4c dc e5 bd e9 7c 84 bd 9a ca d0 3c
       -0.022795299 -0.11223659 -0.06469137 0.025487233
000060 d0 4b 70 3c e9 8e 17 be 5b 5c 74 bd c2 59 81 3d
       0.014666513 -0.1480061 -0.05965839 0.06315948
000070 b1 ed e1 bd d2 c3 87 3d a3 38 19 be 9e 1c b3 bd
       -0.11031664 0.06629147 -0.14963011 -0.08745693
000080 b2 f2 93 3b fc fc a2 3d 8a dd 6f bc 40 a9 fb 3c
       0.0045150155 0.07958409 -0.014640221 0.030720353
000090 23 46 e8 bd d5 da 94 3d 62 4f 3e bc 61 5c a7 bd
       -0.113415025 0.072683014 -0.011615606 -0.08171917
0000a0 98 a1 58 bd 2e 3d 91 bc 80 c0 0c 3e 18 53 2d bd
       -0.052888483 -0.017729368 0.13745308 -0.042315573
0000b0 63 9c 06 3e fd d5 fe 3c b3 a4 a0 3d b5 d3 70 3e
       0.13145594 0.031107897 0.07843914 0.2351826
0000c0 c7 44 c4 3d 48 88 d8 bd 06 f1 d9 3d 4d f8 55 3d
       0.09583431 -0.105728686 0.10641675 0.05223875
0000d0 b5 d9 d7 3d 13 67 fc bd e6 42 23 3d 5a 13 9e bd
       0.10539571 -0.12324347 0.03985872 -0.07718535
0000e0 2d 58 e7 bd ca cf 0e 3e 04 74 8b bc 8d 87 62 3d
       -0.11296115 0.13946453 -0.017023094 0.055305053
0000f0 89 63 4b 3c bf 46 fc 3d 03 4a 5e bd b6 9e 65 3d
       0.012413868 0.12318181 -0.0542698 0.05605956
000100 85 df 80 bd 3e 3e 97 bc fb 80 c5 3c 4e 2b 94 3d
       -0.06292633 -0.018462297 0.024109354 0.07234822
000110 27 d1 9c 3a 51 74 06 3e a3 32 08 bc e9 18 98 bc
       0.0011964188 0.13130309 -0.008312854 -0.018566566
000120 14 a8 78 bd 03 71 41 3d 7c 10 c8 bc 5f 7c 44 be
       -0.060707167 0.047226917 -0.024421923 -0.19188069
000130 b8 76 8d bc 42 79 36 be 9b a1 28 bd 92 96 76 3b
       -0.017268524 -0.17819694 -0.041169744 0.0037626368
000140 e1 fc 26 3e cb 8b 3a bc 2f 54 83 3d 67 da 85 3d
       0.16307403 -0.011385868 0.06412541 0.065357976
000150 89 4e 07 3d 8d e7 8e bc e5 8d 9d 3c 3a c4 58 3d
       0.03303388 -0.017444396 0.0192327 0.05292151
000160 8a 09 a5 bc d7 09 ca bd ff c3 2a 3b 6b 6f 16 bd
       -0.02014615 -0.09865158 0.0026056764 -0.03672735
000170 94 22 4d 3d e3 ef 01 3b db 12 a9 bd 48 ea 7a be
       0.050081804 0.0019826822 -0.082555495 -0.24503434
000180 3a 46 f0 bd 62 be ac bd 0e 3a cd 3d 23 84 4e bd
       -0.11732145 -0.0843475 0.10020839 -0.050418984
000190 8d 21 6e bd 87 02 be 3d f6 f9 41 bd 20 01 74 bd
       -0.058137465 0.09277826 -0.047357522 -0.059571385
0001a0 55 d8 23 3d ba 87 c8 3c 41 dd 6c bc 2d 4e 16 be
       0.040001232 0.024478782 -0.014457048 -0.14678259
0001b0 aa a8 9e bd d7 7b 71 3e b2 b9 c6 3d e6 df 1e 3e
       -0.07747014 0.23582397 0.09703387 0.15515098
0001c0 17 a7 8a 3d 3e 8e 5c bd ae 0b 8f 3d 28 7a 39 be
       0.06770151 -0.05384659 0.069846496 -0.18113005
0001d0 30 db f9 3a 92 c7 e6 3c 36 c6 49 3c bc b6 e4 3c
       0.0019062515 0.028171334 0.012315324 0.027919166
0001e0 7c bb 94 3c f3 af 98 bc 2d cf 0c bd 04 7c 28 bd
       0.018155806 -0.018638587 -0.034377266 -0.041133896
0001f0 37 64 8f bd 19 73 14 3d cf ca 0a 3d 7b 34 8a bd
       -0.07001536 0.03624258 0.03388482 -0.06748291
000200 f5 b9 bc 3d 6f 83 7c 3d 27 58 81 bd 5c 63 15 3e
       0.09215156 0.061648782 -0.06315642 0.14588684
000210 db 7f 5e be 7f fd 09 3d b1 a6 26 3d 9a 45 10 bc
       -0.2172846 0.03368902 0.040686313 -0.008805657
000220 eb b9 98 bc 74 06 ea 3d 49 3b c3 3a dd e7 3d 3d
       -0.01864334 0.11427012 0.0014894988 0.0463637
000230 b7 e3 0a 3d 3f 4b fe 3d 79 d2 51 3d 0d 70 99 3c
       0.033908572 0.12416696 0.051226113 0.018730188
000240 90 64 e1 bd ae dc b3 bd 08 50 41 3d 8a 66 7f 3d
       -0.11005509 -0.08782326 0.047195464 0.06235365
000250 6c 00 bc 3d f3 db 85 3d
       0.09179768 0.065360926

weight f4 [150, 150]
000000 04 13 ab 3d 81 45 70 ba f9 2d 52 be 5f 92 8b bc
       0.08353236 -0.00091656303 -0.2052535 -0.017037569
000010 6a e1 b5 3e 2d 20 5c be da a3 a5 3d 80 ac 46 3d
       0.3552354 -0.21496649 0.08087893 0.048504353
000020 5f 41 8c bb 5d a9 02 3e 8d 90 00 3e 5f 40 f0 3b
       -0.004280254 0.1275992 0.12555142 0.0073318924
000030 35 5c ee 3b 79 1e 44 3d d5 f6 96 3d 27 9c 22 be
       0.0072741755 0.047880623 0.07371298 -0.1587988
000040 89 17 c0 bd 17 33 c0 bc a5 3d b6 3d 7e 34 59 be
       -0.09379489 -0.023461862 0.088984765 -0.2121143
000050 64 a5 fd bd da e6 ed 3d 0f 1b 3f be 2b 14 3d be
       -0.123850614 0.11616297 -0.18662666 -0.18464725
000060 d0 7a 2f bd b6 30 65 bd 5e 91 ea bd a5 fa 8f 3d
       -0.042841733 -0.055954657 -0.11453508 0.070302285
000070 f0 c7 f6 bd a9 82 cf bd ef 13 98 3e 77 70 84 3e
       -0.12049854 -0.10132343 0.29702708 0.25867054
000080 79 49 f6 3b f7 8d cb bd 42 23 23 be 4e 3c 29 be
       0.007516083 -0.09939187 -0.15931419 -0.1652691
000090 f0 74 53 3e fd 76 de 3a f1 fb 23 3d c2 e0 7d bb
       0.20650077 0.0016972717 0.040035192 -0.0038738702
0000a0 43 62 45 be b2 ce 7f bd c8 4e f9 3d 9e 46 5c 3d
       -0.19275765 -0.06245298 0.121732295 0.053778283
0000b0 50 de fc bb 32 c1 3d ba 9f af 10 bd 3e 95 1c bd
       -0.0077169314 -0.0007238566 -0.035323735 -0.038228266
0000c0 35 64 bb 3d fc 96 02 3e 86 87 1f be 26 0e 90 bd
       0.09149972 0.12752908 -0.15579042 -0.070339486
0000d0 c9 01 d8 bd 92 c6 3c 3e 28 2d 01 3d 62 f2 67 3d
       -0.105472155 0.18435124 0.031537205 0.05662764
0000e0 ac 8c ce bd f5 0a bf bd ee 56 05 bd a3 01 93 bd
       -0.10085425 -0.09328262 -0.032553606 -0.071780466
0000f0 ce 8e 96 3d 01 c2 71 3e 27 09 99 3d 03 66 16 be
       0.073514566 0.23609163 0.07472449 -0.14687352
000100 ed 29 2f 3c 17 11 2a 3e a6 39 c9 3d 5d 07 12 be
       0.010691148 0.16608082 0.09825449 -0.14260621
000110 d2 a7 49 be 08 a4 03 3d d5 52 22 3e db ee 0a 3e
       -0.19692925 0.032138854 0.1585191 0.13567679
000120 4e 46 81 3d c6 e2 95 3d 58 dd 25 3e a2 ca 44 3d
       0.06312238 0.07318644 0.16197717 0.04804481
000130 d4 86 61 3e 1b 17 ee 3d 40 0d 79 bd bc b5 29 be
       0.22024089 0.11625501 -0.06080365 -0.16573232
000140 bb b5 11 3d 33 82 07 3e 4e 37 00 3e 06 72 a1 bd
       0.035573702 0.13233261 0.12521097 -0.07883076
000150 83 24 32 3c 38 c4 b0 bd 39 64 6b 3d a3 6a 58 be
       0.010872963 -0.08631176 0.057468627 -0.21134429
000160 ea 71 f3 3d 1c 27 2c 3e 8d ab a1 bd d2 10 ed 3c
       0.11886962 0.16811794 -0.07894049 0.028938685
000170 b6 15 93 bd f0 fb 2c bd 13 68 cb bc 82 56 6b bc
       -0.071818754 -0.042232454 -0.0248299 -0.014363887
000180 f1 2e 4a 3e 90 87 91 3c 23 fb ec 3d d1 29 70 3e
       0.19744469 0.017764837 0.11571338 0.23453452
000190 5d 3b 47 3e f6 9a bb bd 43 6c 27 bd 11 bd 7d 3e
       0.19456239 -0.09160416 -0.04087473 0.24779154
0001a0 91 79 a3 3d 39 82 fd bd 7f 3a 11 bd 1e dd 1a be
       0.07982171 -0.123783536 -0.035456177 -0.15123412
0001b0 bb 67 29 3d 80 f1 b4 3c 71 81 5d be eb 40 07 be
       0.04135869 0.022087812 -0.21631409 -0.13208358
0001c0 24 a0 d3 bd dd 2f 22 3d c5 6c 76 bd 2a 8e be bc
       -0.10333279 0.039596427 -0.060162324 -0.023261148
0001d0 4d c4 51 be b5 c9 cd 3d 72 37 a3 bd fc 0c b6 3c
       -0.20485039 0.10048238 -0.0796956 0.022222988
0001e0 16 27 07 bd ec 94 3f 3e 3f 88 da 3d 00 e8 87 bd
       -0.03299626 0.18709153 0.10670518 -0.06636047
0001f0 71 1a 2d bc 71 86 d1 b9 ed 1d ca bd d1 10 ac 3b
       -0.010565386 -0.00039963753 -0.09868989 0.005251028
000200 9e 09 68 be 52 f3 3f 3e 6d 7f 40 3c 5f bf a5 3d
       -0.22659919 0.18745163 0.011749131 0.08093142
000210 47 70 04 3d f4 9c 56 bd 9c f2 52 bd fd 83 84 3e
       0.03233364 -0.052395776 -0.0515009 0.2588195
000220 f4 4f 4a bd 13 e2 66 3e 37 ca 0f 3d 15 dd bb 3d
       -0.049392655 0.22547178 0.035104956 0.091730274
000230 28 09 c7 bc b0 cb be bd 92 c6 4d 3b fa 40 9b 3d
       -0.024296358 -0.09316194 0.0031398875 0.07580753
000240 6f ce e6 bc b9 42 91 3e e9 79 7e bd 9e 1c d7 3d
       -0.028174607 0.28371218 -0.06212798 0.10503505
000250 b4 0f 1c 3c ff 3c 18 be 88 5b 85 3d 37 25 29 be
       0.009525228 -0.14867018 0.06511599 -0.16518103
000260 3e 7f b9 bc 48 2d 5c bd b2 a3 73 be 32 dd 00 be
       -0.022643682 -0.05375412 -0.23792914 -0.1258438
000270 2b 0f 0d 3d 88 e5 90 3c c9 1f 04 3e 0e 2f 02 3d
       0.034438293 0.017687574 0.1290275 0.031783156
000280 ab 05 a6 3c ae 66 1d 3e e4 b7 eb ba 9d 63 2a bd
       0.020266375 0.153712 -0.0017983881 -0.041598905
000290 d8 78 d5 3b 20 72 4b be 08 35 cb bd 83 d2 ad 3c
       0.00651465 -0.19867754 -0.09922224 0.021218544
0002a0 91 1c 15 3c c8 33 46 3e 7c 9e b8 3d 08 b0 c8 bd
       0.009101049 0.1935569 0.090146035 -0.097992
0002b0 56 22 00 be 58 91 f0 3d 3b cc 86 3e 85 01 cd 3e
       -0.12513098 0.11746472 0.2632769 0.40040222
0002c0 0b 8a 3c 3c 15 e1 9e be 6f da 42 3d f4 d3 16 be
       0.011507521 -0.310311 0.047571596 -0.14729291
0002d0 59 4c d1 3d c8 59 90 bd 51 be 62 3c df 1b cd bd
       0.1021964 -0.070483744 0.01383932 -0.100150816
0002e0 4d 8e e9 3d a6 ce 18 be da 45 c4 3d af 12 19 be
       0.11404095 -0.1492258 0.09583636 -0.14948533
0002f0 97 5d 5a bd 53 a2 35 bd f5 5e 2d 3d 58 09 c8 3d
       -0.05331191 -0.044344258 0.042326886 0.09767407
000300 f1 66 c9 3d ff c4 7e be 81 d2 27 3d b2 fa 4e 3e
       0.09834088 -0.24879836 0.040972237 0.2021282
000310 07 b4 39 3d 52 d2 79 3d 0c 3c 10 3d 6c 8b 8d bd
       0.045337703 0.060991593 0.035213515 -0.06911358
000320 06 22 d8 bd 6b d0 8c 3d 72 b1 53 3e 4e 97 cf bd
       -0.105533645 0.0687569 0.20673159 -0.10136281
000330 45 be 02 3d 8e 76 82 bd 59 42 f4 3d e5 d0 03 be
       0.031919736 -0.06370269 0.11926717 -0.12872656
000340 d1 52 6c be 86 84 9f 3d ae c9 e7 3c 53 ed 38 3e
       -0.23078467 0.07788949 0.02829441 0.18059282
000350 a9 11 48 3d cb 86 6c 3a 73 8e 9d be 3f a6 23 3e
       0.048844967 0.0009022771 -0.30772743 0.15981387
000360 fb ee 90 bd ee 30 f0 bd 77 7c 28 3d 44 1f db bc
       -0.07076832 -0.117280826 0.041134324 -0.026748307
000370 50 8a 38 3e 65 2c 4c 3d 3a 9d 51 3c fb 80 fb bd
       0.18021512 0.049847025 0.012793833 -0.122804604
000380 0c 97 70 bb 2f 02 50 bd 86 64 07 3e 04 e9 5d bd
       -0.0036711125 -0.050783332 0.1322194 -0.0541773
000390 3b e5 06 3e ec b1 33 3e 6b 16 56 be a9 37 32 be
       0.13173382 0.1754834 -0.2090699 -0.17404045
0003a0 46 1d 3a 3e a7 2d c4 be a8 ee fa bc ea 0a 8c 3e
       0.1817523 -0.3831608 -0.030631378 0.27352077
0003b0 78 9e 31 3e 8e 99 8b 3d 6e 72 61 3d 96 b8 85 3c
       0.17345607 0.068163976 0.05504077 0.016323369
0003c0 3e a7 ab 3d ae 37 19 3e d7 b7 c6 bd 2e da 92 3d
       0.08381508 0.14962646 -0.097030334 0.07170521
0003d0 c4 81 86 be c2 4e 26 be 6d d8 89 be 7e 44 3e 3b
       -0.26270878 -0.16240981 -0.26922932 0.0029032524
0003e0 d3 e6 4c bc 59 24 3c 3d 81 dd e0 bd d4 9c 41 3c
       -0.012506205 0.0459331 -0.109797485 0.011817176
0003f0 a5 55 a2 3d 30 f0 1f 3d 19 ad cd 3c b1 2f 3f bd
       0.07926492 0.03904742 0.025106953 -0.04667634

bias f4 [150]
000000 3f b1 c6 bd 89 0d d5 3c 8a e1 5b bc 81 21 55 be
       -0.09701776 0.02600743 -0.013420472 -0.20813562
000010 60 d1 85 3d 67 f2 93 3c 75 86 2b 3e ba d9 af bd
       0.06534076 0.018059922 0.1675051 -0.0858645
000020 06 6d da 3d 5e 1c ad bd 4f eb e9 bb 31 25 e1 bd
       0.10665326 -0.08452676 -0.0071386467 -0.10993422
000030 31 7d b3 3d a1 6c 00 3d 61 d8 41 3d d4 03 9b bd
       0.08764113 0.031353597 0.047325496 -0.075690895
000040 6f 7d 5a bb 06 30 0c 3d 6e 8f 9c bd 0f ea 2f 3e
       -0.0033338924 0.034225486 -0.076445445 0.1717913
000050 8d 53 ce bd c6 61 3f 3e 01 23 15 3c a7 86 9a 3c
       -0.1007453 0.18689641 0.009102584 0.018863035
000060 56 d3 f5 3b 25 9f ce bb e5 7d 2a bd 10 22 e6 3c
       0.007502 -0.0063055926 -0.04162397 0.028092414
000070 22 2c d7 3c 6d b7 84 3d a1 ad 60 3c 7e ea 4e 3e
       0.026266161 0.06480298 0.013713271 0.20206639
000080 6d 83 72 3e 77 92 e0 3d 6c 34 2a be a0 53 a6 bd
       0.23682947 0.10965436 -0.1662156 -0.08121419
000090 5d 7d c2 3d c1 53 46 3d a4 b8 80 3c 89 5f f5 bc
       0.094965674 0.048419718 0.015713044 -0.029952781
0000a0 ed 4d 97 bb 3b 11 78 3d 95 1a 99 bd 73 aa 70 bd
       -0.004617444 0.060563307 -0.07475773 -0.058756303
0000b0 73 f9 0e 3e 43 7e 2f bc 3e a4 3a 3b af 7b 1f 3e
       0.13962345 -0.0107112555 0.0028479244 0.15574525
0000c0 cd f0 1d 3d 73 af fa 3d 76 1c bb 3d ce ca 04 bd
       0.038559724 0.122404955 0.09136288 -0.032419972
0000d0 f4 0b 4a bd 82 12 37 3d 26 9f 0c 3a 00 2c 84 3d
       -0.049327806 0.044695385 0.0005364291 0.06453705
0000e0 cc 22 86 bd bc 11 35 bc 70 59 af 3d a7 5c 37 3e
       -0.06549606 -0.0110515915 0.08561981 0.17906438
0000f0 22 e1 38 be 14 db ab bb 8e c8 5a 3d 84 54 ac bc
       -0.18054631 -0.005244622 0.05341392 -0.021036394
000100 21 a3 97 3d 65 56 e5 3c c1 86 bc bc d9 77 db 3d
       0.07404161 0.027995298 -0.023013474 0.107162185
000110 2c 56 14 bd b2 24 b1 3d c8 e6 01 be fa 0a 09 3d
       -0.036214992 0.08649577 -0.12685692 0.033457734
000120 7e 2f ea bd b4 2e 80 3d 0c 35 a6 3d 2a 4e 20 3c
       -0.1143484 0.06258908 0.08115587 0.009784261
000130 ec 1e 62 bd 31 30 60 3d d7 b9 c9 3d ae 44 c9 3c
       -0.05520527 0.05473346 0.09849899 0.024568882
000140 87 ef 48 bd 75 1a b3 3c 9b 1f 8f 3d 17 fe 87 bd
       -0.049056556 0.021863202 0.0698845 -0.06640261
000150 19 56 61 3d 85 02 3e be e2 58 a6 bd 04 47 b7 3d
       0.05501375 -0.18555649 -0.08122422 0.08949092
000160 44 d8 3a be 6a e8 13 be e6 10 2b bd 8a 91 75 3d
       -0.18246561 -0.14444128 -0.041764162 0.05995325
000170 a9 b4 93 3d 9f 31 82 3d c6 5b 9a 3b cf 17 fc bc
       0.072121926 0.06357121 0.0047106473 -0.030773072
000180 55 49 87 bd 5f dc ff 3d 15 3e e5 3c 18 94 ad 3d
       -0.06605784 0.12493204 0.027983705 0.08475512
000190 b3 71 7f be 9e b4 4a 3e 3b 53 68 be 69 26 8e be
       -0.24945717 0.19795462 -0.22688 -0.2776368
0001a0 03 ca c8 bd e7 ec 6d bd 4e 92 09 3d d5 c1 c5 bc
       -0.09804156 -0.058087256 0.033586793 -0.024140278
0001b0 10 42 f8 3d dc 06 7a bc c1 16 08 be 31 7f 01 bc
       0.121219754 -0.015260424 -0.1328993 -0.00790386
0001c0 93 03 a6 3c cc 87 a5 3b b8 29 54 be af 03 43 3d
       0.020265376 0.0050515886 -0.2071904 0.047610935
0001d0 b7 0f 04 be 1f 18 05 bb 17 0f 60 bc 72 25 73 bd
       -0.1289662 -0.0020308567 -0.013675473 -0.059361883
0001e0 ac 38 96 be 63 2b cb 3c 5a cc 1a 3c 59 05 07 3d
       -0.29340112 0.024800962 0.009448135 0.032964084
0001f0 3b af dc bc 99 34 9e 3c 43 31 1d 3e 2a f9 bb bd
       -0.026939025 0.01931219 0.15350823 -0.09178384
000200 80 bd 94 3d a3 23 5a bd 6d ea 25 bc 42 77 d5 3c
       0.07262707 -0.053256642 -0.010126692 0.026057843
000210 a3 89 e5 3d e8 c0 ab 3d 5a 12 5a bc f5 ef 07 3e
       0.11207893 0.08386403 -0.013310039 0.1327513
000220 c7 15 90 3c 42 f8 0d 39 bb 9e 1b 3d b1 fa d8 3d
       0.01758851 0.00013539291 0.037993174 0.105946906
000230 76 2f 62 bd 81 3c 45 3d f5 16 9a 3d b9 07 c2 bd
       -0.055221044 0.048153404 0.0752391 -0.09474129
000240 0e 8c fa bb 46 c5 0e be d9 ef 19 3e 35 e9 0f 3d
       -0.0076460904 -0.13942441 0.15032901 0.035134513
000250 a9 20 1c 3d fd dd f5 3c
       0.038117085 0.030013079

weight f4 [150, 18]
000000 96 90 1a 3e 20 46 f8 3d 1e 4d 34 be 7c 1e 02 be
       0.15094218 0.1212275 -0.17607543 -0.12706941
000010 5d 64 6e bd 0c 3d 69 3d ef 89 5e bc e8 86 f1 3d
       -0.058201183 0.056942984 -0.013582691 0.117933095
000020 b6 03 7f 3d f2 e1 67 3d 97 8d ec 3c 59 ad 31 3d
       0.0622594 0.056611963 0.028876109 0.043378208
000030 1d f4 08 3d ce 39 5f 3d d3 6e 74 3e 02 bb fe bd
       0.03343593 0.054498486 0.23870401 -0.12438013
000040 fd 56 eb 3d 0f 57 ad be 23 39 71 3d 64 e4 48 bd
       0.11491201 -0.33855483 0.05889238 -0.049045935
000050 9c 26 f3 bc 9e 5e c3 3c d7 30 81 3c 70 60 2e be
       -0.029681496 0.023848828 0.015770359 -0.17028975
000060 f2 92 eb bb 90 0e a8 bd 49 62 85 bd 95 bd d7 3b
       -0.007189148 -0.082059026 -0.06512887 0.0065838792
000070 e1 34 d2 bd 69 8f 9f 3c bd e1 cd bc cf 11 b0 bd
       -0.10263992 0.019477563 -0.025132054 -0.08597147
000080 0d f5 bd bc 3f 87 3a 3e d7 51 21 3d 43 42 1b 3e
       -0.023188138 0.18215655 0.03938469 0.15161996
000090 1b 36 d8 3d 8c a4 c2 bd 83 9c bf bd 5f e5 94 3c
       0.10557195 -0.09504041 -0.09356024 0.018175779
0000a0 a0 e8 58 bc aa 4a 8c bd 05 55 26 3e 3b c8 16 3e
       -0.013239056 -0.068501785 0.1624337 0.1472482
0000b0 e0 81 8c 3e cf 6b 77 3e 1a f8 84 bd 5f da 2b be
       0.27442837 0.2416222 -0.06492634 -0.1678252
0000c0 86 62 f5 3d 9b c7 26 bd 61 7d bf 3d 5c 29 18 3e
       0.119816825 -0.040717702 0.09350086 0.14859527
0000d0 a8 3e d7 3c 78 55 c1 bd 6d dd c2 3c 12 33 21 be
       0.026274994 -0.0944013 0.023787225 -0.15742138
0000e0 a8 51 31 bd a4 1b 21 3d be 83 28 3e 1b d5 08 be
       -0.043290764 0.039333 0.16456506 -0.13362543
0000f0 5e 86 d8 3d b4 ab c5 bd 94 7a d6 bc 89 59 ac bd
       0.105725035 -0.096518904 -0.026181497 -0.08415515
000100 df 63 60 bd 02 7f cf bd 94 62 27 be 53 a8 06 3d
       -0.054782744 -0.10131647 -0.16346198 0.03287537
000110 02 3d e6 bd a2 99 4a 3e 70 65 a1 be 27 c8 a8 3e
       -0.11242105 0.19785169 -0.31522703 0.32965204
000120 71 c5 90 bd 43 8a 75 3d 81 c6 a1 bd 9b c7 28 3e
       -0.07068909 0.05994631 -0.0789919 0.16482393
000130 ca 22 11 be 92 ed 1c bd a4 01 37 bd 4f dc 41 be
       -0.14173427 -0.038312502 -0.0446793 -0.18931697
000140 62 60 ae 3d e8 83 a4 3d 69 b6 2f ba 5d c2 6a bd
       0.08514477 0.080329716 -0.00067029014 -0.057314266
000150 39 a1 aa bd ed 0a 52 bd 83 01 8f be dc 9c 0f be
       -0.08331532 -0.05127995 -0.2793084 -0.14024681
000160 92 ac 0a be e4 93 ad bd 53 37 50 3d b2 70 0a be
       -0.13542393 -0.084754735 0.05083401 -0.13519552
000170 bc 89 31 be e5 fc b3 bc bf 32 54 bd 54 db 0f be
       -0.17337698 -0.021971175 -0.051806208 -0.14048511
000180 cb 8b 89 3c f6 6c 6d be 8b a3 fe 3d e7 c3 6d 3a
       0.016790291 -0.23186097 0.12433537 0.0009070024
000190 4f 73 f1 3d 9b 0f cf 3d b0 98 4d 3e 55 54 97 3e
       0.117895715 0.101103984 0.20077777 0.29556528
0001a0 5f fe 9b 3d 5f fa 47 be e7 11 f9 3d ef ff 55 be
       0.07616877 -0.19529103 0.12161618 -0.20898412
0001b0 bb 46 3b 3d 93 06 de 3c e1 e7 a3 3e a1 03 34 ba
       0.04572175 0.027102744 0.32012847 -0.0006866996
0001c0 48 b6 be 3d 9e b2 d5 3d 37 d0 a5 3d 1f b3 85 bd
       0.09312111 0.10434459 0.080963545 -0.06528305
0001d0 3a 04 19 3e ba 6d d2 3d e3 da 88 3d 6f 0d fe bd
       0.14943019 0.10274835 0.06682374 -0.12404906
0001e0 b7 80 2f be 83 ef 7a bd 10 c3 b1 3d d3 13 8a bd
       -0.17138945 -0.061263572 0.08679783 -0.067420624
0001f0 00 be 53 3d 20 d7 27 be 4c ab eb bb f7 de c4 3d
       0.05169487 -0.16390657 -0.007192051 0.0961284
000200 39 16 81 3c 15 fb 8c 3d 5b af 5d bd 6b 05 35 3c
       0.015757667 0.068838276 -0.05412231 0.011048655
000210 4f 42 15 be 77 d9 07 3e b4 c6 03 3e da cb e4 3c
       -0.14576076 0.1326655 0.12868768 0.027929235
000220 94 25 93 bb 58 48 2f 3e 3b 6b 85 3d 10 8a 89 3d
       -0.0044905636 0.1711744 0.06514593 0.067157865
000230 a8 5e d1 3d 8a 60 1f bd 92 bb e8 3d dc 36 3c be
       0.10223132 -0.038910426 0.11363901 -0.18380302
000240 e5 d7 10 bd 61 2c 57 bd 1f f6 69 bd b2 ec e2 3c
       -0.035362143 -0.052532557 -0.057119485 0.027700756
000250 42 36 0a bc 37 b0 25 3d e7 6b f0 bd b4 8e d8 bd
       -0.008435788 0.040451255 -0.11739331 -0.105740935
000260 96 3e 06 be 5d 17 5d bd 53 1c 34 3d c9 c3 2e be
       -0.13109812 -0.05397736 0.043972325 -0.17066874
000270 5f 92 1b bc c2 cf 49 3d 3e b5 4f bd e8 9c 06 be
       -0.009495347 0.0492704 -0.050709955 -0.13145792
000280 43 a7 92 3d d0 ed f3 3b 14 d1 a1 3e 24 73 53 bd
       0.07160809 0.007444121 0.31604826 -0.05162348
000290 0f 7b ce 3b dc fe ea bd f4 d1 c4 bb aa e3 58 bb
       0.006301291 -0.11474392 -0.0060064737 -0.0033094683
0002a0 79 7b c2 3c 90 db a7 3d 21 36 ab 3d ae 1c ac bc
       0.023740517 0.08196175 0.08359934 -0.02100977
0002b0 d1 59 91 3d 7b c5 50 3e 4e 64 c7 3d fd 6e 63 3d
       0.07097209 0.20387833 0.097359285 0.05552577
0002c0 a8 81 23 3e ca c2 9d 3c e4 e3 14 be 81 c3 0a 3d
       0.15967429 0.019257922 -0.14540058 0.033877853
0002d0 40 7a 14 3e 7a ce 69 3c f3 02 8e be 55 98 1e 3e
       0.1449976 0.014270419 -0.27736625 0.15487798
0002e0 98 16 06 be 9f d0 2e 3c 74 36 99 bb 67 20 d8 3d
       -0.13094556 0.010669856 -0.004675681 0.10553055
0002f0 e8 c9 a7 bc 90 fe d1 3d f3 37 e1 bd 97 b1 9e be
       -0.020482019 0.10253632 -0.109969996 -0.30994865
000300 43 64 0a 3e 95 69 91 3d cf e9 09 3e 27 fd 0a be
       0.1351481 0.07100216 0.13468097 -0.13573132
000310 7d 77 b7 bb 16 52 1b be bb 45 41 3e 45 6e 56 bd
       -0.005598961 -0.15168032 0.18874256 -0.052351255
000320 8e 7a 3b be 54 eb 88 3d b3 0d 24 be e8 0c ef 3d
       -0.1830847 0.0668551 -0.16020851 0.116723835
000330 11 26 cc bd dc d2 47 be a7 d9 f7 bd 00 b3 4f 3d
       -0.09968198 -0.1951403 -0.12102061 0.050707817
000340 7a 0e cf 3d 79 f9 08 bd 89 bd 1a 3e 69 8c 9f bd
       0.10110183 -0.03344104 0.15111364 -0.07790453
000350 1e 75 6f bd 1c b8 2f be f3 14 2e 3d ed 12 e7 bd
       -0.0584613 -0.17160076 0.042500447 -0.11282907
000360 62 28 6e 3d 81 0e dc bd 74 b7 6f bd c9 1a 96 bd
       0.05814398 -0.10744954 -0.058524564 -0.073293276
000370 1c 1c f3 3a d8 cc cd 3c 33 2b 5e bd 00 41 02 bd
       0.0018547806 0.025122091 -0.054240417 -0.03180027
000380 0e 98 c2 bd e0 ac 21 bd a6 97 7d 3d 7b e7 cc bd
       -0.095016584 -0.039471507 0.0619122 -0.10005089
000390 d9 0f 01 bd 69 5f bd bd 79 39 5a be 43 dc 6e bc
       -0.031509254 -0.09246714 -0.21310987 -0.014578882
0003a0 f5 f5 39 3e 8c 4d 94 be f6 91 87 be 7f 25 9f 3e
       0.18160231 -0.28965414 -0.26478547 0.31083295
0003b0 e1 ec 38 3e 18 98 32 3e cb cf 0f be 72 bc fc bd
       0.18059112 0.17440832 -0.1404411 -0.123406306
0003c0 96 e7 59 3c 70 32 a8 3d da d1 02 3c 62 c4 81 bd
       0.013299843 0.08212745 0.007984603 -0.06336285
0003d0 0d 63 fb bc c6 4b 04 3d 61 a6 89 bd 6e 08 ff 3d
       -0.03068688 0.032298826 -0.067211874 0.1245278
0003e0 2a c3 70 3c 77 26 4c bd c3 80 38 3d c3 2f f4 bd
       0.014694968 -0.04984137 0.04504467 -0.11923172
0003f0 89 10 cb 3d 8a 11 81 3d bd e3 0b 3e 9e 0a ef 3d
       0.09915263 0.063021734 0.13661094 0.11671947

bias f4 [150]
000000 d2 92 ca 3e f7 4b 8b 3d 89 38 2b 3d f4 95 4e 3e
       0.3956514 0.068015985 0.041801963 0.2017439
000010 f8 e3 a1 bc 3c 22 4b 3e 2f 83 03 3c d2 5d 6e 3d
       -0.019762024 0.19837278 0.008026882 0.058194943
000020 9c 51 75 bd 14 57 81 3e 6e c4 97 3e ad a8 cb bd
       -0.059892282 0.25261748 0.2964205 -0.09944282
000030 d7 6d 1b 3e c3 2d 6a 3e f3 2d 60 3c 11 fd f0 3c
       0.1517862 0.22869019 0.01368283 0.029417546
000040 0a 04 8b 3d d7 92 a0 be 91 ce ad 3e 0c c5 91 3e
       0.0678788 -0.3136203 0.3394666 0.28470647
000050 f2 de 4b 3d 04 6b 1c 3d 15 48 89 bc 7b fa 26 be
       0.049773164 0.038187996 -0.016758004 -0.16306488
000060 34 dc 83 3e 9d e6 75 3d 25 95 43 be 2b 86 1e 3e
       0.2575394 0.060034383 -0.19099863 0.15480869
000070 aa 31 62 bc 99 62 80 be 3d e4 15 3d 20 20 73 bd
       -0.013805786 -0.25075224 0.036594618 -0.05935681
000080 e7 83 e0 bd 43 5d f9 bd 0d 9f cb 3c 37 c0 3d be
       -0.109626584 -0.121759914 0.024856115 -0.18530355
000090 12 8d 26 3d e1 be ea bd cb b1 36 be 70 e8 0b 3e
       0.04066188 -0.114621885 -0.1784126 0.13662887
0000a0 35 00 46 3e bc 8b 8c 3c df f6 49 bd b8 52 6f 3e
       0.19336016 0.017156474 -0.0493077 0.23371398
0000b0 ad 3e 73 be 91 5f 50 3e 20 b1 66 3e a8 2a 24 3f
       -0.23754378 0.20348956 0.22528505 0.6412759
0000c0 d7 f9 5c 3d 28 46 bd bd c2 a5 e8 3e 5d 1a 80 3e
       0.053949203 -0.09241897 0.45438963 0.25020114
0000d0 bf eb 56 be d8 ea a2 3e 74 10 41 3e d6 a0 54 be
       -0.20988367 0.31819797 0.18853933 -0.20764479
0000e0 98 09 3a be 51 ea 7d 3e c1 32 fb bc 41 d4 41 3d
       -0.18167722 0.24796416 -0.03066385 0.04732156
0000f0 13 4d 7d 3d 07 d2 d5 be d3 58 0c be 7a 0d b6 3b
       0.06184108 -0.417618 -0.13705759 0.0055558058
000100 96 a9 46 3d 90 76 f6 bc 40 8c 9c bd 67 46 87 bd
       0.048501574 -0.030085832 -0.07643938 -0.06605225
000110 7f 72 94 be 33 97 5a 3d a9 79 8b 3d 81 b7 50 bb
       -0.28993604 0.05336685 0.06810314 -0.0031847658
000120 9e 3c 0b be 6b f1 31 3e f8 58 cd 3d 69 c8 04 3e
       -0.13597342 0.1737725 0.10026735 0.12967075
000130 9a df 20 3e 1d d9 1e 3d 56 3f 42 bd 39 6b 0d 3c
       0.15710297 0.038781274 -0.047423683 0.008631521
000140 46 fa bd be 41 29 4d 3d b9 69 c1 3d 5b 34 d2 3d
       -0.37105006 0.05008817 0.09443993 0.10263892
000150 2f 95 dd 3d 0c b8 67 3e 39 ec 7c bd 5e bc 93 bd
       0.1081947 0.22628802 -0.061748717 -0.072136626
000160 07 75 e8 bc a3 93 87 3c bd 7c c7 be 12 8a a2 be
       -0.028376115 0.01654989 -0.38962355 -0.31745964
000170 2d 43 86 bd dc b2 a5 be 6c 24 9a 3e 8d 3b 73 3e
       -0.065557815 -0.3236302 0.30105913 0.23753186
000180 fe eb 85 3d bb e1 ce 3e 68 69 65 3e db b5 7d 3d
       0.065391526 0.40406594 0.2240349 0.06194101
000190 be e4 26 bc 9e dc c2 be 4c 9a e7 bd b4 e3 1a be
       -0.010186372 -0.38058943 -0.11308727 -0.15125924
0001a0 21 99 75 be ff dc 24 bd b8 7a d7 be 0d a8 97 be
       -0.23984195 -0.04024982 -0.42085814 -0.296204
0001b0 e0 16 dc 3e 4d 7c 72 3d 50 40 e3 3d 28 f6 23 bd
       0.42986202 0.059200574 0.11096251 -0.040029675
0001c0 3c 22 fc bd bd 57 c6 bd 9a d6 1f 3e 1a 76 a6 bb
       -0.12311217 -0.096847035 0.15609208 -0.005079997
0001d0 9e 50 1d bd 4d 21 de bc b0 55 91 bd 36 a6 0c be
       -0.03840696 -0.027115488 -0.07096422 -0.1373528
0001e0 33 aa 6d be 58 e3 ea 3d 9d 14 86 be 73 89 50 3e
       -0.23209457 0.11469144 -0.26187602 0.20364933
0001f0 f8 c3 74 3d c6 06 89 bc 07 55 2a 3d 8f a8 93 3e
       0.059757203 -0.016726863 0.041584995 0.28839538
000200 81 b5 78 be 7c b9 7b bd a5 1d c9 bc e5 f2 e1 3c
       -0.24287988 -0.06145619 -0.024550268 0.027581641
000210 a9 4c dc 3d 0c f4 a2 be 4c 2f f5 3e 68 1a d6 bd
       0.10756809 -0.31826818 0.47887647 -0.10454255
000220 e1 e0 e3 bc 1f 1b ae be f4 09 d3 3e 3d ee 4f 3e
       -0.027817192 -0.34005067 0.4121853 0.20305724
000230 9c 19 a4 be d6 b3 0b 3c d6 77 7a 3d 75 3a e3 3d
       -0.32050788 0.008526763 0.06114944 0.11095134
000240 eb 75 0b 3d 93 5e 7e 3d 92 73 91 be bc a5 08 bd
       0.034048002 0.06210191 -0.28408486 -0.03336118
000250 2c f5 e3 3d 16 94 2a 3e
       0.11130747 0.16658053

weight f4 [150, 150]
000000 7f 5e d7 3d fa 0c 93 bd 63 b2 f9 3d 61 0c a7 bd
       0.105160706 -0.071802095 0.12192228 -0.08156658
000010 57 7a 13 3c d4 61 0b bc ce e2 bc 3a 13 24 11 bc
       0.009001336 -0.008507211 0.0014410855 -0.008858698
000020 62 d6 c2 3d 40 62 00 3e 01 33 ea 3d ac fe 25 3e
       0.095135465 0.1253748 0.114355095 0.16210431
000030 75 22 f1 3d 5e 65 e7 3d 71 89 39 3e e2 45 61 3e
       0.1177415 0.11298631 0.18118836 0.21999314
000040 89 19 81 be 3c 0b 17 3e 18 c9 36 3b 21 c3 53 3e
       -0.25214794 0.1475038 0.0027890857 0.20679905
000050 a9 e7 04 3e 85 9e 74 bd 3c 41 2b be 07 d4 2d 3d
       0.12978996 -0.05972149 -0.16724104 0.042438533
000060 5b 7a 67 bd 53 cb 23 bd 4b b1 a6 3d da 8d a9 bd
       -0.05651317 -0.039988827 0.08139285 -0.08279009
000070 83 d5 65 3d 53 28 22 3d 24 a7 82 3d d0 61 5c bd
       0.056111824 0.039589237 0.06379536 -0.05380422
000080 fe 81 29 3d be 80 82 3d 22 b7 6e 3d c8 e7 9f 3c
       0.041383736 0.06372212 0.058280118 0.019519702
000090 90 88 18 be 8d 59 5e 3d 9a d4 1d bd af bf 26 bc
       -0.14895844 0.05428462 -0.03853283 -0.010177537
0000a0 0e bd 25 be e2 6f 28 bd 5d 13 d0 3d a6 ac fd 3c
       -0.161854 -0.041122325 0.10159943 0.030966114
0000b0 89 83 26 3e 7f 92 d5 3d 08 59 9b bd 66 5e 68 be
       0.16261114 0.104283325 -0.07585341 -0.2269226
0000c0 ca 43 c3 3b 45 7b 14 3e 78 ea 30 be 15 b1 11 3d
       0.005959009 0.14500149 -0.17276943 0.03556927
0000d0 a6 6e 93 3d 67 32 9a bd ad 45 57 3b 55 c3 2f bd
       0.07198839 -0.07529145 0.0032847926 -0.042910893
0000e0 88 9d db bd 70 fb ad 3c b8 97 d5 3d a1 68 93 be
       -0.10723406 0.021238059 0.10429329 -0.28790763
0000f0 66 41 71 3d 71 7c 8a bd e2 59 28 3e fb 9d ad bd
       0.05890026 -0.067620166 0.16440538 -0.08477398
000100 1b 39 0f 3d 41 0f 0c 3e ee e7 2b 3e d8 6c 42 3d
       0.03496657 0.13677694 0.16787693 0.047467083
000110 37 81 0f 3b d6 71 1c be db ab 63 bd 1c 86 0d 3d
       0.0021897086 -0.152778 -0.055583816 0.034551725
000120 23 71 58 3d 49 16 71 3b 09 6b 08 be 5a f0 89 3d
       0.05284227 0.0036786965 -0.1332208 0.067352965
000130 1f bc 1b bc b8 2b ca bd 69 53 c9 3c 0a f0 e6 3d
       -0.009505301 -0.0987162 0.024575906 0.112762526
000140 e7 fe bf bd 93 c5 90 bb ec 14 90 3b ab ce 74 3d
       -0.09374791 -0.004418084 0.0043970253 0.059767406
000150 27 0f ce 3c 3b 7d 72 3d 8a 12 da 3d 54 e1 b4 3c
       0.02515371 0.05920146 0.10648067 0.022080101
000160 44 ed 1a be 46 41 14 3d 89 47 80 bd 33 13 3f 3d
       -0.15129572 0.036195062 -0.06263644 0.04664917
000170 80 ba 4d 3e 2f 03 6f bc ab e9 fa 3c 41 21 bf bd
       0.20090675 -0.014588161 0.030629 -0.093325146
000180 84 1a 5e be e8 27 1a 3e 34 94 8f bd 4f aa 46 3c
       -0.21689802 0.15054286 -0.070106894 0.012125566
000190 f5 06 91 bb 48 86 e7 3d b6 a6 19 bd de cf 2c be
       -0.004425878 0.11304909 -0.037512504 -0.1687617
0001a0 4d 88 a3 3d 1f 4c 95 3d e5 4d a0 3d ed 39 76 3d
       0.07984982 0.072899096 0.07827357 0.060113836
0001b0 70 9a 12 3e 50 a1 4e be 44 70 ae 3c 7e 03 bb bd
       0.14316726 -0.20178723 0.021293767 -0.091315255
0001c0 dc 73 a1 be ff 8e fa 3d e6 75 1d be a1 bf 9c bd
       -0.31533706 0.122343056 -0.15377006 -0.07653738
0001d0 c6 f7 13 3e a3 01 04 be ed 7e 10 be 93 bb a5 3d
       0.14449987 -0.1289125 -0.14110918 0.080924176
0001e0 1b 3b 28 bc a0 d8 03 3e 92 fe 3d be bd b3 e2 bd
       -0.010267998 0.12875605 -0.18554142 -0.110694386
0001f0 66 f4 c3 3d dc 9b 48 bd 1b 9e f9 3b f9 55 ea ba
       0.095681 -0.048976764 0.0076177246 -0.0017878405
000200 b8 e9 05 be 03 2d 7d bd 4b 0a 97 bd cf 96 55 be
       -0.13077438 -0.061810505 -0.0737501 -0.2085831
000210 83 0c 4c 3e dd 03 2d be db cf c6 3d 46 02 18 be
       0.19926648 -0.16896005 0.09707614 -0.14844617
000220 63 57 15 3e 24 fa 94 3e a6 0f 05 3e 4b c6 04 3e
       0.14584117 0.29097092 0.1299425 0.12966268
000230 d8 3b 77 be 9e 96 db 3d 03 24 3d be 75 46 24 bc
       -0.24143922 0.10722087 -0.18470769 -0.010026564
000240 e7 e7 5e bc 34 2a 11 bd a1 81 4e 3d 7e f6 50 be
       -0.0136050945 -0.03544064 0.050416593 -0.2040653
000250 2a 54 d7 bd 3c 09 c9 bd 80 31 f2 bc 98 12 f4 3d
       -0.105141 -0.098162144 -0.029564619 0.11917609
000260 74 cf 07 3e 47 9c 57 be 9f be 04 3e bb 76 3c 3e
       0.13262731 -0.21055709 0.12963341 0.18404667
000270 d5 2a 78 3e 80 33 ec 3d 21 49 a3 be f7 d9 ef bd
       0.24235089 0.1153326 -0.3189173 -0.11711495
000280 f9 ac 3b be be c2 90 3e 80 4b 11 3e dd 50 39 bd
       -0.18327703 0.28273576 0.14188957 -0.045243133
000290 0f dd 26 be 64 f7 f5 3c 80 70 1b 3e 05 f3 62 bd
       -0.16295265 0.030025192 0.15179634 -0.055407543
0002a0 1f 88 a5 3e e1 00 d3 bd 62 e1 78 3c 76 76 bd 3d
       0.32330415 -0.10302902 0.015190454 0.0925111
0002b0 95 1e 43 bc 22 78 fa bc c2 e3 53 3d 54 5a df bd
       -0.011909147 -0.030574862 0.05173088 -0.109059006
0002c0 0b c8 f8 ba f9 be f9 39 48 b3 bf 3d 31 76 09 bd
       -0.0018980516 0.00047635267 0.09360367 -0.03355998
0002d0 bb 47 7d 3d fb 50 a6 bb cf 6b a0 3c c9 e9 a5 3d
       0.061835986 -0.0050755716 0.019582657 0.081012316
0002e0 a7 e4 fc 3d ad 81 29 3e 21 a9 c7 bd c4 2a b0 bd
       0.123482995 0.16553374 -0.09749056 -0.08601907
0002f0 b3 1d 18 bd 81 4c 82 3c 25 02 53 be 89 65 c5 3c
       -0.0371377 0.01590562 -0.20606287 0.024096267
000300 8e 54 6b 3c 79 02 30 3e 24 0f 3c bd 5e 0c 91 3d
       0.014363421 0.17188443 -0.045912877 0.07082437
000310 0a ce f7 bc ec 14 78 bd a1 45 08 be cf 7e 9d be
       -0.030249614 -0.060566828 -0.13307811 -0.3076081
000320 be 75 04 3e 4e 75 b1 3d eb fb 00 bd 67 3a 51 be
       0.1293554 0.08664952 -0.031490248 -0.20432435
000330 fc f9 ee 3c a6 ac 54 3e ff a4 03 3d 55 80 11 be
       0.029171936 0.20768985 0.032139774 -0.14209111
000340 57 58 34 be 53 21 9a ba 9b 4c ea 3d 90 c1 8c 3e
       -0.17611824 -0.0011759199 0.114403926 0.27491426
000350 55 4d a2 3d ff 35 43 3e b6 4b dd bc 8e f0 67 bd
       0.07924906 0.19063567 -0.02701364 -0.056625895
000360 89 64 c1 3d 1c e2 10 3d 73 10 3d bd 53 32 06 be
       0.09443004 0.035371885 -0.046158265 -0.13105135
000370 ab df 45 bd f3 39 56 3d 2b db 16 3e 77 be 9e bc
       -0.04830901 0.05230136 0.14732043 -0.01937793
000380 d8 9b 04 be 42 32 94 bc fd 31 9e bd 90 35 2d 3e
       -0.12950075 -0.018090371 -0.07724378 0.16914964
000390 72 60 7c bd 19 92 0b 3e b1 4e 1c 3e 0e 65 38 bd
       -0.061615415 0.1362995 0.15264393 -0.04501825
0003a0 13 93 8b 38 6e 8a 8a 3d 63 cc 0f bc c4 71 a0 3d
       6.655431e-05 0.067646846 -0.008776757 0.07834199
0003b0 4d 31 51 bd b5 35 8a bb 01 2d 9c bd 11 d4 30 3c
       -0.051072408 -0.004217828 -0.07625771 0.010792748
0003c0 b6 2b 0a 3e 31 ac 7b bd ad 52 f4 3c e1 55 28 3e
       0.13493237 -0.06144351 0.02982458 0.1643901
0003d0 0a d2 91 3d 3d bf cf 3d 6a 5d 99 3d eb 45 b9 3d
       0.0712014 0.10143898 0.074885204 0.09046539
0003e0 d6 f6 1d 3e 99 9f 5a 3d ae d5 78 3d dd 14 33 bd
       0.15426192 0.05337486 0.060750656 -0.04372107
0003f0 ac 18 4a bd f7 c0 40 be 64 57 2c 3e 86 fe 1e be
       -0.049339935 -0.1882361 0.16830212 -0.1552678

bias f4 [150]
000000 0c 98 70 bd bc b4 0f 3d 48 d5 3f 3d de e3 b1 bd
       -0.058738753 0.03508447 0.04683426 -0.0868604
000010 01 c0 40 3e 21 d3 7a 3d 63 61 64 bd 3c 52 a8 bd
       0.18823244 0.061236504 -0.055756938 -0.0821881
000020 a4 2d ac 3d 21 38 da 3d e8 0d f5 bd 2b e0 82 bd
       0.08407143 0.10655237 -0.11965543 -0.06390413
000030 d0 4b 08 be ac ed 30 bd 79 7f e6 bc e2 8b 80 3d
       -0.1331017 -0.04319541 -0.028136956 0.062766805
000040 ce 4b be bd 2c 38 44 bd ea 07 5f 3e f9 13 dc 3b
       -0.09291802 -0.047905132 0.21780363 0.006716248
000050 f1 7d 32 bd 55 57 22 bd a4 d2 89 bc b7 44 60 3d
       -0.04357714 -0.039634068 -0.016824074 0.05475303
000060 b4 74 bd bd eb 9b d4 bd da 2f a3 3d 53 a9 34 bd
       -0.09250775 -0.103813015 0.07968111 -0.044106793
000070 86 8c 44 bd fd 5f 21 bd 7b 22 39 bd 8d 50 62 3d
       -0.047985576 -0.039398182 -0.0451989 0.0552526
000080 e5 d3 9b bd a7 cd 11 3d eb 72 88 3d 57 4d 37 be
       -0.07608775 0.035596516 0.06662544 -0.17900597
000090 72 33 04 be c5 e2 92 bd 03 34 67 3d 38 c1 7c bd
       -0.1291025 -0.07172159 0.056446087 -0.061707705
0000a0 9d 8a b6 bd 82 01 86 3d 16 67 85 bd 6a 53 4f bd
       -0.08913157 0.06543256 -0.06513803 -0.05061666
0000b0 ef 5e 82 bd c1 a8 41 3e 88 06 e7 3c 62 a1 17 3d
       -0.063657634 0.18912031 0.028201357 0.03701914
0000c0 d0 33 e0 bc 1a 57 0f bd 58 59 da 3d 80 06 dc bc
       -0.027368456 -0.034995176 0.10661572 -0.026858568
0000d0 e6 b5 e6 bd 38 dd 1e 3d 96 3b 7b 3c c8 5a a3 bd
       -0.11265163 0.03878519 0.015334031 -0.079762995
0000e0 6d 8a 9b 3d 02 80 73 bd c6 6b e1 bc 27 a2 9d 3d
       0.07594762 -0.05944825 -0.02751721 0.07696944
0000f0 61 38 96 bc 66 dd 99 3d 6c dc 9d bd f3 b1 65 bd
       -0.01833743 0.075129315 -0.07708058 -0.05607791
000100 97 aa 56 be b6 73 99 3d 47 29 24 3b bb e5 43 be
       -0.20963512 0.07492773 0.0025049017 -0.19130604
000110 8e f1 8d bd 44 1f 82 3d af df be bd 7d 61 96 3e
       -0.069308385 0.0635362 -0.09320008 0.29371253
000120 06 5f 5e 3e 0a f9 48 bd a5 ca a5 bd a3 4e b6 3d
       0.21715936 -0.049065627 -0.08095292 0.089017175
000130 03 92 5a bd eb 57 4a 3e 41 92 45 3d a1 22 b6 3c
       -0.053361904 0.197601 0.04823518 0.02223331
000140 7e f6 42 bd ba f2 45 bc a9 c3 09 bd 77 a5 0e 3d
       -0.047598355 -0.012081796 -0.03363386 0.03482577
000150 6b 1b 58 3d 0b 5c 00 3e fc 13 8b 3d 4e b2 6c 3d
       0.052760523 0.12535112 0.06790921 0.057787232
000160 2a 26 87 3d 0f e3 f0 3d 80 9a b8 3d a9 e8 90 3d
       0.06599076 0.11762058 0.090138435 0.070756264
000170 dc 4e 28 be 26 93 55 3c f1 a2 8a 3d 6b 21 e6 bd
       -0.16436332 0.013035571 0.0676936 -0.11236843
000180 e0 ad 06 3e 05 88 c8 3d b7 1d a0 bd bc ef 21 3e
       0.13152266 0.09791569 -0.07818168 0.15814108
000190 5c 9b 1f 3e 3d ea 85 bd 6c 33 b7 3d d0 32 d8 3c
       0.15586609 -0.06538818 0.08945355 0.026391417
0001a0 2a 39 aa bd 2d ac 8f bd 78 f1 e1 bd 30 a6 bc bb
       -0.083116844 -0.07015262 -0.11032385 -0.005757116
0001b0 51 6b 09 3e 9f c2 12 3c 22 2a 4c 3e cc df cc 3d
       0.13419844 0.008957534 0.19937947 0.10003623
0001c0 72 b6 c6 3d f7 2f ba 3d eb 34 1a bc 06 89 8b 3e
       0.097027674 0.0909118 -0.009412031 0.27252978
0001d0 5f 86 03 3e fe 4b 6c 3d 82 a8 da 3d a0 f8 8f 3d
       0.12844227 0.05768966 0.106766716 0.07029843
0001e0 53 3f 31 bd 46 e8 88 bd b6 37 86 bd cd ab 35 3e
       -0.04327328 -0.06684928 -0.06553595 0.17741318
0001f0 db e1 a0 bd b7 01 61 be e1 cd 5d 3e 22 a8 26 be
       -0.078555785 -0.2197331 0.21660568 -0.16275075
000200 49 85 96 3d 5a ed 2c bd d4 56 2f 3e ea 7b 21 be
       0.07349641 -0.042218544 0.17122966 -0.15769926
000210 aa 4a ba 3c 92 62 ca 3d 0d f6 b2 bd 38 c6 d2 bd
       0.02274068 0.09882082 -0.08738337 -0.102917135
000220 1c 7b ad bd 0c 8d d3 3b 69 4e 8c 3d ab dc 8f bc
       -0.08470747 0.006456023 0.06850893 -0.017561277
000230 50 e4 77 bd 91 5d ec 3d 2c 35 10 be 3e 5b 47 3e
       -0.06052047 0.11541284 -0.14082783 0.194684
000240 3c 84 81 bd af 85 78 3d c2 5b 5c 3c a7 f1 26 bd
       -0.0632405 0.060674366 0.013449611 -0.0407578
000250 f5 46 17 3e 76 9d 54 3e
       0.14773162 0.20763192

weight f4 [1, 150]
000000 1e 5a 96 3d 5d 88 8d be d6 b9 a4 3d 96 f6 f1 3d
       0.07341407 -0.276431 0.08043258 0.11814611
000010 62 dc 1b be a5 06 6c ba b0 88 f5 3c 1f e0 c9 3d
       -0.15220788 -0.00090036757 0.029972404 0.09857201
000020 0d 50 66 be 2b c8 31 be 2b 96 a0 bd e8 50 24 3d
       -0.22491474 -0.17361514 -0.07841142 0.04011622
000030 a8 c1 f3 3d 46 af b2 3c 96 65 e7 3d 57 54 60 bd
       0.119021714 0.021812093 0.11298673 -0.054767933
000040 c2 5b 35 3d 71 c7 b9 3d 9e 84 fb 3d 8e 0b e3 3d
       0.04427696 0.090712436 0.12281154 0.11086188
000050 87 8e 3a 3d 02 cb fd 3d 7a 25 29 3e b1 c5 8b bd
       0.04554608 0.12392236 0.16518202 -0.06824816
000060 cb d7 31 3d fb 2e 0b 3e 43 da 58 bd 77 6c cb 3b
       0.043418687 0.1359214 -0.052942526 0.0062079984
000070 a2 4c 0e 3e 69 89 02 3e 28 10 cd 3d 6f 60 00 bd
       0.1389642 0.1274773 0.10012847 -0.031341966
000080 50 53 08 3b 4a 37 01 3e 5b 10 d3 3d 7f 4f bf 3d
       0.0020801611 0.12618747 0.10305854 0.093413346
000090 f7 5f a0 be f4 61 8c 3d 00 b3 b7 bd e1 99 f5 3d
       -0.31323215 0.068546206 -0.089696884 0.11992241
0000a0 c8 20 0c 3e 99 16 0b be e0 d6 5a 3c 46 aa 21 3d
       0.1368438 -0.13582839 0.013356894 0.039469026
0000b0 f2 67 cf 3c bf c7 5f bd e9 3b ff 3d a1 1b fc bd
       0.02531812 -0.054633852 0.12462599 -0.12309957
0000c0 8e 41 4e 3d 01 51 b7 3e 8c 7a 65 be 55 36 63 3c
       0.050355487 0.3580399 -0.22410029 0.013867934
0000d0 32 5f 85 3e 59 d6 3c 3e e0 15 64 be 70 95 e3 3d
       0.2604919 0.18441142 -0.2227397 0.11112487
0000e0 03 74 0e be 94 03 db bd 3d 98 e7 bd 55 15 47 3e
       -0.13911442 -0.10694042 -0.11308334 0.19441731
0000f0 0d f8 37 3d 99 7c 4a 3e 45 85 9a 3d 53 4f e6 3d
       0.044914294 0.19774093 0.075449504 0.11245599
000100 97 82 bb bd 60 a5 84 3e cb c8 28 be 37 0a 42 3e
       -0.091557674 0.2590742 -0.16482846 0.18949209
000110 b7 26 20 3e fe 19 91 3e e7 37 bc 3d 35 4e 96 3e
       0.15639769 0.28340143 0.0919035 0.29356542
000120 55 4d 8f 3e 1f e0 91 3d e3 f7 59 3d d9 9f 1b be
       0.27988687 0.07122826 0.05321492 -0.15197696
000130 22 dd ee bd b9 4e 6c 3e 2d ab be bd 30 b6 ac bd
       -0.116632715 0.23076905 -0.09309993 -0.08433187
000140 3a 85 08 3e 75 28 66 be 6e a3 cb 3c 20 06 b2 3e
       0.13332072 -0.2247637 0.024858203 0.34770298
000150 fc 39 48 bd 7c 33 9f bd 0d 2b de bc af ff 34 3e
       -0.048883423 -0.07773492 -0.027120138 0.1767566
000160 87 90 31 be a3 82 a0 bd 87 0e 1e bb d5 64 a1 bc
       -0.17340289 -0.07837417 -0.0024117546 -0.0197014
000170 5b 77 42 be ac b5 1d be 49 e5 9e bb fc 9c 0e 3e
       -0.18990843 -0.15401334 -0.0048491103 0.13927072
000180 93 db 2e be b2 b8 07 be 29 99 89 be 99 1e 4a be
       -0.17075948 -0.1325405 -0.26874664 -0.19738235
000190 23 b7 77 3e c3 cc 0a 3e a3 c8 dc bb 07 5f ef 3d
       0.24190955 0.13554673 -0.006737785 0.11688047
0001a0 12 22 19 3e 2b 9c bd 3d ec 2e 97 3d 99 b2 05 be
       0.14954403 0.09258302 0.073819965 -0.13056411
0001b0 1e 74 80 3e 62 62 a3 bd c9 75 76 bd 7a a9 1b bd
       0.2508859 -0.079777494 -0.060170922 -0.038003422
0001c0 5d cf 7b bd 0a 23 3d be 4e 21 37 3e 4f 81 20 3e
       -0.061477054 -0.18470398 0.17883798 0.15674327
0001d0 da b2 82 be 47 60 69 be b6 3a e4 bd 69 8f c0 bd
       -0.25527078 -0.22790633 -0.11144011 -0.09402353
0001e0 83 3d 16 3e 76 4b ea 3d 88 ed f7 bd d3 60 7d bd
       0.14671902 0.11440174 -0.12105852 -0.061859917
0001f0 6c f5 a1 bd 31 71 67 be aa f7 43 3e b4 5f 7e 3d
       -0.07908139 -0.22601773 0.19137445 0.06210299
000200 06 35 75 bd 75 eb 26 3e 22 59 82 be 7a 11 d8 3d
       -0.05986502 0.16300757 -0.25458628 0.105502084
000210 5a a8 3c bd 02 f8 c0 bd f7 7a 0f 3e 7f c5 c6 3d
       -0.04605899 -0.09422304 0.14011751 0.09705638
000220 71 12 36 3d 25 fd 73 bd 71 57 80 bd a1 7b 34 3e
       0.04445118 -0.05956759 -0.06266678 0.17625286
000230 01 b6 e8 3d f8 c4 76 be ab e7 2b be 03 90 3c be
       0.113628395 -0.24098575 -0.16787593 -0.18414311
000240 c1 1a e7 3d cf 17 05 be 30 a6 07 be d9 5e 87 bd
       0.112844 -0.12997364 -0.13246989 -0.06609888
000250 e2 b6 f7 3d ec a4 5d 3e
       0.12095429 0.21644944
